saved-models/normal2_mlp_num_2_mpnn_3.pth (torch, 54661 bytes, 3 tensors)

weight f4 [100, 128]
000000 13 0b a8 3d 5f 14 8b 3d 2e cb 52 3d e3 fd 9f 3d
       0.08205237 0.06790995 0.0514633 0.07812097
000010 09 50 96 3d ad 5c b0 3d 36 7d 92 bd 3c 06 c4 3c
       0.07339484 0.086114265 -0.07152788 0.023928754
000020 68 36 74 bc b8 2f 1e bd 8a 45 7a 3d 1c 88 6f bd
       -0.01490555 -0.038619727 0.061101474 -0.058479413
000030 90 45 85 3c 19 c9 2e bd 71 54 8e 3d bd af 95 bd
       0.016268522 -0.04267225 0.069497 -0.0730891
000040 f0 9c 9a 3c 50 47 ad bb 7a 7e 48 3d 2a d7 ff bc
       0.018873662 -0.005288042 0.048948742 -0.031230528
000050 46 6b 06 3d b2 7d 40 bd 56 ad ab bd c7 fb b2 3d
       0.032817148 -0.046994872 -0.083826706 0.08739429
000060 59 3d aa bd 84 d2 ad 3c f2 ec 60 3d c2 f6 04 3d
       -0.083124824 0.021218546 0.05491347 0.03246189
000070 90 9d 8a 3b b4 9d e3 3c fc e0 be 3c ae 09 8a bd
       0.0042302087 0.02778516 0.02330064 -0.067401275
000080 48 97 ea 3c 21 4f b4 bd 5e 5a 44 3d 50 a0 d6 3b
       0.02863659 -0.08804155 0.047937743 0.0065498725
000090 4a 40 2d 3d db ed 87 3d ed b8 12 bd 68 79 0b bc
       0.04229764 0.06637164 -0.03582089 -0.008512832
0000a0 9c 01 7d bd 9a ff 1d bd 28 5d 1f bc be 9d 17 3d
       -0.061769113 -0.03857384 -0.0097268 0.03701567
0000b0 f2 a0 68 3d 88 87 e0 3c 80 65 09 ba 50 72 a0 bc
       0.056794114 0.027408376 -0.000524126 -0.019585758
0000c0 b2 eb de bc d6 22 3b 3d 7b b6 b0 bd 00 5b ae b9
       -0.027211998 0.04568752 -0.086285554 -0.00033255666
0000d0 83 93 87 bd 8e db 5e 3d b2 fe 4e 3d 38 dc 7d bd
       -0.066199325 0.054408602 0.050535865 -0.061977595
0000e0 68 59 c2 3c e4 61 b6 bc e8 5b 2a bc 2a 8f 2b 3d
       0.023724273 -0.022263475 -0.010397889 0.04188458
0000f0 22 b0 2b bd bc 29 69 bd 80 55 cf ba 80 8c 7f 3c
       -0.04191602 -0.056924567 -0.0015818328 0.015597463
000100 78 97 6f bc ca 1a 25 bd e4 5c 90 bc c8 4e 91 bd
       -0.014623515 -0.04030875 -0.017622419 -0.070951045
000110 eb d1 38 bd a8 b9 bf bc ae 7f 66 3d 8c 57 d6 3c
       -0.04512207 -0.023403957 0.05627411 0.026164792
000120 f6 21 40 bd 90 b7 83 bb 08 71 24 bc ca 06 79 3d
       -0.046907388 -0.004019685 -0.010036714 0.06079749
000130 f0 97 d2 3c 60 58 75 bc 79 da 8c 3d 20 5b 14 3d
       0.025707215 -0.0149746835 0.06877608 0.036219716
000140 60 9f b5 3b e4 9f 94 bc d9 b9 b0 3d af 4b a4 bd
       0.0055426806 -0.018142648 0.086291976 -0.08022248
000150 da 38 06 3d 70 c3 85 bd 4f 8e 9f 3d d8 6e 8c bd
       0.03276906 -0.06531417 0.07790815 -0.06857079
000160 58 8e a8 bd 23 cf b3 bd a8 43 a1 bd 0a 63 8a bd
       -0.08230275 -0.087797426 -0.078742325 -0.067571715
000170 d4 e2 b0 bc 60 cf a0 3c 44 f5 f7 bc d9 92 15 bd
       -0.021592535 0.019630134 -0.030268319 -0.036516998
000180 30 64 e6 3b e0 4e 4a bc 8c 62 b9 bc 87 3e 9c 3d
       0.0070309862 -0.012347907 -0.022629999 0.07629114
000190 85 ca 74 bd c4 dc a9 3c e9 30 b2 bd 79 45 a2 bd
       -0.05976345 0.020735152 -0.08700735 -0.07923407
0001a0 f0 bf ab bd 7e 32 02 3d 43 2d 9b 3d 8c e9 c1 bc
       -0.083862185 0.031786434 0.07576992 -0.023670934
0001b0 10 dc 33 bc e8 ce 81 3c 80 90 3e bb df 9e b3 bd
       -0.01097776 0.01584573 -0.0029077828 -0.08770537
0001c0 8f f7 8c 3d 31 2d 94 3d 5f d8 9b bd 69 19 a0 3d
       0.068831556 0.07235182 -0.07609629 0.078173466
0001d0 59 26 a2 3d 66 f6 70 3d df bc a7 3d 74 5a 74 bd
       0.079174705 0.058828734 0.08190321 -0.059656575
0001e0 00 2c 7e 3b 10 92 25 3c 1d cb 64 bd ce d9 42 3d
       0.003878355 0.010105625 -0.055857766 0.047570996
0001f0 06 6f 6b 3d 87 d1 04 bd f7 04 43 bd 1f ff 89 3d
       0.057478927 -0.032426383 -0.047612157 0.067381136
000200 c8 36 ac 3c 24 e9 d8 3c 25 50 98 3d ed 46 1b bd
       0.021022215 0.026478358 0.07437161 -0.037909437
000210 e6 79 1f 3d 37 d0 b1 3d e3 5c b1 3d 2c 12 de 3c
       0.03893461 0.08682292 0.08660295 0.027108274
000220 9e c8 0b 3d 9a 48 3e 3d b8 16 86 bd 72 73 5e 3d
       0.03412687 0.046455957 -0.06547302 0.054309316
000230 cf 60 86 3d 45 cf 1a bd 60 36 33 bb 40 fb cd bb
       0.065614335 -0.037795324 -0.0027345642 -0.006286055
000240 62 7d 70 3d 80 f5 8a bb f2 06 27 bd ab d0 98 3d
       0.058713324 -0.0042406917 -0.040778108 0.07461675
000250 8d 0f 98 3d b4 be a8 bc 18 98 c9 bc d7 8b a4 3d
       0.07424841 -0.020598747 -0.024608657 0.08034485
000260 88 89 4d 3c e8 38 ee 3c a2 df 7b 3d 40 e3 6a 3c
       0.012544997 0.02907987 0.06149257 0.014336407
000270 da 6f 5f 3d 90 2b ae 3c ba 36 81 bd c1 90 38 bd
       0.05455003 0.021261007 -0.063092664 -0.045059923
000280 53 cd 05 bd da 65 ab bd 89 fa 82 3d f6 cf 36 bd
       -0.032666516 -0.08369036 0.06395442 -0.04463192
000290 8f 23 84 3d 32 5b 41 3d ea a5 52 3d b8 62 71 3c
       0.06452095 0.04720611 0.05142776 0.014733009
0002a0 1b 9c 1e bd 89 4b 44 bd 64 c8 e4 bc 38 c7 3b bd
       -0.038723093 -0.0479236 -0.027927585 -0.045844287
0002b0 50 65 46 bd 30 6e 09 3d 8c 61 fe 3c d8 cf 8f bd
       -0.048436463 0.03355235 0.031052373 -0.07022065
0002c0 94 14 af 3c 4f 50 9d 3d 6d 6c 98 3d e7 b4 56 bd
       0.021372117 0.07681333 0.074425556 -0.052418616
0002d0 b9 66 62 bd fa 63 60 3d ba 70 e2 bc 5c a5 fa 3c
       -0.055273745 0.054782845 -0.027641643 0.030596428
0002e0 22 6c 79 3d e4 41 e0 3c 7f 28 1d bd d1 a7 72 bd
       0.06089414 0.02737517 -0.0383687 -0.059242073
0002f0 3c e1 e4 3c 16 e2 59 3d 79 5e 10 bd c4 d3 93 bd
       0.027939431 0.053194128 -0.035246346 -0.072181255
000300 b8 ac 44 bd f9 a6 18 bd 2a 48 65 3d 54 58 e5 3c
       -0.04801628 -0.037268613 0.055977024 0.02799622
000310 cc f0 e3 3c 0a 75 6a 3d 0f 3b 98 bd 67 7c 16 bd
       0.027824782 0.057240523 -0.074331395 -0.036739733
000320 98 5e a1 bd 46 cf 59 3d f4 23 ca bc e0 51 bc 3c
       -0.078793705 0.053176187 -0.024675347 0.02298826
000330 81 14 87 bd a8 29 8b bd 37 de ae 3d 26 f4 95 bd
       -0.06595708 -0.06795055 0.08538478 -0.07321958
000340 ca 93 72 3d 3d da 68 bd 49 4f 8f bd 48 47 ad bd
       0.059222974 -0.056848753 -0.06997544 -0.084608614
000350 76 b1 0b bd 43 16 a2 3d 7a 25 3d bd 98 4b 0d 3d
       -0.034104787 0.07914402 -0.04617832 0.03449592
000360 58 dc 03 3c e4 f6 cb bc f5 d3 9f 3d b7 70 27 bd
       0.0080481395 -0.024898 0.078040995 -0.040878978
000370 d7 91 9f bd a7 49 04 bd a9 29 3c bd 3c 26 f7 bc
       -0.077914886 -0.032296803 -0.045938168 -0.030169599
000380 40 c3 a9 3c ef 54 1d bd 8a ee 4b 3d 38 56 9c 3c
       0.020722985 -0.038411077 0.049788035 0.019084081
000390 cf a6 01 bd 60 e7 e7 3b 61 d3 55 bd e3 c6 24 bd
       -0.03165322 0.0070771426 -0.05220354 -0.040228736
0003a0 ac eb a4 bc 0a 5a 1a 3d e3 f2 8f 3d 13 60 91 bd
       -0.020131908 0.037683524 0.07028749 -0.07098403
0003b0 b0 41 7c bd 56 6c 44 3d 65 5e 86 3d a0 a4 ce 3c
       -0.061586082 0.04795488 0.06560973 0.025224984
0003c0 40 a3 a4 bc 45 da 1d bd e1 2f 5e bd 05 b0 b1 3d
       -0.020097375 -0.038538236 -0.05424488 0.08676151
0003d0 50 9f 06 bc 32 d3 5b 3d 32 8e 16 3d 50 6b c1 bc
       -0.008216694 0.05366821 0.0367567 -0.02361074
0003e0 8b a4 33 bd 7b 15 95 3d ca 25 64 3d 86 02 2e bd
       -0.043858092 0.07279488 0.0557001 -0.042482875
0003f0 dc 78 c7 3c a9 25 84 3d 15 b8 a8 3d b6 93 47 3d
       0.024349622 0.064524956 0.08238236 0.048724853

bias f4 [100]
000000 10 52 a0 bb ef 3b b4 3d c4 7e bb 3c 83 1d b0 3d
       -0.004892595 0.08800494 0.022887595 0.08599379
000010 79 48 75 bd 36 9f 6f 3d 93 bb a3 3d d8 36 af bd
       -0.05988357 0.058501445 0.07994761 -0.085553825
000020 a7 cd 1f bd 2a 36 40 3d 6c 1b 8b 3c d6 60 37 3d
       -0.039014485 0.046926655 0.01698085 0.044770084
000030 7c 9d ca 3c 0d e6 87 bd 80 26 f4 3a fb 45 b2 bd
       0.024733298 -0.066356756 0.0018627197 -0.08704754
000040 20 22 bf 3b 28 68 94 bc 8e f0 64 3d 7b 6b 86 3d
       0.0058329254 -0.018116072 0.055893473 0.06563469
000050 20 b6 a1 3b 34 ff 54 bd 0c e1 0f bd 62 da 6a 3d
       0.004935041 -0.052001193 -0.03512673 0.057337172
000060 23 c0 a9 bd c0 b5 97 3b 25 0c 13 bd b6 ef 55 3d
       -0.082886 0.0046298206 -0.035900254 0.05223056
000070 96 5b 8c bd 35 33 a7 bd 38 4b b9 3c 87 72 b1 bd
       -0.06853406 -0.08164064 0.022618875 -0.086644225
000080 4a c9 57 3d 00 94 86 3b f0 fe c9 bc 96 a5 77 3d
       0.0526822 0.0041069984 -0.024657696 0.06046065
000090 c8 ed 43 bc f4 fb c9 3c 80 80 34 3c e4 d5 87 bd
       -0.011958547 0.024656273 0.011016965 -0.06632593
0000a0 e9 7a 75 bd 38 02 0f 3d 7f e8 ad 3d 32 a5 55 3d
       -0.05993167 0.034914225 0.08491611 0.052159496
0000b0 9e 45 5a 3d 60 3d e9 3c 0a 6f 79 3d cf 3a b0 bd
       0.05328905 0.028471649 0.06089691 -0.08604967
0000c0 d5 48 88 3d 44 02 1e bd e3 87 a8 3d dc c4 90 bd
       0.066545166 -0.03857638 0.08229043 -0.07068798
0000d0 21 1b 9e 3d b8 8f 28 3c 20 b7 51 3c 8c d8 a0 3c
       0.07720018 0.0102881715 0.012800008 0.019634508
0000e0 87 4a 32 bd 06 13 7d bd ce 78 76 3d de df f8 bc
       -0.043528106 -0.06178572 0.060173802 -0.030380186
0000f0 0c 2f 19 bd 0a f6 73 3d 22 c5 2d 3d 40 b7 7b bd
       -0.037398383 0.059560813 0.04242433 -0.061454058
000100 18 02 b5 bd fc ca 22 bd fa 87 1b bd 00 50 d9 bc
       -0.0883829 -0.039744362 -0.037971474 -0.026527405
000110 be e1 0d bd 20 43 4d 3c 1c be ef 3c 58 10 78 bc
       -0.034639113 0.012528211 0.029265456 -0.015140615
000120 32 fb 50 3d f0 c0 8b bb d6 dd 6a 3d 70 06 aa bc
       0.05102081 -0.0042649433 0.057340465 -0.020755023
000130 ca 3a 66 3d 86 15 8d bd 88 80 5e 3c 10 90 1b 3c
       0.05620841 -0.06888871 0.013580449 0.009494796
000140 d9 d6 8d 3d a4 de e5 bc 91 dd af 3d 42 45 82 bd
       0.069257446 -0.028060265 0.08587182 -0.06360866
000150 65 30 a1 3d dc d9 15 3d 67 85 65 bd d7 18 19 bd
       0.07870559 0.03658472 -0.056035426 -0.037377205
000160 c0 06 a7 ba 26 4a 28 3d c2 7d 9e bd 86 cb 8c bd
       -0.00127431 0.04108634 -0.0773883 -0.068747565
000170 80 44 71 bb 61 87 82 3d 2e 5b 57 bd 32 ec 52 3d
       -0.003681451 0.06373478 -0.05257719 0.051494785
000180 26 7f 70 3d a5 29 65 bd 24 d9 f0 3c 80 36 d0 3c
       0.05871501 -0.05594792 0.029400416 0.025416613

weight f4 [1, 100]
000000 e8 2e da bc 52 25 48 3d ed 48 94 bd b2 e3 78 3d
       -0.026633695 0.048863716 -0.07240472 0.060764022
000010 80 ca ec bb 30 d7 e9 3b 1a a0 4f bd 88 40 a2 bc
       -0.0072262883 0.007136248 -0.050689794 -0.019806162
000020 23 7c 2f bd f1 b1 b6 3d 00 c7 13 3b 90 41 62 bd
       -0.042842995 0.089206584 0.0022549033 -0.055238307
000030 07 e0 ca bd f2 09 2c 3d 18 c6 4a 3c f3 2e ae bd
       -0.09906011 0.042001672 0.012376331 -0.085050486
000040 6d 97 54 bd f8 b3 f6 bc 9a 9b 1a 3d 17 91 53 bd
       -0.051902223 -0.030115113 0.03774605 -0.05165204
000050 2e 29 74 3d 5c c9 eb 3c d0 c0 65 bc 69 69 87 3d
       0.059609585 0.02878254 -0.014023021 0.06611902
000060 35 08 97 bd c0 f5 32 3c 6f 9e 87 3d b1 ec c2 3d
       -0.07374612 0.010922849 0.06622016 0.095178016
000070 ea bf 61 3d 71 82 b8 3d 17 37 21 bd 35 41 8f bd
       0.055114664 0.09009255 -0.03935918 -0.06994859
000080 ae ee ab bd 13 4d a8 3d f6 2b 33 3d c8 d2 c8 bc
       -0.08395134 0.08217826 0.043743096 -0.02451457
000090 a8 ea 77 bc 40 12 c8 bd b9 74 a7 3d 85 cf b9 bd
       -0.01513163 -0.09769106 0.0817656 -0.09072784
0000a0 d6 24 4d 3d 71 2c 8a 3d 27 10 a0 3d ea 4f 42 bd
       0.050083958 0.06746758 0.07815581 -0.047439493
0000b0 13 ee ac 3d 82 bd 75 3d 51 5e 93 3d 48 72 8c bd
       0.084438466 0.05999518 0.07195724 -0.06857735
0000c0 3a 56 1a bd 5b 81 8c 3d 00 a0 10 39 85 24 89 3d
       -0.03767989 0.0686061 0.00013792515 0.06696419
0000d0 36 9c 77 3d aa 6a 03 bd 1d 10 42 bd 2b 75 a5 bd
       0.06045171 -0.032084145 -0.047378648 -0.08078989
0000e0 5a a3 86 bd 6d fc 37 bd 22 11 ae bd 39 90 86 3d
       -0.065741256 -0.044918466 -0.084993616 0.06570477
0000f0 a4 ac 87 bd 57 54 2c bd 52 47 c1 bd 70 9f 59 bd
       -0.066247255 -0.04207262 -0.094374314 -0.053130567
000100 80 20 6b bc 4a 25 55 bd 42 67 66 3d 51 0e b3 3d
       -0.01435101 -0.052037515 0.056250818 0.08742965
000110 a5 aa 81 3d 30 ae c4 bb 66 4d 15 bd 32 72 63 3d
       0.06331376 -0.00600221 -0.036450766 0.055528827
000120 0a 0c 52 bd be ca 95 bd a1 00 af 3d 1a da 23 bd
       -0.051281013 -0.07314061 0.08545042 -0.04000292
000130 00 a0 75 3c d3 d7 93 3d 02 69 61 3d 40 b0 8c bd
       0.01499176 0.072188996 0.055031784 -0.068695545
000140 7a 16 1f bd 20 53 91 3b a3 59 90 bd 30 6d 8d bd
       -0.038839795 0.004434958 -0.07048347 -0.069055915
000150 6e 9a 7d 3d 4d c0 53 bd 82 ad 7c 3d 80 c7 d0 ba
       0.061914854 -0.051697064 0.061688907 -0.0015928596
000160 52 1d 9c bd d2 7b 7e 3d a0 b4 51 bb 56 39 83 bd
       -0.0762278 0.062129803 -0.003199853 -0.0640742
000170 a8 fb 73 3c c0 f8 22 3c aa c4 2f bd 17 ef 4b bd
       0.0148915425 0.009947002 -0.042912163 -0.04978856
000180 ba 18 bb bd 0c 8e ea bc b0 8c b2 bb cb 3b 81 3d
       -0.091355756 -0.028632186 -0.0054489 0.06310233
