saved-models/normal_mlp_num_3_mpnn_7.pth (torch, 54655 bytes, 3 tensors)

weight f4 [100, 128]
000000 00 b1 f7 3b 6c a1 74 bd f8 17 e4 bc ca f5 74 3d
       0.007558942 -0.059724256 -0.02784346 0.059804715
000010 0a bb 01 3d 85 31 5f bd c0 0a 74 bc fe 4d 11 3d
       0.031672515 -0.054490585 -0.014895141 0.03547477
000020 5d 61 88 bd b3 f8 44 bd 15 23 67 bd 3b f1 ab 3d
       -0.066591956 -0.04808874 -0.05642994 0.083956204
000030 9b 2a a3 3d 00 1d ab ba 4e 3e 59 3d a0 b3 aa bc
       0.07967111 -0.0013054907 0.053037934 -0.020837605
000040 60 f9 03 3d 78 43 15 3c ca c4 9c bd 97 92 8e 3d
       0.032220244 0.009110324 -0.07654722 0.069615535
000050 56 13 8e bd 80 74 b8 3c ee 89 58 3d c6 b5 2e bd
       -0.06937282 0.022516489 0.052865915 -0.04265382
000060 1b 90 9f bd d0 6f 69 bc 85 e5 64 bd 76 bc 4f bd
       -0.07791158 -0.01424785 -0.05588295 -0.05071684
000070 4c a0 06 bd b6 23 60 3d 0e 65 15 3d 44 fc ef bc
       -0.032867715 0.054721557 0.036473326 -0.029295094
000080 00 39 2b bb 10 21 94 bd de 57 1a 3d eb 75 14 bd
       -0.0026126504 -0.07232869 0.037681453 -0.036245268
000090 72 e9 51 3d 10 38 12 3c f2 79 1b 3d be 42 33 3d
       0.05124802 0.008924499 0.037958093 0.043764822
0000a0 c1 56 9f 3d 84 b2 91 bd e2 cb 35 3d 8a 2d e8 bc
       0.07780219 -0.07114127 0.04438389 -0.028342027
0000b0 a6 a4 b3 bd 38 4b 6a bc dc 22 5f bd 4a 5a 77 3d
       -0.087716386 -0.01430016 -0.054476604 0.06038884
0000c0 e0 a9 00 bb ad 32 9c 3d 70 62 ed bc 89 a3 8a 3d
       -0.0019632503 0.07626853 -0.028977603 0.06769473
0000d0 00 d4 b5 3c 08 a0 ca bc 28 c2 91 3c 28 d4 b4 3c
       0.022195816 -0.024734512 0.017792776 0.02207382
0000e0 2a 23 41 3d 8c 0a 80 bc bb 66 8b 3d fe 4e 33 3d
       0.047152676 -0.01563003 0.06806704 0.043776505
0000f0 60 9f 31 bc f4 78 4f bd d5 24 8b 3d fe 07 83 bd
       -0.010841221 -0.05065246 0.067941345 -0.06398009
000100 73 aa a7 3d cf 3d 96 3d 64 9c b0 bd 80 85 eb ba
       0.081868075 0.07336008 -0.08623579 -0.0017968863
000110 db 1b 9e 3d f1 de 81 3d 0f 95 b2 3d ec 93 8e bc
       0.07720157 0.06341351 0.08719837 -0.017404519
000120 15 f7 6f bd 7e da 56 3d 48 03 77 3c 0e b2 18 bd
       -0.058585245 0.052454464 0.015076466 -0.03727918
000130 20 06 72 3b d7 53 86 bd 06 4e 25 3d 3e 04 43 3d
       0.003692992 -0.0655896 0.040357612 0.047611468
000140 3c a9 d3 bc b2 6e 72 3d c7 fb 8b 3d 54 40 87 3c
       -0.025837533 0.0591876 0.06835132 0.016510166
000150 cc cb b5 3c 60 2a 77 bd 41 85 af 3d a8 0a d0 3c
       0.022191904 -0.060343146 0.08570338 0.025395706
000160 a0 4d 6b 3c 10 9c 72 bd 80 b6 24 3b 77 bb 90 3d
       0.014361769 -0.059230864 0.0025133193 0.07067006
000170 a0 a1 00 bb ba 32 e9 bc c0 4e 6a 3c b6 db 04 3d
       -0.0019627586 -0.028466571 0.014301002 0.032436095
000180 a7 ce a0 bd 84 b3 bd 3c d2 03 1b 3d 80 bb 4d 3a
       -0.07851916 0.023156889 0.03784544 0.0007848069
000190 b5 9f 76 bd 38 5d 01 bc 31 90 99 bd 3a d6 49 bd
       -0.060210902 -0.00789576 -0.074982055 -0.049276568
0001a0 20 f2 9d 3b 81 41 81 bd c4 9e 82 3c 68 bb 05 3d
       0.0048201233 -0.06311322 0.015944846 0.032649428
0001b0 2b f8 3c bd e0 44 e7 bc 20 77 14 bb 36 79 25 3d
       -0.04613511 -0.028231084 -0.0022654012 0.0403988
0001c0 20 09 76 3c 90 8b f9 bc 37 de 97 bd c1 71 ae 3d
       0.015016824 -0.030462056 -0.07415431 0.085177906
0001d0 c0 c4 b8 ba 3e f3 3e 3d 81 63 ac bd 2b 15 a8 3d
       -0.0014096722 0.046618693 -0.08417416 0.082071625
0001e0 2c 4f b9 3c 3f 2a 91 3d 86 d1 f4 bc 07 61 98 3d
       0.02262076 0.07088136 -0.029885065 0.074403815
0001f0 e8 a0 d3 bc 6a 25 5d 3d 7b 2e 89 bd 36 66 1f 3d
       -0.025833562 0.05399076 -0.066983186 0.038915835
000200 54 e0 22 bd 27 3e 99 bd 7c eb 9a bd 2e 15 35 bd
       -0.039764717 -0.07482558 -0.07564446 -0.04420965
000210 08 80 22 bd 14 4d d2 bc 38 c1 da bc 54 aa 32 bd
       -0.03967288 -0.02567152 -0.026703462 -0.04361947
000220 16 46 08 bd 9d c5 b2 3d 1a ee 15 3d f4 a0 89 bd
       -0.033269964 0.08729098 0.036604024 -0.067201525
000230 40 1c 83 bb b7 1c ac 3d 72 48 a1 bd 50 93 c4 3c
       -0.0040011704 0.084039144 -0.07875146 0.023996025
000240 1d dc 97 3d 28 eb ef 3c f5 e8 03 bd 24 4c 8f bd
       0.0741503 0.029286936 -0.032204587 -0.069969445
000250 fa 50 e5 bc 88 f4 af 3c 28 83 49 3c 70 3f 2b bd
       -0.027992714 0.021478906 0.0122993365 -0.041808546
000260 ed 35 0d bd 23 61 9a 3d d6 1d 5f 3d 4b 14 2d bd
       -0.034475256 0.075380586 0.054471813 -0.04225568
000270 f9 1f a4 3d df 78 ae 3d 34 fc 9b 3c 4c 9c ab bd
       0.08013911 0.08519148 0.019041158 -0.08379421
000280 e6 39 8c bd 7a 8e 34 bd 63 99 a2 3d 33 e7 85 3d
       -0.06846981 -0.04408119 0.079394124 0.065382384
000290 50 05 b7 bc 58 bd 9e 3c 18 70 8d bc 48 fa 6b bc
       -0.0223414 0.019377396 -0.017265365 -0.014402933
0002a0 40 74 f1 bc b5 2b ac 3d 68 76 53 3c 11 dd 44 bd
       -0.029474378 0.08406774 0.012906648 -0.048062388
0002b0 71 6e 85 3d e8 b8 3a bc 77 73 99 3d 9c 42 3c bd
       0.06515206 -0.011396624 0.07492726 -0.04596196
0002c0 44 aa 99 bc c8 2b a6 bc 32 ad 71 3d 40 16 84 bd
       -0.018757947 -0.020284548 0.059003063 -0.06449556
0002d0 5c 92 89 3c 7a 19 8f bd c0 28 21 bc c1 b6 a7 bd
       0.016793422 -0.06987281 -0.009836376 -0.081891544
0002e0 70 a4 20 3c f6 dd 26 3d ee 5b 47 bd a4 d1 aa 3c
       0.00980483 0.040739022 -0.048671655 0.020851918
0002f0 90 32 c9 bc de 19 46 3d 07 b8 a1 3d 3c f8 ed 3c
       -0.024560243 0.048364513 0.078964286 0.029049031
000300 87 62 96 3d 26 39 2f 3d 9e 66 67 3d cf 55 a9 3d
       0.07343011 0.04277911 0.056494348 0.0826832
000310 98 2c d6 bc 09 3f b3 bd c6 49 1d bd 75 e6 27 bd
       -0.02614431 -0.087522574 -0.038400434 -0.040991265
000320 36 3f 60 3d 8a d4 4a bd 9c f0 e3 3c e1 a4 2c bd
       0.054747783 -0.0495191 0.027824692 -0.04214943
000330 e6 1b 4e 3d 00 d1 0b 3b b9 6b 8f 3d 74 f0 be 3c
       0.050319575 0.002133429 0.07002968 0.023308016
000340 20 75 53 3b 3d 5f 92 bd 74 a2 25 bd c9 ac 9a bd
       0.0032265857 -0.071470715 -0.04043813 -0.075524874
000350 e0 b8 9f bb be 43 37 3d b0 c5 ff bc 28 de 98 3c
       -0.0048743337 0.04474234 -0.031222194 0.01866062
000360 c6 4b 29 3d 92 c3 29 3d 1c b0 a2 3c c8 6c 9c 3c
       0.04133203 0.041446276 0.019859366 0.01909484
000370 48 5a b2 3c ec 10 ac 3c bd 41 85 3d d8 24 35 bc
       0.021771565 0.021004163 0.06506679 -0.0110561475
000380 d8 a0 58 bc 80 a0 22 ba cf ba 96 3d 20 02 53 bb
       -0.013221942 -0.0006203726 0.0735985 -0.0032197312
000390 1a 18 02 3d 1a 19 91 bd 10 ff 31 bc 20 4c 78 3b
       0.031761266 -0.07084866 -0.010864034 0.003788717
0003a0 e6 38 a2 bd 1e fc 7b 3d c3 d0 61 bd e0 b8 d8 3c
       -0.07921009 0.061519735 -0.05513073 0.026455343
0003b0 02 6e 07 3d 90 c3 2c bd 95 90 97 3d e3 9d 56 bd
       0.033063896 -0.04217869 0.07400624 -0.052396666
0003c0 4a 47 56 bd 95 9d 8f 3d 59 4f a0 3d a4 11 f2 3c
       -0.05231408 0.07012478 0.07827634 0.029549427
0003d0 80 9b 9a 3b 78 03 63 bd 18 27 2a bc 45 33 80 3d
       0.004718244 -0.05542323 -0.010385297 0.06259779
0003e0 3e f6 ed bc 7e 91 75 bd 68 5d 65 bd 79 ff b0 bd
       -0.029048081 -0.059953205 -0.055997282 -0.086424775
0003f0 44 89 9d bc 70 70 85 3b 9d 85 34 bd e1 5f 5f bd
       -0.019230492 0.0040722415 -0.044072736 -0.054534797

bias f4 [100]
000000 dd 1b a4 bd b8 3f 9c bd a5 4a a4 3d b0 19 2d bc
       -0.08013127 -0.07629341 0.0802205 -0.010565206
000010 40 cd 31 3c e0 1a 41 bb 02 e1 38 3d 03 eb 33 bd
       0.010852158 -0.0029465482 0.04513646 -0.043925297
000020 68 ad 3b bd 00 0d 97 bb d0 fd 81 3c 13 28 88 3d
       -0.04581967 -0.004609704 0.015868098 0.066482686
000030 e1 54 4b bd 7e 6f 2e bd 50 de b3 3c 6c 96 bb 3c
       -0.049641494 -0.042586796 0.021956593 0.022898875
000040 7b bd 05 bd e4 98 f8 bc 0a f5 6e 3d 35 43 8f bd
       -0.032651406 -0.030346341 0.058339156 -0.069952406
000050 37 cd 9d bd e5 3d ae 3d 88 1d 42 bc 65 c7 90 3d
       -0.07705157 0.08507899 -0.011847861 0.070692815
000060 6b 8b 98 bd 6b d4 99 bd 1a eb 0f 3d 51 aa b1 3d
       -0.07448467 -0.07511219 0.03513632 0.086750634
000070 98 17 9a bc b8 8f 98 bd 3f 44 a1 bd 90 a4 1c bc
       -0.018810079 -0.07449287 -0.07874345 -0.009560719
000080 24 ca 4f bd 50 5f a3 bd 10 5b b8 bc 62 14 21 3d
       -0.050729886 -0.07977164 -0.02250436 0.03932608
000090 52 ca 04 3d 5e 12 8c bd 5b ad aa bd e0 aa 23 bc
       0.03241951 -0.06839441 -0.08333846 -0.00998947
0000a0 b6 c0 58 3d 7d d9 94 3d 5f 35 3c bd 7b 4b 94 3d
       0.05291816 0.07268045 -0.045949336 0.07240959
0000b0 f9 9e 77 bd 8e af 77 3d de 09 46 3d 88 84 c7 bc
       -0.060454343 0.060470156 0.048349254 -0.024355188
0000c0 ad a5 34 bd 63 bb 80 3d 70 60 ff bc 1a b9 6a 3d
       -0.044103313 0.06285741 -0.031173915 0.057305433
0000d0 80 7d 20 bc 2a f6 0a bd 01 c7 5d bd 24 e6 0b bd
       -0.0097955465 -0.033926167 -0.054144863 -0.034155026
0000e0 62 e1 35 3d 2f cf a7 3d 08 9d 21 bc b7 d4 94 bd
       0.044404395 0.08193814 -0.009864099 -0.07267135
0000f0 6a 93 23 bd 05 9f 9b 3d d9 3b 96 3d 9a b6 2d 3d
       -0.039935507 0.0759869 0.07335634 0.04241047
000100 e0 c8 f6 bc 46 28 56 3d 10 b1 90 bc 80 05 6e bd
       -0.030125082 0.0522845 -0.017662555 -0.058110714
000110 60 7e 37 3b ac 61 93 bc ab 65 0f bd fc b2 ae 3c
       0.002799891 -0.01799091 -0.035009068 0.02132558
000120 32 99 65 3d 98 5c 95 bd d8 bd 10 bd 35 fe 91 bd
       0.0560543 -0.072930515 -0.0353373 -0.07128564
000130 94 4a 70 bd 0c b5 c1 3c c6 e3 29 bd c8 c5 52 3c
       -0.058664873 0.0236459 -0.041476987 0.012864538
000140 f6 97 6d 3d 5a f6 47 3d 31 5d 84 3d 8a 60 2e 3d
       0.05800625 0.048818924 0.06463087 0.042572536
000150 b0 0e 2c bc b8 c2 e9 3c 1c 22 89 bd f0 cd 76 bc
       -0.010501549 0.028535232 -0.06695959 -0.015063748
000160 28 8a 81 3c fe dd 51 3d 70 9f 4f bc 8d f6 6b bd
       0.015812948 0.0512371 -0.01267229 -0.057608176
000170 06 a2 45 3d f0 8b 3c bc aa 6d 6a 3d 07 1e ab 3d
       0.04825022 -0.011507973 0.05723349 0.08355337
000180 aa 62 32 3d 7c d8 e8 3c 7c a1 04 3d 70 89 6b bc
       0.043551125 0.02842354 0.032380566 -0.014376029

weight f4 [1, 100]
000000 e0 39 c4 3c bf 97 c0 bd cd 6d cb 3d d0 9d 47 bd
       0.023953378 -0.09403943 0.09933052 -0.048734486
000010 46 c4 13 3d 9d 48 87 bd 00 22 ee 39 00 70 a0 39
       0.036075853 -0.06605647 0.0004542023 0.00030601025
000020 ce 12 86 bd fa cd 65 3d 96 47 49 3d 32 a7 7d 3d
       -0.065465555 0.056104638 0.049140535 0.061927028
000030 a0 ed 8a 3c 90 1e 15 bd 4e 6d 95 bd 60 78 c4 bd
       0.016959012 -0.0364061 -0.07296239 -0.09593272
000040 d3 54 4c bd 40 ee 24 bc 70 ee 29 bc c8 27 93 bd
       -0.049885582 -0.010066569 -0.010371789 -0.07185322
000050 71 5d 98 3d d8 d8 25 3c 10 ed 2c bd 7a 98 a7 bd
       0.074396975 0.0101225 -0.042218268 -0.081833795
000060 be 71 2a 3d 6a c7 bd bd 34 a5 b9 bc 00 7c a9 ba
       0.04161238 -0.09266551 -0.022661783 -0.0012930632
000070 00 4a 48 bb e7 b3 81 3d 89 08 9e 3d 01 0e ba 3d
       -0.0030561686 0.06333142 0.07716472 0.09084702
000080 0c 50 cf bc 8d 65 98 3d 00 6c 9e 3b 0c 16 b1 bc
       -0.025306724 0.07441244 0.004834652 -0.021616958
000090 72 3d b3 bd cd ff 80 3d 18 02 b1 bc 4c 7b 0b bd
       -0.08751954 0.0629879 -0.021607444 -0.034053132
0000a0 d7 d9 80 3d 61 3d a9 3d 70 86 00 bd 28 44 58 3c
       0.0629155 0.0826366 -0.03137821 0.0131998435
0000b0 40 42 ea bc fa 21 bf bd d4 2d e4 bc 86 1d 5a 3d
       -0.028596044 -0.093326524 -0.027853884 0.053250812
0000c0 77 cc 33 bd 52 76 22 3d 58 69 a2 bc 4a c1 78 3d
       -0.043896165 0.03966362 -0.019825622 0.06073121
0000d0 30 2b 51 bd 60 eb 5d bd d9 0f c2 3d 93 66 c2 3d
       -0.051066577 -0.05417955 0.09475679 0.09492221
0000e0 03 6e c2 3d 53 70 20 bd 59 5f bb 3d c5 b1 8b bd
       0.09493639 -0.03916962 0.091490455 -0.06821016
0000f0 93 8d 2e bd 07 15 40 bd 34 ea b7 bc 48 20 b1 3c
       -0.042615484 -0.046895053 -0.022450544 0.021621838
000100 fb d4 91 3d dc 5e eb 3c a8 09 91 bc a9 fa 85 3d
       0.07120701 0.028731756 -0.0177048 0.0654195
000110 00 e7 b1 bc a6 4c 20 3d 84 94 17 bd 80 27 d1 ba
       -0.021716595 0.039135598 -0.03700687 -0.0015957206
000120 aa bd 08 bd ec 71 c7 bc 23 da 92 3d 4b cd 8c 3d
       -0.033384003 -0.024346314 0.071705125 0.06875094
000130 fd 27 8c 3d 67 f5 c1 3d 50 0b 2c bd f2 05 1d 3d
       0.06843565 0.09470635 -0.042002976 0.038335748
000140 35 78 9d bd 40 b8 98 bc 35 3c c0 bd 65 28 99 3d
       -0.07688943 -0.018642545 -0.093864836 0.07478408
000150 69 dc 94 3d 66 83 12 bd d0 7e 20 bd 31 cd 9e 3d
       0.072686024 -0.035769843 -0.039183438 0.07753981
000160 97 52 c0 3d a3 01 5b bd a5 14 a9 bd f7 b5 50 bd
       0.09390753 -0.053468358 -0.08255891 -0.050954785
000170 18 cc 5e bc 9a 2c 8c bd 50 87 13 bd ec f7 bb 3c
       -0.013598464 -0.068444446 -0.036017716 0.022945367
000180 98 cb cb bc 80 25 b1 bb c2 ca 2a 3d 91 ea 90 3d
       -0.024877355 -0.0054060817 0.04169727 0.0707599
