saved-models/normal_mlp_num_2_mpnn_5.pth (torch, 54655 bytes, 3 tensors)

weight f4 [100, 128]
0	0x3c5b08c8	0.013368793
1	0xbbf5ace0	-0.007497415
2	0xbd30eee0	-0.04319656
3	0xbd3262fa	-0.043551423
4	0xbd13729e	-0.03599798
5	0xbd6763f8	-0.056491822
6	0x3aaeb040	0.0013327673
7	0xbd988f7c	-0.074492425
8	0xbcbded8c	-0.02318456
9	0xbd87379e	-0.06602405
10	0xbceb351a	-0.028711844
11	0xbd854f6d	-0.0650929
12	0x3cb3baac	0.021939598
13	0xbd3fd3a3	-0.046832692
14	0xbc1321e8	-0.008980252
15	0xbd826787	-0.063674025
16	0x3d8f5cb5	0.07000104
17	0x3ce757c4	0.028240092
18	0xbd3d1b23	-0.046168458
19	0xbd90f29f	-0.07077526
20	0x3d28ac76	0.041180097
21	0x3cc127c0	0.023578525
22	0xbd4ee104	-0.05050756
23	0x3d15889c	0.036507234
24	0xbda33a30	-0.07970083
25	0x3d75793e	0.05993008
26	0x3c687b80	0.014189601
27	0x3d1f6022	0.03891004
28	0x3c0d1d90	0.008613005
29	0xbbc4b7d0	-0.0060033575
30	0xbd57f7e8	-0.052726656
31	0xbd616592	-0.055028506
32	0xbd05933b	-0.032611113
33	0xbda47918	-0.08030909
34	0x3d995027	0.07485991
35	0xbc84fce0	-0.016233861
36	0x3d83dda9	0.06438763
37	0x3d1c8a6e	0.038217954
38	0x3da7bee5	0.08190707
39	0xbd270b4a	-0.04078225
40	0xbd609af0	-0.05483526
41	0xbcdeef9a	-0.02721386
42	0x3d73a10e	0.059479766
43	0xbc4836a0	-0.012220055
44	0xbd98b2c5	-0.074559726
45	0xbd7cc1c6	-0.061708234
46	0x3b2db300	0.0026504397
47	0x3d4f802a	0.050659336
48	0xbcefad18	-0.029257342
49	0x3c261f50	0.010139301
50	0x3d12f078	0.03587386
51	0xbd11cc58	-0.035595268
52	0x3d17991a	0.037011243
53	0xbdb1b9b8	-0.08678001
54	0xbc061f90	-0.008186236
55	0x3da1761d	0.078838564
56	0x3c13e9b0	0.009027883
57	0xbd163bd3	-0.036678147
58	0xbd3e8a4d	-0.046518613
59	0x3d43ebce	0.047832303
60	0x3cad7ff0	0.02117917
61	0x3d9681ad	0.073489524
62	0x3d32e94a	0.043679513
63	0x3d0fc10a	0.035096206
64	0xbd71dada	-0.059046604
65	0x3d6238f2	0.05523009
66	0xbd2bb5b9	-0.04192135
67	0xbc011020	-0.00787738
68	0xbd01ec4d	-0.031719495
69	0xbcd72952	-0.02626482
70	0xbc7047e0	-0.014665574
71	0xbd961ff0	-0.0733031
72	0x3bd2fe50	0.006439008
73	0xb9b62400	-0.00034740567
74	0x3c620a58	0.013796411
75	0xbdb0d792	-0.08634867
76	0xbd9d9411	-0.07694257
77	0x3d0547f4	0.032539323
78	0x3d34a516	0.04410275
79	0xbdb2b782	-0.087264076
80	0x3d65c12e	0.056092434
81	0xbd16212a	-0.03665272
82	0x3c328b90	0.010897532
83	0xbd97367a	-0.073834375
84	0x3d1b3206	0.037889503
85	0xbcc56e60	-0.024100482
86	0xbd5db661	-0.05412901
87	0x3d072b1e	0.033000104
88	0xbd743cc4	-0.059628263
89	0xbbfe7fe0	-0.0077667087
90	0xbd29d569	-0.04146329
91	0xbc53c1c8	-0.012924619
92	0xbdb43eaf	-0.088010184
93	0xbc3170e8	-0.010830142
94	0x3d24492e	0.040108852
95	0x3d95d861	0.073166616
96	0xbda1f05e	-0.079071745
97	0xbd6dd5fb	-0.058065396
98	0xbcfdb14e	-0.030968335
99	0xbd1f18a2	-0.03884185
100	0x3c724da8	0.0147890225
101	0x3db3991b	0.08769437
102	0x3d4e1dc6	0.050321363
103	0xbdab7893	-0.08372607
104	0x3d1abb6e	0.037776403
105	0x3d0c8cba	0.034313895
106	0x3d9156b9	0.07096619
107	0xbd48bf73	-0.049010705
108	0x3cc2fea4	0.023803063
109	0xbd45ac6b	-0.048260134
110	0xbcfe3d28	-0.031035021
111	0xbd43d89c	-0.047813997
112	0x3d9bd559	0.07609052
113	0xbd1d31f7	-0.03837773
114	0xbd9fcd78	-0.07802862
115	0xbc455fb8	-0.012046747
116	0x3d9d2885	0.07673744
117	0xbd87b1b1	-0.06625689
118	0x3cce4f38	0.025184259
119	0x3d70d0ae	0.058792762
120	0xbd22a8e0	-0.039711833
121	0xbd456d0e	-0.048199706
122	0xbc8dde50	-0.01731792
123	0x3bd07920	0.0063620955
124	0xbd322499	-0.043491933
125	0x3d2837fe	0.041069023
126	0xbd763c26	-0.060115956
127	0xbd7c96a9	-0.06166712
128	0xbcbb866c	-0.022891246
129	0x3d9400b9	0.072267
130	0xbda73021	-0.08163477
131	0xbd86d38a	-0.065833166
132	0x3c6f4e00	0.014605999
133	0x3d868559	0.06568403
134	0x3d5164b6	0.051121436
135	0x3bf923a0	0.007603124
136	0xbdb47a13	-0.08812346
137	0xbd9e88ba	-0.07740922
138	0xbd2d1248	-0.042253762
139	0x3d289eba	0.041167
140	0x3cf29d04	0.029615887
141	0xbdabacb1	-0.08382548
142	0x39da6400	0.00041654706
143	0x3a032200	0.000500232
144	0x3d8c5831	0.06852759
145	0x3d472696	0.048620783
146	0x3cf69ca8	0.030103996
147	0x3b7a2e60	0.0038174614
148	0x3d5a6b3a	0.053324915
149	0xbd54e7ef	-0.051979
150	0xbdad110c	-0.08450517
151	0xbd906e04	-0.07052234
152	0xbc2008c0	-0.009767711
153	0xbd0e95a6	-0.034810685
154	0xbd9bb4c5	-0.076028384
155	0x3cdff930	0.027340502
156	0x3d4350b2	0.04768438
157	0xbd186964	-0.037209883
158	0x3d8e7653	0.06956162
159	0x3d8a80c3	0.067628406
160	0xbd1144e1	-0.03546608
161	0x3d841775	0.064497866
162	0xbdab38cb	-0.08360442
163	0x3d3c44e2	0.04596413
164	0x3c052260	0.008125871
165	0xbce0b192	-0.027428422
166	0xbd2955a5	-0.041341443
167	0x3b9b9b30	0.0047487244
168	0xbdb103e7	-0.086433224
169	0xbcbd7c2c	-0.023130499
170	0x3c5d6388	0.0135125
171	0x3c5bec30	0.013423011
172	0xbda56698	-0.08076209
173	0xbd8ad03b	-0.06777998
174	0x3d22ba8a	0.03972868
175	0xbca5a674	-0.020220973
176	0x3d5aec2e	0.053447895
177	0x3b9ebf60	0.004844591
178	0xbc1979a0	-0.009367377
179	0xbd95cdd5	-0.0731465
180	0xbda50c08	-0.080589354
181	0xbc637490	-0.013882771
182	0xbcc8b5c4	-0.024500735
183	0x3d4f88e6	0.050667666
184	0xbd49fba6	-0.049312256
185	0xbd96da37	-0.0736584
186	0x3c9fa8f0	0.019489735
187	0x3d674dfe	0.056470864
188	0xbcfdf250	-0.030999333
189	0x3d15b32e	0.036547832
190	0x3d73735e	0.059436195
191	0x3d23475a	0.039862968
192	0x3d06ce5c	0.032911643
193	0x3d700bce	0.058605008
194	0xbda9edd0	-0.08297312
195	0x3c6d7388	0.014492877
196	0xbbab0110	-0.0052186325
197	0xbd9fa749	-0.07795579
198	0x3cc16770	0.023608893
199	0x3d7ba0da	0.061432697
200	0x3c1eb320	0.009686261
201	0x3d6ed49a	0.05830822
202	0xbba7a690	-0.0051162913
203	0xbd6c21c3	-0.057649385
204	0x3d3d259e	0.046178453
205	0xbd4a3429	-0.04936615
206	0xbc1e1b00	-0.009649992
207	0xbbacf310	-0.0052779987
208	0x3d9e0127	0.077150635
209	0xbd974cf3	-0.07387724
210	0xbd9d110c	-0.07669267
211	0xbd27c09e	-0.04095518
212	0xbd4146a6	-0.047186516
213	0xbcc1ca00	-0.023655891
214	0xbd78d0f0	-0.060746133
215	0xbd96e7c3	-0.07368424
216	0xbd53576c	-0.051597044
217	0x3d0feffc	0.035140976
218	0x3c5cd408	0.013478287
219	0xbd37ca99	-0.044870947
220	0x3d7f7dea	0.06237594
221	0x3d964d53	0.07338967
222	0xbd15c5dc	-0.036565647
223	0x3c9d5488	0.019205347
224	0x3c070898	0.008241795
225	0x3d009426	0.031391285
226	0x3c28fcb8	0.010314159
227	0x3da530af	0.08065926
228	0xbc6c9f70	-0.01444231
229	0x3d84b053	0.06478944
230	0x3c7f0e40	0.015567362
231	0x3d5fb38a	0.05461458
232	0xbd8bc0aa	-0.06823857
233	0xbda78f12	-0.08181585
234	0xbdaee7d0	-0.085403085
235	0xbd886d30	-0.06661451
236	0xbd498168	-0.049195677
237	0xbd00a221	-0.03140462
238	0xbc30ea18	-0.010798
239	0xbda92e49	-0.08260781
240	0x3bd08040	0.006362945
241	0x3d92a45d	0.07160256
242	0x3d149a00	0.03627968
243	0xbd939f7b	-0.07208153
244	0x3d9548ef	0.072893016
245	0xbcc2d8a4	-0.023784943
246	0xbd9672ca	-0.07346113
247	0xbb94e000	-0.0045433044
248	0x3d3146ae	0.043280296
249	0x3d4d5ef2	0.050139375
250	0xbd481769	-0.04885045
251	0x3c5c03f0	0.013428673
252	0xbcb7f714	-0.022456683
253	0x3d06e282	0.03293086
254	0xbc2157f8	-0.009847634
255	0xbdb49556	-0.08817546

bias f4 [100]
0	0x3cbc6778	0.022998556
1	0xbd2e18fc	-0.042504296
2	0x3d06aa7e	0.032877438
3	0x3daa0559	0.08301801
4	0x3b2cb520	0.0026353076
5	0x3cba1470	0.022714823
6	0x3d354f4a	0.04426507
7	0xbd5c98bb	-0.053856593
8	0x3c633a30	0.013868853
9	0x3d9e75af	0.0773729
10	0x3da4b323	0.0804198
11	0x3d9f7dab	0.07787641
12	0xbca4412c	-0.020050608
13	0x3d52c71e	0.051459424
14	0x3d28a1ea	0.04117004
15	0xbc489b18	-0.0122440085
16	0xbd683181	-0.056687836
17	0x3d9fac27	0.07796507
18	0x3b5359e0	0.0032249615
19	0x3d982e37	0.0743069
20	0xbd0f502b	-0.034988564
21	0xbd8b1ab8	-0.067922056
22	0xbce0c8c4	-0.027439483
23	0xbc54c218	-0.012985729
24	0x3d3d4e12	0.04621703
25	0x3c6857d8	0.0141811
26	0x3d65c2fa	0.056094147
27	0x3d5e2e8e	0.054243617
28	0x3b358dc0	0.0027702898
29	0x3c0c2fc0	0.008556306
30	0xbc54a2d0	-0.012978271
31	0xbda507cc	-0.08058128
32	0xbd93e6ec	-0.07221779
33	0xbd584ea6	-0.05280938
34	0x3da86cf3	0.082239054
35	0x3c173d88	0.009230979
36	0x3d007c7a	0.03136871
37	0xbd6ab907	-0.057305362
38	0xbca4f618	-0.020136878
39	0xbce8541a	-0.028360415
40	0xbd41245a	-0.04715381
41	0xbd8d9e50	-0.06914961
42	0x3d2523ce	0.04031735
43	0xbbbee170	-0.005825214
44	0x3d70d856	0.058800064
45	0xbc845970	-0.016155928
46	0x3d320692	0.043463297
47	0x3c24c5f8	0.010056965
48	0x3da5c287	0.08093744
49	0x3c61bbd0	0.013777688
50	0x3ccbd098	0.024879739
51	0x3db43b95	0.08800427
52	0xbd19c3a4	-0.037540093
53	0x3c670d20	0.01410225
54	0x3d419cca	0.047268666
55	0xbdb20d7f	-0.086939804
56	0xbd378273	-0.04480214
57	0x3dab0389	0.08350284
58	0xbd391496	-0.045185648
59	0x3cd6f088	0.026237741
60	0xbd68be3b	-0.056822043
61	0xbc505ec0	-0.012717903
62	0xbd6ef0cd	-0.058335114
63	0xba85b780	-0.0010201782
64	0xbb5012c0	-0.0031749457
65	0x3d9c91d1	0.07645
66	0x3d882133	0.06646957
67	0xbd2d5cf3	-0.04232497
68	0xbd3faca8	-0.046795517
69	0x3d5853ca	0.052814282
70	0x3d9a5395	0.07535473
71	0xbd6ce0f8	-0.057831734
72	0xbbee49c0	-0.0072719753
73	0xbd7cc5c0	-0.061712027
74	0x3d3adec2	0.045622595
75	0x3cf40b40	0.02979052
76	0xbb208b80	-0.002449721
77	0xbd9ec562	-0.077524915
78	0xbd41046f	-0.04712337
79	0x3d5847a6	0.052802704
80	0x3d3498e2	0.044091113
81	0x3c937da0	0.018004239
82	0xbce9fd78	-0.028563246
83	0x3d0b2f98	0.033980936
84	0xbda0ffdc	-0.07861301
85	0x3d9ce513	0.0766088
86	0xbd727624	-0.0591947
87	0xbcfb2d32	-0.0306612
88	0xbd82ae4e	-0.06380902
89	0xbbddcbf0	-0.006768696
90	0x3d7d64be	0.061863653
91	0xbc95ce00	-0.018286705
92	0xbcdd658c	-0.02702596
93	0x3d068bcc	0.032848164
94	0x3c8aba54	0.016934551
95	0xbce9adfc	-0.028525345
96	0x3d2e4f12	0.042555876
97	0x3c137090	0.008999005
98	0xbcd87878	-0.026424631
99	0x3d7b6c22	0.06138242

weight f4 [1, 100]
0	0xbd6a9333	-0.057269286
1	0xbdbb0617	-0.09132021
2	0xbd206310	-0.039156973
3	0xbc179b70	-0.009253368
4	0x3dca6e53	0.09884324
5	0xbd2cc747	-0.042182233
6	0x3d482fd2	0.04887373
7	0xbd50f11d	-0.051011194
8	0x3ccbf3f4	0.0248966
9	0xbdb5207f	-0.08844089
10	0xbd568fed	-0.052383352
11	0x3c16ab68	0.00919614
12	0x3dada0a1	0.08477903
13	0xbd174d3c	-0.03693889
14	0xbd8b9995	-0.06816403
15	0xbc0d9ab0	-0.008642837
16	0xbdbf462d	-0.09339557
17	0xbdcaa38d	-0.09894476
18	0x3cfc66bc	0.030810706
19	0xbb35f5c0	-0.0027764887
20	0xbdb983ff	-0.090583794
21	0x3d2af2e2	0.041735537
22	0xbdb8ba53	-0.090199135
23	0xbc0d8168	-0.00863681
24	0xbcbc6ba0	-0.023000538
25	0x3d8d19a7	0.068896584
26	0x3d6954d2	0.056965657
27	0xbd954f5a	-0.07290526
28	0x3db9cd7f	0.090723984
29	0x3c91e798	0.017810628
30	0xbd8cee1a	-0.06881352
31	0xbce86634	-0.028369047
32	0x3d75d80e	0.0600205
33	0xbd5ff620	-0.054678082
34	0x3da9bf89	0.082884856
35	0x3d689546	0.056782983
36	0x3b226b00	0.0024783015
37	0x3d6d72be	0.057970755
38	0xbc07f828	-0.008298911
39	0x3d4a3412	0.049366064
40	0xbd222f17	-0.03959569
41	0x3dc3f03d	0.09567306
42	0xbce216ec	-0.02759882
43	0xbd1d1b1a	-0.038355924
44	0x3ca25f8c	0.01982095
45	0xbdad8d6f	-0.08474242
46	0x3cf74fc4	0.030189402
47	0xbdbec99d	-0.093157984
48	0x3cf1d254	0.029519238
49	0xbd53aa10	-0.051675856
50	0xbdb8b7e8	-0.09019452
51	0x3c35b298	0.011089943
52	0xbda0df4e	-0.07855092
53	0xbbdd7620	-0.0067584664
54	0x3ca77754	0.020442642
55	0xbd85605e	-0.06512521
56	0x3c686100	0.014183283
57	0x3d8b11dd	0.067905165
58	0x3c878058	0.016540691
59	0xbd6fc4c3	-0.058537256
60	0x3b230400	0.002487421
61	0x3c459010	0.012058273
62	0xbda70c15	-0.08156601
63	0x3d0e13be	0.034686796
64	0x3c724d18	0.014788888
65	0x3d0d0032	0.034424014
66	0x3d0840fa	0.03326509
67	0xbd03290a	-0.03202156
68	0xbd283e0d	-0.0410748
69	0xbbf504b0	-0.0074773654
70	0x3d9e6d93	0.077357434
71	0x3d8639d1	0.06553996
72	0xbd3c60b0	-0.045990646
73	0xbd5ea2a0	-0.05435431
74	0xbc916300	-0.017747402
75	0xbdc6bdcb	-0.09704169
76	0xbd89d5f2	-0.0673026
77	0x3db221c1	0.08697844
78	0x3d3c1aba	0.045923926
79	0xbc8d6298	-0.017258927
80	0xbc1bfa58	-0.009520136
81	0xbc53f9e8	-0.012938
82	0xbc059a28	-0.0081544295
83	0x3d1d5d22	0.038418896
84	0x3c838258	0.016053364
85	0xbd97a52b	-0.0740455
86	0x3d8d9e91	0.0691501
87	0x3ceef824	0.029171057
88	0x3c1f4228	0.009720363
89	0x3da1e2ad	0.07904563
90	0x3d829521	0.063761
91	0xbce79a88	-0.028271928
92	0xbc66a0b0	-0.014076397
93	0x3d68d082	0.056839474
94	0x3db45cbb	0.088067494
95	0xb79f5000	-1.899153e-05
96	0x3d007a36	0.03136655
97	0x3d0d6da6	0.034528397
98	0x3d798e72	0.060926862
99	0xbd1f7e13	-0.038938593
