saved-models/sigmoid_mlp_num_1_mpnn_9.pth (torch, 54661 bytes, 3 tensors)

weight f4 [100, 128]
000000 90 c7 b7 3c 78 9d 86 bd 85 23 85 3d da 13 4f 3d
       0.022434026 -0.065730035 0.065009154 0.05055604
000010 00 e0 e5 b8 f3 98 a5 3d f2 9b 74 3d 4a 59 e0 bc
       -0.00010961294 0.080858134 0.059719034 -0.027386326
000020 80 8e af bd cb 1d a9 bd 3a c5 2c 3d 20 52 b5 bb
       -0.085721016 -0.08257636 0.042180277 -0.0055334717
000030 00 10 82 39 e0 52 19 bc c2 96 30 3d f5 a3 a0 3d
       0.00024807453 -0.009358138 0.043112524 0.07843772
000040 60 12 94 bc 1e 95 41 3d d0 1d 7d bc f0 e5 8f bb
       -0.018075168 0.04726135 -0.015449002 -0.0043914244
000050 6b 98 b0 bd 80 92 77 bd c9 da 88 3d 36 b9 dc bc
       -0.086228214 -0.060442448 0.06682355 -0.026943784
000060 dc 2f 90 3c e7 67 b3 3d 34 be 06 3d 1f b8 b0 3d
       0.017600946 0.08760052 0.032896236 0.08628868
000070 f0 00 7d bd 63 da 19 bd f8 1d 7a bc ee 08 18 3d
       -0.061768472 -0.037561785 -0.015265934 0.03711789
000080 a0 30 a2 3c 50 ff 0b 3c dc 47 87 bd a8 72 c6 3c
       0.019798577 0.008544758 -0.06605503 0.024224594
000090 30 77 6a bd ad 47 6b bd 06 0a 52 bd 6c 31 b7 3c
       -0.057242572 -0.057441402 -0.05127909 0.022362433
0000a0 10 f5 5b 3c d8 2f 05 bc 7f 64 81 3d d8 5b 1a bd
       0.013425127 -0.008129083 0.06317996 -0.037685245
0000b0 d0 df 58 bd e4 b3 46 bd c5 de 91 3d d2 f5 4c 3d
       -0.05294782 -0.0485114 0.07122568 0.05003912
0000c0 c0 3e ec 3b 8e b2 2c 3d 26 c7 2d bd f0 45 01 3c
       0.007209629 0.04216247 -0.04242625 0.00789021
0000d0 a1 29 b4 bd 00 ae 6a 39 a0 6c 1e bc 4f 2e a5 3d
       -0.087970026 0.00022380799 -0.009669453 0.08065473
0000e0 75 f6 90 3d ae f3 0a 3d ca ea 32 3d 28 e8 15 bc
       0.07078258 0.033923797 0.043680944 -0.009149589
0000f0 31 96 93 3d aa 2a 08 3d 54 f2 c3 3c f8 10 a4 3c
       0.07206381 0.033243813 0.023919262 0.020027623
000100 08 3e 86 bc 5c b7 68 bd a5 cb 9f 3d 6b 84 a1 bd
       -0.016387 -0.05681549 0.07802514 -0.07886585
000110 7e cf 36 3d f9 8b 59 bd 3c 63 a8 bc c0 3e 84 3c
       0.044631474 -0.053112004 -0.020555131 0.016143203
000120 2e de 16 3d 10 9b cc bc 36 31 18 3d c5 91 8f bd
       0.03683298 -0.024976283 0.037156306 -0.07010225
000130 41 76 a5 bd 3d 68 a6 3d 70 bd 8a bd 7e 30 50 3d
       -0.08079196 0.081253506 -0.067744136 0.050827496
000140 f5 73 a0 3d 53 2c 01 bd 31 fb 98 bd 68 72 20 bc
       0.07834617 -0.03153641 -0.07469786 -0.009792902
000150 5e 4e 03 3d 50 9b 06 3c 80 8d 8b bd b4 f4 92 bd
       0.03205716 0.00821574 -0.06814098 -0.0717558
000160 bb d2 95 3d 89 e9 15 bd dc 1b b9 3c 62 02 76 3d
       0.07315584 -0.03659967 0.022596292 0.060060866
000170 61 a7 91 3d c8 9b 9b bd 54 0d c9 bc ca f9 64 3d
       0.07112003 -0.07598072 -0.024542488 0.05590228
000180 9b 02 9e 3d d3 08 b0 3d 12 5c 44 3d 35 bc 92 3d
       0.07715341 0.08595433 0.047939368 0.07164804
000190 f8 c7 8f bd 34 a8 39 bd 56 c9 18 3d 69 85 80 3d
       -0.07020563 -0.045326427 0.037301384 0.06275446
0001a0 b0 56 0b 3d e0 5b 22 3c a8 4e c4 bc 30 62 1d bc
       0.03401822 0.0099096 -0.023963287 -0.009605929
0001b0 67 d4 a1 3d c4 3a e5 3c 6c 6a 0e 3d 5e 33 10 3d
       0.07901841 0.027982123 0.03476946 0.035205238
0001c0 81 8a 24 bd 30 aa 87 3b fa f1 3e 3d 70 2b 66 bd
       -0.04017115 0.004140161 0.046617486 -0.05619377
0001d0 c0 80 0d bb 09 a7 08 bd 3a 65 9a bd 51 25 94 3d
       -0.0021591634 -0.033362422 -0.07538839 0.0723368
0001e0 88 21 8d bc d9 f5 5e bd 2a 12 39 3d 41 65 b3 3d
       -0.017227903 -0.054433677 0.04518334 0.08759547
0001f0 b2 5c 1b 3d ea 03 0d 3d 60 13 8b bb d7 aa a8 3d
       0.037930198 0.03442756 -0.004244253 0.0823571
000200 1e a9 fb bc 08 8c 50 bd 75 f7 a6 3d bd 56 99 bd
       -0.03072029 -0.050914794 0.081526674 -0.07487247
000210 38 39 4c bc 1c 92 04 bd e0 06 06 3d 01 c9 09 bd
       -0.012464814 -0.032365903 0.0327214 -0.033638958
000220 16 96 38 3d 73 1b b2 3d e7 9a 15 bd 00 68 11 3c
       0.045065008 0.08696642 -0.03652468 0.008874893
000230 5f cf b4 3d 1e 65 ef bc 8a 13 63 3d 00 bb ad 3a
       0.088286154 -0.029223021 0.055438556 0.0013254583
000240 02 a4 21 bd 7b 38 a1 bd e7 41 ad 3d 38 15 10 bc
       -0.03946305 -0.07872101 0.084598355 -0.008794121
000250 de ad 17 3d 82 2c 7f 3d 01 5f 9b 3d a8 af bb 3c
       0.037031047 0.062298305 0.0758648 0.022910908
000260 58 cc 31 3c 48 a6 11 3c e0 18 a4 bd 52 d8 7a bd
       0.010851942 0.008889742 -0.08012557 -0.061241455
000270 8a 5c a2 bd d0 b8 62 3c c8 e4 7e bc 18 bd 03 bd
       -0.07927807 0.013838008 -0.015557475 -0.032162756
000280 7a 74 59 3d f8 7a 9b bc 1c a6 8f bd 78 77 e8 3c
       0.053089596 -0.018979535 -0.07014105 0.02837728
000290 a8 35 38 bd 54 e0 9d bc 73 fd 12 bd 78 0c d6 bc
       -0.044973046 -0.019272007 -0.03588624 -0.026128992
0002a0 5c da b1 bc 54 45 05 bd 74 35 0b bd c5 1e 8e bd
       -0.021710567 -0.03253682 -0.033986524 -0.069394626
0002b0 30 1a e7 3b 29 1e 2b bd b8 32 af 3c 3b b4 8a 3d
       0.0070526823 -0.04177681 0.02138649 0.067726575
0002c0 50 8f 45 bc da bf 35 3d 9a 65 63 bd e3 e0 60 bd
       -0.012058094 0.044372417 -0.055516817 -0.05490197
0002d0 6f f5 2e bd 3c 1a 30 bd f0 96 f0 3b e0 a0 14 3c
       -0.042714532 -0.04299377 0.007342212 0.009071559
0002e0 28 81 8c bc c0 ec ca ba 32 78 3f 3d b1 e9 82 3d
       -0.01715143 -0.0015481934 0.046745487 0.06392229
0002f0 21 f2 1c bd f1 b2 ac 3d c7 e5 8a 3d 90 65 ee 3c
       -0.03831685 0.08432568 0.06782108 0.029101163
000300 7c 94 bc 3c d0 31 9f 3c 7f b7 9d 3d 00 93 7d 3a
       0.023020022 0.019432932 0.07701015 0.0009673089
000310 6a 27 55 3d 8c 23 b2 bd 4b 72 95 3d 63 a9 89 3d
       0.05203954 -0.08698186 0.0729719 0.06721761
000320 86 9c 87 bd 1e a5 7e 3d 14 37 d3 3c 63 03 b2 bd
       -0.06621651 0.062169187 0.0257831 -0.08692052
000330 34 8d b9 bc 2f b2 b3 3d 46 6a 72 bd b2 af 3b bd
       -0.022650339 0.0877422 -0.05918338 -0.045821853
000340 1e f0 9f bd 5f a6 ae 3d 8a 74 a4 bd 88 37 4c bd
       -0.078094706 0.085278265 -0.080300406 -0.049857646
000350 da 46 20 3d 1f e2 86 3d 80 7d 2c 3a d9 4e ad 3d
       0.03913007 0.06586098 0.000657998 0.084623046
000360 0a 7e 18 bd 70 23 94 bb ff 12 98 3d 80 5b ef 3a
       -0.037229575 -0.004520826 0.07425498 0.0018261522
000370 27 73 aa 3d ef ac 2e bd f2 17 91 bd 12 45 7a 3d
       0.08322745 -0.04264539 -0.07084645 0.061101027
000380 a4 1e aa bd f0 3f a0 bd 36 00 4b 3d f8 eb 7d bc
       -0.083066255 -0.07824695 0.049560748 -0.015498154
000390 31 49 0a bd 6b 37 ac 3d ac 4c b9 3c b3 05 8f 3d
       -0.033761207 0.08409008 0.022619568 0.06983509
0003a0 66 3b 70 3d 80 d3 00 ba 00 19 7a 3b 70 04 68 bd
       0.058650397 -0.00049143285 0.0038161874 -0.056644857
0003b0 28 3a 72 bc 08 22 8d bd e0 b6 7b bc ae b3 56 3d
       -0.014784373 -0.068912566 -0.015363425 0.05241745
0003c0 e0 e7 89 3c 8e 53 23 bd cd 43 90 3d 64 a6 e3 3c
       0.0168342 -0.039874606 0.07044182 0.027789302
0003d0 40 0d 17 bd 8a db 67 3d a3 39 82 3d 1c 09 a6 3c
       -0.03687787 0.056605853 0.063586496 0.020268016
0003e0 08 e1 01 3c 40 80 b4 3c 00 6e 5e ba 1a a1 7f 3d
       0.007927187 0.02203381 -0.0008485019 0.062409498
0003f0 99 33 a0 bd 72 01 43 3d 50 59 0e 3d 68 0e 76 bd
       -0.078223415 0.0476088 0.034753144 -0.060072333

bias f4 [100]
000000 6a ef 93 bd 17 06 00 bd 60 62 90 bd 9d d4 a7 3d
       -0.07223399 -0.031255808 -0.070500135 0.0819485
000010 56 64 12 3d bc 18 ff 3c 9c 8c aa bc 20 df 25 3c
       0.03574022 0.031139724 -0.020819 0.010123998
000020 0b 84 87 3d 26 b9 1e bd 10 69 d9 bb ae f4 2e 3d
       0.06616982 -0.03875079 -0.006634839 0.042713813
000030 72 c1 61 3d e0 7b 6f bb e1 1e 93 3d fa 6f 76 3d
       0.055116124 -0.003654234 0.07183624 0.060165383
000040 74 a2 bb 3c f6 be 56 3d 59 f8 97 3d df b9 54 bd
       0.022904612 0.05242821 0.074204154 -0.051935073
000050 ae 2b 32 bd 00 ba 3c 3c 7f 66 a6 3d 32 c3 0d 3d
       -0.043498687 0.011518955 0.08125018 0.03460998
000060 00 11 f6 ba 53 44 89 3d a2 28 2a 3d 36 ab 1f bd
       -0.0018773377 0.06702485 0.041542657 -0.03898164
000070 02 ce 63 3d 20 6b 26 bc fc 68 3d bd 5a 23 72 3d
       0.055616386 -0.0101573765 -0.0462427 0.059115745
000080 33 3f af 3d e0 f7 94 bc 4a ed a5 bd c5 21 87 3d
       0.08556976 -0.018184602 -0.081019 0.06598238
000090 aa 7d 32 3d ca f3 0a bd 4a 32 57 bd 55 bf a6 3d
       0.043576874 -0.0339239 -0.052538194 0.081419624
0000a0 a1 6e a6 bd 0c 88 64 bd b2 6e 6c bd f5 3e a0 3d
       -0.081265695 -0.055793807 -0.057722755 0.07824508
0000b0 4b ec a4 3d 8c cd b4 3c b5 43 9a 3d 18 e4 65 bc
       0.08052882 0.022070669 0.07532445 -0.014031433
0000c0 9e 3c 10 3d 7a 56 70 bd 00 1e bd b9 28 ec 84 bd
       0.03521406 -0.05867622 -0.0003607124 -0.06490356
0000d0 78 03 8c bc f6 65 a7 bd 90 68 7c 3c fb 24 35 bd
       -0.017091498 -0.081737444 0.015405789 -0.04422472
0000e0 72 91 a5 bd a0 f3 37 bc 6a 44 17 bd 60 5c 18 bd
       -0.08084382 -0.011227518 -0.03693048 -0.03719747
0000f0 50 1f 80 bb 2e 24 ad bd d6 f5 a9 bd 18 8a cb bc
       -0.0039099827 -0.08454166 -0.082988426 -0.024846122
000100 a5 69 03 bd 8d 0f 93 bd 64 7f 8d bd 88 2b 55 bc
       -0.032083172 -0.071807005 -0.069090635 -0.013010867
000110 ea 2a 06 3d 8a 54 54 3d ca 1d ab bd a7 8c a2 bd
       0.03275577 0.051838435 -0.08355291 -0.079369836
000120 4a 7e 5c bd 8e 46 96 bd e0 4b b3 3c 16 e8 7d 3d
       -0.053831376 -0.07337676 0.021886766 0.061988913
000130 e0 84 11 bc 96 fb 22 bd 7f 94 90 3d d0 40 9b 3b
       -0.0088817775 -0.039790712 0.070595734 0.004737951
000140 62 d2 9b bd 13 fd 90 bd a0 90 26 3b 62 91 71 bd
       -0.07608487 -0.0707952 0.0025415793 -0.05897654
000150 fd 29 1b bd f6 2b 1f 3d c0 60 5f bd 88 47 5c bd
       -0.03788184 0.038860284 -0.054535627 -0.053779155
000160 33 52 a2 3d 04 da ce 3c 33 6b 8c bd 24 34 a2 3c
       0.079258345 0.025250442 -0.06856384 0.019800253
000170 90 f6 d3 3b d0 ab bb bc 74 88 be bc 52 09 24 3d
       0.0064686015 -0.022909075 -0.023258425 0.04004795
000180 10 35 8e bd e5 5b 90 3d 60 75 4c bc 66 4e 54 3d
       -0.069437146 0.070487775 -0.012479156 0.05183258

weight f4 [1, 100]
000000 89 04 ad 3d fa 90 6f 3d d5 4f ba 3d 22 77 39 3d
       0.08448131 0.05848787 0.09097258 0.04527963
000010 17 b8 66 bd 42 91 34 3d 52 21 ab bd 30 f6 44 bc
       -0.056327906 0.04408384 -0.08355965 -0.012021586
000020 c0 59 2f 3b 42 4b be bd b1 eb 83 3d 92 7e c8 bd
       0.0026756376 -0.09291698 0.06441439 -0.09789766
000030 2c 45 07 bd 5d ef a8 bd a2 42 7f 3d 62 4b ab bd
       -0.03302495 -0.0824878 0.062319405 -0.083639875
000040 e7 84 96 3d 68 31 82 bc 5d 70 99 3d d8 fa 7e bc
       0.07349568 -0.0158927 0.07492135 -0.0155627355
000050 1e ff 7f 3d b9 e6 a1 3d a6 58 6e 3d 99 64 a1 3d
       0.062499158 0.07905335 0.05819001 0.078805156
000060 50 2e f3 3b 26 a3 0f bd d0 aa 8c 3b 50 20 4c bd
       0.0074212924 -0.0350677 0.0042928234 -0.049835503
000070 89 10 87 3d f3 c6 c6 3d 60 14 17 bd 8f b1 91 3d
       0.06594951 0.09705915 -0.036884665 0.07113945
000080 6d 02 c3 bd 22 c3 2b 3d e3 24 a3 bd 18 e3 2c bc
       -0.09521947 0.04193414 -0.0796602 -0.01055219
000090 6c 2b ec bc b9 2f ca 3d d4 c2 a8 bc d0 7e df bb
       -0.028829299 0.098723836 -0.020600714 -0.006820537
0000a0 f0 3c 24 bd 6f fd c2 bd 28 c0 a0 bd 98 10 ee bc
       -0.040097177 -0.09520995 -0.07849151 -0.029060647
0000b0 30 2f ff bb 15 17 97 bd 60 ae d9 3b 33 2c 1d bd
       -0.0077876076 -0.073774494 0.0066431016 -0.03837223
0000c0 aa a7 44 3d 5e 89 25 3d 92 04 cc bd 26 9f 01 bd
       0.04801146 0.040414207 -0.09961809 -0.031645916
0000d0 d3 2a 44 bd 53 34 73 bd b0 4f cc 3b 4c e8 f5 3c
       -0.047892403 -0.059376072 0.0062350854 0.030017994
0000e0 83 db 40 bd 99 80 a0 3d 52 26 ba bd 20 5b c0 3c
       -0.047084343 0.07837028 -0.0908934 0.023480952
0000f0 7a 38 76 bd 38 9f 93 bd 60 84 9e 3b 47 75 55 bd
       -0.060112454 -0.07208103 0.0048375577 -0.052113798
000100 db a8 c1 bd d5 c2 90 bd 1e 0b 0a 3d 3f 93 ab 3d
       -0.09456035 -0.07068411 0.03370201 0.08377694
000110 ce 04 88 bd c0 0e 61 bb 58 3c 26 3c 85 9c bd 3d
       -0.066415414 -0.0034341067 0.010146223 0.09258369
000120 13 09 bd bd 52 da 36 3d a0 8d b8 3b 54 43 ae 3c
       -0.092302464 0.0446418 0.0056321174 0.021272339
000130 8f e7 9e 3d 60 12 b6 bd 15 ee 92 3d 28 55 83 3c
       0.0775901 -0.088902235 0.07174317 0.016031817
000140 12 55 6a 3d 02 2f 4d 3d a3 81 a0 3d 17 9b 49 bd
       0.057210036 0.05009366 0.07837226 -0.04922017
000150 99 fd a4 3d 98 7f a0 bc a3 64 9b 3d ca c7 5d bd
       0.080561824 -0.019592091 0.07587554 -0.05414561
000160 78 fd c8 3c e0 63 aa 3b e2 10 70 3d a5 51 c1 bd
       0.024534926 0.0051998943 0.05860985 -0.094394006
000170 ca cb 2c 3d 9f 35 c1 3d 03 0b 8f bd ca 88 6d bd
       0.042186536 0.094340555 -0.06984522 -0.05799178
000180 33 82 b7 3d 02 ed 2c 3d 72 f3 9a bd d7 f2 61 bd
       0.089603804 0.042218216 -0.07565965 -0.05516323
