saved-models/v_mlp_num_3_mpnn_6.pth (torch, 54561 bytes, 3 tensors)

weight f4 [100, 128]
0	0x3cb58584	0.022158392
1	0xbd5f3683	-0.054495346
2	0x3d9179a3	0.071032785
3	0xbd9a1dc2	-0.07525207
4	0x3c05d6d0	0.008168891
5	0xbc0ead58	-0.008708321
6	0xbcfe254a	-0.03102364
7	0x3da42ff7	0.08016961
8	0x3d7c7fca	0.061645307
9	0x3d4282b6	0.047487937
10	0x3d35ea72	0.044413038
11	0xbdb00839	-0.08595318
12	0xbc1ac000	-0.00944519
13	0xbc3fba10	-0.011702076
14	0xbd3c1fea	-0.045928873
15	0x3d34cbbe	0.044139616
16	0xbda8508c	-0.08218488
17	0x3da56667	0.08076172
18	0x3d88e58f	0.0668441
19	0xbd2f3c94	-0.04278238
20	0x3c9592b0	0.018258423
21	0x3ce5bb18	0.028043315
22	0x3d8fb249	0.07016427
23	0x3b89f510	0.004210122
24	0xbb5ff5a0	-0.0034173504
25	0xbdb50085	-0.0883799
26	0xbbe566a0	-0.0070007592
27	0xbd5f77c4	-0.054557577
28	0x3d685c0a	0.0567284
29	0x3d679fde	0.056548946
30	0x3d15f7b2	0.036613174
31	0xbd6df0e2	-0.058091052
32	0x3d2a6032	0.041595645
33	0xbd2752ac	-0.040850326
34	0xbcc43200	-0.023949623
35	0x3dae4da1	0.085109
36	0xbd7b3860	-0.06133306
37	0xbc11ad98	-0.008891486
38	0xbd1fa019	-0.03897104
39	0x3d31a112	0.0433665
40	0xbd8712d3	-0.06595387
41	0xbd861f3e	-0.06548928
42	0xbd51b5a8	-0.05119863
43	0xbc247ec8	-0.010039993
44	0x3c4116b0	0.011785194
45	0x3b7f3e00	0.0038946867
46	0x3d2dfcd2	0.042477436
47	0xbb86c1e0	-0.004112467
48	0xbc8791b4	-0.016548969
49	0x3dac5793	0.08415141
50	0xbc757258	-0.014980875
51	0xbd7b1141	-0.06129575
52	0xbc910c04	-0.017705925
53	0x3ce68798	0.028140828
54	0x3db2a76f	0.08723342
55	0x3da13517	0.07871454
56	0x3cc014bc	0.023447387
57	0xbd555fe0	-0.052093387
58	0xbda3fbcf	-0.08007013
59	0xbc550e30	-0.013003871
60	0xbd2cb558	-0.04216513
61	0x3c565f38	0.013084225
62	0xbd85283e	-0.06501816
63	0xbc9efa7c	-0.01940655
64	0xbcabd878	-0.020977244
65	0xbd368cd2	-0.04456789
66	0xbd42f913	-0.047600817
67	0x3cbc6bb0	0.023000568
68	0xbc8ca8f4	-0.017170407
69	0x3d5c96d6	0.053854786
70	0xbda9f384	-0.082984
71	0xbd35e9fc	-0.044412598
72	0xbd9d76d5	-0.07688681
73	0xbb358840	-0.002769962
74	0x3db227f1	0.086990245
75	0x3da794ef	0.08182704
76	0xbba491b0	-0.00502225
77	0xbd4c7d9f	-0.04992449
78	0x3d9a83c1	0.07544661
79	0x3d98bbcf	0.07457697
80	0xbc9a7bcc	-0.01885786
81	0x3d644c86	0.05573704
82	0xbd906246	-0.07049994
83	0xbd188e72	-0.03724522
84	0x3da38713	0.07984748
85	0x3db45fa5	0.08807305
86	0x3c5cc1d8	0.01347395
87	0x3d7f5216	0.062334143
88	0x3d22b2f2	0.039721437
89	0xbd90856b	-0.070566975
90	0xbd71aa40	-0.059000254
91	0x3aaffc80	0.0013426691
92	0xbd8ee9aa	-0.06978162
93	0x3d9374d1	0.07200015
94	0xbd2cff9c	-0.042235956
95	0x3d2d5a2a	0.042322315
96	0xbda6268e	-0.081128225
97	0x3cc036fc	0.023463719
98	0xbd475fd1	-0.048675362
99	0x3da48cc7	0.08034664
100	0xbd8ce2f2	-0.06879224
101	0x3c8d67e4	0.017261453
102	0x3c33b3f0	0.010968193
103	0x3d95f433	0.07321968
104	0xbda366ef	-0.079786174
105	0xbce0f8fc	-0.027462475
106	0xbd801297	-0.06253546
107	0x3cf73c88	0.03018023
108	0xbd8422e8	-0.0645197
109	0x3d3260ce	0.04354935
110	0xbc41bcb8	-0.011824779
111	0xbcbe4314	-0.023225345
112	0xbd25c1ad	-0.040467907
113	0x3db373df	0.08762335
114	0x3d1e6d3a	0.038678385
115	0xbdb14703	-0.086561225
116	0x3cf0c42c	0.029390417
117	0xbd52ea1f	-0.051492807
118	0xbda65219	-0.08121128
119	0xbdb32082	-0.08746435
120	0xbcf25a04	-0.029583938
121	0x3da52d41	0.08065272
122	0xbd63e986	-0.055642627
123	0xbd8174e7	-0.063211255
124	0x3db08c21	0.086204775
125	0x3d0f25e0	0.03494823
126	0x3daa1b43	0.08305981
127	0xbda16488	-0.07880503
128	0xbbdb7360	-0.0066971034
129	0x3c0caf78	0.008586757
130	0xbcdc1984	-0.026867636
131	0xb8099000	-3.2797456e-05
132	0xbd931c13	-0.07183089
133	0x3d9b406f	0.07580649
134	0x3d90bed3	0.07067647
135	0x3bc925e0	0.0061385483
136	0xbb834c90	-0.0040069297
137	0xbd958823	-0.07301357
138	0x3d0eb350	0.034838974
139	0x3d90ceaf	0.07070672
140	0x3bed0a20	0.007233873
141	0x3d5222a2	0.05130256
142	0xbda9f56b	-0.08298763
143	0x3d9ae847	0.07563835
144	0xbdb48398	-0.08814162
145	0xbcd9f226	-0.026604723
146	0x3ca78b1c	0.020452075
147	0xbd87007f	-0.065918915
148	0xbc99ae24	-0.018759795
149	0xbc8666f8	-0.016406521
150	0x3d90230f	0.07037937
151	0xbc05ab50	-0.00815852
152	0xbb1d3ce0	-0.0023992583
153	0xbd43a3c1	-0.04776359
154	0x3d8f1813	0.06987014
155	0xbd7a471a	-0.061102964
156	0x3da8aa5d	0.08235619
157	0x3d358582	0.044316776
158	0x3cc0fd6c	0.023558341
159	0x3da5a9d9	0.080890365
160	0x3d8f0b8b	0.069846235
161	0xbcf45e2e	-0.029830065
162	0xbc54fe48	-0.0130000785
163	0x3dac102f	0.08401524
164	0xbb9d1e60	-0.0047948807
165	0x3db0667d	0.08613298
166	0xbd7253bc	-0.059161887
167	0xbcdd7f2e	-0.027038183
168	0x3d644e96	0.055739008
169	0x3ba38620	0.004990354
170	0x3d69d5ea	0.05708877
171	0xbd865c19	-0.06560535
172	0xbd72a3c0	-0.059238195
173	0xbac84780	-0.0015280098
174	0xbd0fd039	-0.035110686
175	0x3905be00	0.00012754649
176	0xbdad58a8	-0.084641755
177	0xbd967da8	-0.07348186
178	0x3d868461	0.06568218
179	0xb9f02f00	-0.00045811385
180	0x3d37692a	0.044778027
181	0xbc5d3240	-0.01350075
182	0x3d82ae17	0.06380861
183	0x3c9e03c0	0.019288898
184	0x3c4f3998	0.012648009
185	0xbd895d59	-0.06707258
186	0x3ce56a8c	0.028004907
187	0xbd0a4a27	-0.033762123
188	0xbb540600	-0.003235221
189	0x38a56c00	7.88793e-05
190	0x3d365baa	0.04452101
191	0x3dade031	0.08490027
192	0x3d5be1be	0.05368208
193	0xbda5ba56	-0.080921814
194	0xbd4d1e8e	-0.050077967
195	0x3bd644b0	0.00653895
196	0x3d57e40a	0.05270771
197	0x3cd6c8e8	0.026218846
198	0xbba519a0	-0.005038455
199	0x3d282ae6	0.041056536
200	0xbd557b7f	-0.05211973
201	0x3c23c578	0.009995811
202	0x3d059992	0.03261716
203	0xbc8084d0	-0.01568833
204	0xbdab0e67	-0.083523564
205	0xbd28fd7d	-0.04125737
206	0xbdb23211	-0.08700956
207	0x3cd45c88	0.025923029
208	0x3dab4e8f	0.08364593
209	0x3d4c5786	0.049888156
210	0xbd976f36	-0.07394259
211	0x3d08e85e	0.033424728
212	0xbd0114bf	-0.031513926
213	0x3d4aa516	0.049473844
214	0x3d28a98e	0.041177325
215	0xbd854d85	-0.06508926
216	0xbc0bc4f8	-0.008530848
217	0xbd8e829c	-0.069585055
218	0x3d370d8a	0.044690646
219	0xbc7d1ac0	-0.015448272
220	0x3cc3a160	0.02388066
221	0x3c969cf8	0.018385395
222	0xbc443c00	-0.011977196
223	0x3cf6a700	0.030108929
224	0xbd519f4e	-0.051177315
225	0x3d99cd45	0.07509855
226	0x3d44f22e	0.048082523
227	0xbd59e221	-0.05319417
228	0x3d894fb7	0.067046575
229	0xbd92d0c0	-0.07168722
230	0xbd56d762	-0.0524515
231	0xbd6f99ab	-0.05849616
232	0x3bf93a10	0.0076057985
233	0xbd9b3552	-0.075785294
234	0xbda19681	-0.078900345
235	0x3d208936	0.039193355
236	0x3d0d6bdc	0.03452669
237	0xbb2280e0	-0.0024796054
238	0xbc787ac0	-0.015165985
239	0x3d57a8d6	0.05265125
240	0xbc6d52a0	-0.014485031
241	0xbd5e4db8	-0.054273337
242	0xbc193728	-0.009351529
243	0xbcb94838	-0.022617444
244	0xb8076800	-3.2283366e-05
245	0xbd28b144	-0.04118468
246	0xbd89d206	-0.06729512
247	0xbb72cbc0	-0.0037047714
248	0x3d0ff928	0.035149723
249	0x3db1756d	0.08664975
250	0x3d99f8df	0.075181715
251	0xbda8d36a	-0.08243449
252	0xbcd5df52	-0.026107464
253	0xbb8e8fe0	-0.0043506473
254	0x3d48071a	0.048834898
255	0xbdb1e773	-0.086867236

bias f4 [100]
0	0x3b89b2f0	0.004202239
1	0x3d14b79c	0.036307916
2	0xbd8aa5dc	-0.067699164
3	0x3c368568	0.011140205
4	0xbb9b4b80	-0.004739225
5	0xbd69441e	-0.056949727
6	0xbd8acb9b	-0.06777116
7	0x3c9d9388	0.019235387
8	0xbd2f496d	-0.042794634
9	0xbda96202	-0.08270647
10	0xbc8c1714	-0.017100848
11	0x3d2a4bfe	0.041576378
12	0xbc19eb88	-0.009394534
13	0x3cacf31c	0.021112017
14	0x3d1c5cca	0.038174428
15	0xbd2003e1	-0.0390662
16	0xbd63a4de	-0.05557715
17	0xbd1eca68	-0.03876725
18	0x3c5359b8	0.012899809
19	0xbd33ee95	-0.0439287
20	0xbdb4317c	-0.08798501
21	0x3d806f77	0.0627126
22	0xbdb21013	-0.08694472
23	0x3ce8d0f4	0.02841995
24	0xbd38a526	-0.045079373
25	0x3c82472c	0.015903078
26	0x3c656d08	0.014003046
27	0xbc3ba680	-0.011453271
28	0xbdb04065	-0.08606032
29	0xbc60e078	-0.0137253925
30	0x3dac0829	0.08399994
31	0x3d48c7e6	0.049018763
32	0xbd4a443c	-0.04938148
33	0x3db121f1	0.08649052
34	0xbdaee690	-0.0854007
35	0x3d782b7a	0.060588337
36	0xbc271f68	-0.010200359
37	0xbd4602ed	-0.048342634
38	0xbcda63aa	-0.026658852
39	0x3cb03f38	0.02151452
40	0xbd07590d	-0.03304391
41	0xbcbd9e48	-0.023146763
42	0x3cf33a68	0.029690936
43	0x3d3e7962	0.04650248
44	0x3d7dfd5e	0.062009208
45	0x3da9f1cb	0.082980715
46	0x3c9286f4	0.017886616
47	0xbd5bec05	-0.053691883
48	0xbd9cefb5	-0.07662908
49	0x3bab7600	0.0052325726
50	0x3cefca00	0.029271126
51	0x3d9893e1	0.07450081
52	0x3c0a6aa8	0.00844828
53	0x3d4004d2	0.046879597
54	0xbc0a0d60	-0.00842604
55	0xbcc9e80c	-0.024646781
56	0xbd96fc8d	-0.07372389
57	0xba2ae700	-0.0006519407
58	0x3d10bbae	0.035335235
59	0xbd3e955a	-0.04652915
60	0xbd9ec21e	-0.07751869
61	0x3dab0e2f	0.08352315
62	0xbb049f40	-0.0020236522
63	0xbbc6b650	-0.006064214
64	0x3ba18520	0.0049292
65	0xbda555b6	-0.08072989
66	0x3c6684e8	0.014069773
67	0xbcadfc64	-0.021238513
68	0xbd767471	-0.06016964
69	0xbbeade60	-0.0071676224
70	0x3d7a6202	0.061128624
71	0xbd328293	-0.043581557
72	0xbca1dac8	-0.019757643
73	0x3c69e960	0.014276832
74	0xbd10183f	-0.035179373
75	0xbd48dce2	-0.049038775
76	0xbdaeef86	-0.08541779
77	0xbba00240	-0.0048830807
78	0xbc3549d8	-0.011064969
79	0x3d84dcdd	0.06487439
80	0x3c392fd8	0.011302911
81	0x3a956800	0.0011398792
82	0x3d7a1eae	0.061064415
83	0xbd4d06de	-0.050055377
84	0xbd6190b7	-0.05506965
85	0xbd96ea55	-0.07368914
86	0x3d2467be	0.040138
87	0xbbc82a30	-0.0061085448
88	0xbd38556f	-0.04500335
89	0x3d9bb99b	0.07603761
90	0xbd000863	-0.031258
91	0x3d36c2f6	0.044619523
92	0x3d79cf7a	0.06098888
93	0xbdb44605	-0.08802418
94	0xbd1d2adf	-0.038370963
95	0xbd3860b4	-0.0450141
96	0x3c9d94e8	0.019236043
97	0xbb5fb100	-0.00341326
98	0x3d804487	0.062630706
99	0xbd00b2c2	-0.031420477

weight f4 [1, 100]
0	0x3d981d8b	0.0742751
1	0x3bc50f20	0.006013766
2	0xbcb6ff88	-0.022338644
3	0xbd8de24d	-0.06927929
4	0xbb7586c0	-0.003746435
5	0x3b2e1800	0.0026564598
6	0xbcff4a78	-0.03116344
7	0x3c126750	0.008935764
8	0xbdb9e15f	-0.09076189
9	0xbd7e7613	-0.062124323
10	0x3cbf15f4	0.023325898
11	0x3cebb284	0.028771646
12	0x3db96e4f	0.09054243
13	0x3ce500f4	0.027954556
14	0x3d911d0b	0.07085618
15	0xbd7cb397	-0.061694708
16	0xbdb5b923	-0.08873203
17	0x3d46a5a2	0.048497804
18	0x3d2f42e6	0.04278841
19	0x3ba58e00	0.005052328
20	0xbd775a0a	-0.060388602
21	0x3cc141ac	0.023590885
22	0x3db62f33	0.08895721
23	0x3db7f049	0.08981378
24	0xbdbfaacf	-0.09358751
25	0xbd5b72f3	-0.05357642
26	0x3d496032	0.049164005
27	0xbd89b492	-0.06723894
28	0x3d716c82	0.05894137
29	0x3bb78660	0.0056007355
30	0xbb134100	-0.0022469163
31	0x3c7ed290	0.015553132
32	0x3d07bdde	0.033140056
33	0xbb97b6a0	-0.004629925
34	0x3d9a1f9d	0.07525561
35	0xbdbc44f7	-0.091928415
36	0xbdc80c75	-0.09768001
37	0x3d2c80fa	0.04211519
38	0x3d21a75e	0.039466254
39	0x3db25b21	0.08708788
40	0xbdb30dd5	-0.087428726
41	0x3cd44d1c	0.025915675
42	0xbd97e96e	-0.0741757
43	0x3d5c3dc6	0.05376985
44	0x3d613dce	0.054990582
45	0x3c789d40	0.01517421
46	0x3d4d379a	0.050101854
47	0xbd63d150	-0.055619538
48	0xbcb76aac	-0.022389732
49	0x3b97e900	0.00463593
50	0xbd72d44a	-0.059284486
51	0x3c4fe140	0.012687981
52	0x3c14d298	0.009083413
53	0xbd6ac033	-0.0573122
54	0xbd3bbdfd	-0.045835484
55	0x3d0311fa	0.031999566
56	0x3d1f355e	0.038869254
57	0x3d8cc003	0.06872561
58	0x3db32803	0.08747866
59	0xbc9d83ac	-0.019227825
60	0xbd300220	-0.042970777
61	0x3c66e1c0	0.014091909
62	0x3d4adb8e	0.04952579
63	0x3da100e1	0.07861496
64	0xbd3324e0	-0.04373634
65	0x3d0735f2	0.03301043
66	0x3d51efbe	0.051254027
67	0xbc88e5d4	-0.016711153
68	0xbdac3632	-0.084087744
69	0xbd802e55	-0.06258837
70	0xbb936cd0	-0.0044990554
71	0x3d9e5b95	0.07732312
72	0x3b0a39c0	0.002109155
73	0x3d6577ca	0.056022443
74	0x3bc03300	0.0058654547
75	0xbd8a381d	-0.06748984
76	0xbc427870	-0.011869535
77	0x3c87b86c	0.016567431
78	0x3d2e16b6	0.042502128
79	0xbd97dc28	-0.07415038
80	0x3d7752c2	0.06038166
81	0xbbc9afa0	-0.0061549693
82	0xbd1b6bd3	-0.037944626
83	0xbcc4e438	-0.024034604
84	0xbdae91f5	-0.08523933
85	0x3c03fa40	0.00805527
86	0x3da78ca5	0.08181123
87	0xbd08fb9c	-0.03344308
88	0xbd477280	-0.04869318
89	0x3d0f504e	0.034988694
90	0xbd918976	-0.07106297
91	0x3cf8a904	0.03035403
92	0x3c89c98c	0.016819738
93	0x3d3763ea	0.04477302
94	0xbd9cc3b2	-0.076545134
95	0x3d8890e1	0.066682585
96	0xbd93bde3	-0.072139524
97	0xbd889dbe	-0.06670712
98	0xbc7c1c28	-0.015387572
99	0xbcf2d858	-0.029644176
