saved models/1_mlp_num_2_mpnn_7.pth (torch, 28961 bytes, 3 tensors)

weight f4 [100, 64]
000000 de 99 bf bd 50 42 fb bd 4c c2 8a 3d 0e cf 97 bd
       -0.0935552 -0.122685075 0.067753404 -0.074125394
000010 42 25 86 bd 0c 10 da 3d b6 50 fd bd 92 d3 cb bd
       -0.06550075 0.10647592 -0.1236891 -0.09952463
000020 de 5c cf 3d 5c 6b 6e bd f4 4c e1 bd 86 05 fc bd
       0.10125135 -0.058207855 -0.11001006 -0.12305741
000030 a8 75 31 bd 88 b2 4b 3d a0 9a f6 3c 60 22 0e 3c
       -0.043325096 0.049730808 0.030103028 0.008675188
000040 38 58 5d bd 80 cd d5 bc 2c c1 b2 3d ac a8 b2 3d
       -0.05403921 -0.026098967 0.08728251 0.08723578
000050 a8 2d ab 3d f2 ff fe bd 28 1c a0 bc 80 70 ab 3a
       0.083583176 -0.124511614 -0.019544676 0.0013079792
000060 ea b2 98 3d 1a 05 e9 3d f4 a2 cc bd 24 cb 7d 3d
       0.07456 0.11377926 -0.09992018 0.061961308
000070 b2 f5 b9 bd e8 ca 8f 3d fe b9 9e 3d 08 f4 d2 3d
       -0.09080066 0.07021123 0.07750319 0.103004515
000080 f8 67 44 3d 60 06 c2 3b b4 58 cf bd de 53 a6 bd
       0.047950715 0.00592117 -0.10124341 -0.08121465
000090 00 b1 0c 3c a6 86 fc 3d 2c 68 cf bd fc 74 e8 3d
       0.008587122 0.1233037 -0.10127291 0.11350438
0000a0 cc a0 b4 bd 18 6c 6a 3d 14 b7 93 3d bc a1 79 3d
       -0.08819732 0.057231992 0.07212654 0.060945258
0000b0 bc 5a 29 bd f8 9e 2b bd 98 c5 67 3d e0 6e aa bc
       -0.041346297 -0.04189965 0.056584924 -0.020804822
0000c0 40 bf 8a bd 5e 1a bb 3d f0 a6 69 3d 48 ec 8f bd
       -0.06774759 0.091358885 0.05704397 -0.07027489
0000d0 20 8b db 3b 24 2a 56 3d b0 0b 69 3c d8 bf 6c 3d
       0.0066999346 0.052286282 0.014223978 0.057800144
0000e0 1e 93 ad bd 1c 26 d2 3d b2 bb a9 bd 04 c1 bd 3d
       -0.08475326 0.10261175 -0.08287753 0.092653304
0000f0 48 ab c0 bd d6 5d c9 bd 48 cd 62 3d a8 cc ba bc
       -0.09407669 -0.09832351 0.055371553 -0.022802666
000100 e0 66 74 3c f4 35 c0 bd 20 a0 7c 3c 58 f3 eb 3c
       0.014917105 -0.09385291 0.015419036 0.028802559
000110 fc 0e 1e bd d6 40 d0 3d 00 f0 e7 3d 40 f2 b4 3c
       -0.03858851 0.101686165 0.11325073 0.02208817
000120 7a a3 dd 3d 90 eb 34 bd 18 05 ad 3c 78 6c 50 3d
       0.10822196 -0.044169962 0.021120593 0.050884694
000130 d0 0d 67 bd 12 bd 91 3d 96 44 b8 bd fc 1d 97 bd
       -0.056409657 0.071161404 -0.08997457 -0.07378766
000140 70 f1 fb 3c b8 3c d7 3d 70 49 9f bd 20 0f 81 3b
       0.030754775 0.10509628 -0.07777679 0.0039385706
000150 b6 9c af bd 80 9c 95 bb 18 a2 fc 3c 60 4e b2 3c
       -0.08574812 -0.0045657754 0.030839011 0.021765888
000160 00 14 bf 3d 8c 4d 9f 3d 00 45 2b 3a d6 49 ee bd
       0.093299866 0.07778463 0.0006533414 -0.11635177
000170 b2 a1 ed 3d 54 1d 22 3d 58 c1 fb bc c6 53 de 3d
       0.116031066 0.03957875 -0.030731842 0.10855822
000180 00 c0 ba ba 6c 1a ff 3d 98 95 8a 3c 60 47 d3 3c
       -0.0014247894 0.124562114 0.016917035 0.02579087
000190 22 25 da bd 02 7f af 3d d8 72 33 bd 4e 47 ce bd
       -0.10651614 0.08569147 -0.043810695 -0.10072194
0001a0 9a db e8 bd 70 76 63 bd 5e 0c db 3d 24 5b f2 bd
       -0.11370011 -0.055532873 0.10695718 -0.1183379
0001b0 60 a5 cc 3d d2 b6 f7 3d 40 98 ac bd 80 2d 7a bd
       0.0999248 0.12095417 -0.08427477 -0.06107855
0001c0 d8 4c 88 3c 78 6a e1 3c 88 de 8f 3d 70 83 52 bd
       0.016638204 0.027516589 0.07024866 -0.05139488
0001d0 40 8c ad 3b 4e c1 96 3d f8 e4 d2 bc 3a 8a d4 bd
       0.00529626 0.07361089 -0.025743946 -0.10377927
0001e0 f8 61 db bd c8 14 6b bd 7c 9c 20 bd 58 4d a8 bd
       -0.107120454 -0.057392865 -0.039211735 -0.08217877
0001f0 ae a9 c0 bd 48 d1 0b bd 00 24 a4 39 9c c4 70 bd
       -0.09407364 -0.034135133 0.0003130734 -0.05878125
000200 00 d2 03 3a 10 b9 00 bc 90 c0 2d 3c e6 a7 a1 3d
       0.0005028546 -0.007856622 0.0106049925 0.07893352
000210 e0 dc 50 bc a8 01 49 3d 8e c6 f1 bd 8c 3b 73 3d
       -0.012747973 0.049073845 -0.118054494 0.05938296
000220 a0 db 62 3d f8 54 61 bd ca cf b5 3d 40 40 b9 3b
       0.055385232 -0.055012673 0.08877523 0.005653411
000230 12 9f d9 3d 90 87 6f bc 00 ae c7 ba 00 26 73 3a
       0.106260434 -0.014619723 -0.0015234351 0.0009275377
000240 70 2f f7 3d 60 16 3a bd 44 ae ad bd 40 ff 8d 3c
       0.12069595 -0.045431495 -0.08480504 0.017333627
000250 14 c6 ca 3d ee 00 f2 3d ca 08 b8 bd 44 22 14 3d
       0.09901062 0.118165836 -0.089860514 0.03616549
000260 ea ed cc bd 60 38 2c bd ee 41 a6 bd 94 08 38 bd
       -0.10006316 -0.04204595 -0.08118044 -0.044930056
000270 d0 16 74 3d fc 94 84 bd 5e 52 e8 bd 3c 4d d1 bd
       0.05959207 -0.06473729 -0.11343835 -0.102198094
000280 84 d9 70 bd 7c 44 5c 3d 08 8d b3 3d 60 9e 7c 3c
       -0.05880119 0.05377625 0.08767134 0.015418619
000290 a6 81 d5 3d d8 78 67 3d 14 fb bf bd 30 d1 08 3d
       0.10425119 0.05651173 -0.09374061 0.03340262
0002a0 a0 ee 95 bb 24 04 ff bd 38 ee 91 bc 60 95 cc bd
       -0.0045755655 -0.12451962 -0.017813787 -0.099894285
0002b0 dc 35 4a bd 64 1f cb 3d 4a 7c d1 bd ac 6a 20 bd
       -0.04936777 0.09918097 -0.102287844 -0.03916423
0002c0 40 02 4f 3b bc 85 b1 bd 00 7b c3 3c de 12 cd bd
       0.0031587034 -0.08668086 0.023862362 -0.10013364
0002d0 78 02 c2 bd dc 81 bd 3d 46 95 a6 3d 0a d1 b6 bd
       -0.09473127 0.09253284 0.081339404 -0.0892659
0002e0 12 84 e1 3d 30 b5 0d bd 62 fc d9 3d 68 a7 15 3d
       0.110115185 -0.034596622 0.10643841 0.036536604
0002f0 4c 72 41 bd 40 10 da 3d 04 4b 24 bd 7c f3 37 3d
       -0.047228143 0.10647631 -0.040110603 0.04490994
000300 06 f3 ea 3d 00 d4 0d 39 60 dd 91 bb 00 66 c7 bd
       0.11472134 0.00013525784 -0.004451439 -0.09736252
000310 9c 27 4b bd 42 7a f0 3d be 37 d2 bd b2 a8 e6 bd
       -0.04959832 0.11742069 -0.10264538 -0.11262645
000320 da 25 a9 3d da 05 f5 bd 80 89 f5 3d 26 3f 98 3d
       0.08259173 -0.11964007 0.11989117 0.074339196
000330 18 5c 75 3d fe 9e fb 3d f8 4d 8a bc 28 5f bf 3c
       0.05990228 0.12286185 -0.016882882 0.023360804
000340 50 6f fa 3c f0 e9 85 3c 4c 3f 20 bd 94 ec d0 bd
       0.030570656 0.016346902 -0.039122865 -0.10201374
000350 f0 b0 a3 3d b0 a0 52 3d f0 0c c6 bd 78 1a fb bd
       0.079927325 0.051422775 -0.096704364 -0.12260908
000360 e6 48 f0 3d 60 d4 9c bc e4 cf 08 3d 08 cc 57 bd
       0.11732654 -0.019144237 0.033401385 -0.052684814
000370 4e 4a ad bd 72 9e f2 3d 60 da cf bc a2 27 cf 3d
       -0.08461438 0.11846627 -0.025372684 0.10114981
000380 b0 76 e3 3c 24 71 88 bd e2 58 8f 3d fc 36 c0 bd
       0.027766556 -0.06662205 0.06999375 -0.093854874
000390 8c 86 9b 3d 00 59 23 3c 90 c9 c4 bd 00 a7 38 bb
       0.07594022 0.00996995 -0.096087575 -0.0028175712
0003a0 c0 7a 78 bb a0 a4 2e 3d 52 b5 a4 bd 0c fb 4f 3d
       -0.0037914962 0.042637467 -0.080423966 0.050776526
0003b0 e8 53 9d 3c c8 4c 5a 3d 48 54 e4 bd da bc f1 3d
       0.019205049 0.05329588 -0.11148888 0.11803599
0003c0 fe 23 be bd f4 a1 22 bd d6 cd 96 3d 1a d1 b4 bd
       -0.09284209 -0.03970523 0.07363479 -0.088289455
0003d0 28 a4 7f bd 78 04 f3 bc 40 bd 5a 3b 34 54 2e 3d
       -0.06241241 -0.029665217 0.0033376962 0.04256077
0003e0 54 0b df bd c2 61 f5 bd ba 60 b6 bd 54 13 a7 bd
       -0.108908325 -0.119815364 -0.08905168 -0.081579834
0003f0 48 a1 e2 3d 58 9c a1 3c f8 3e dc bc f8 25 f9 3c
       0.11065918 0.01972787 -0.026885495 0.030413613

bias f4 [100]
000000 fe aa ae bd 04 12 81 bd c0 f1 a9 bb 82 38 be 3d
       -0.08528708 -0.06302264 -0.0051862895 0.09288122
000010 04 b3 2f 3d 20 ce 87 bc 36 55 c4 3d 5e 2d dc bd
       0.042895332 -0.01657778 0.09586565 -0.107508406
000020 38 54 32 bd 0c 3a 9b bd 34 7d 7b 3d 40 9c 9b 3b
       -0.04353735 -0.07579431 0.0613987 0.004748851
000030 20 80 9f bb 80 28 21 bb c0 e6 e9 3b 4c ce 8c 3d
       -0.0048675686 -0.002459079 0.0071381032 0.068752855
000040 20 28 cc bc a0 12 10 3c 5c d7 3c bd b8 8f c9 3c
       -0.024921477 0.008793503 -0.04610382 0.024604663
000050 fa 8d c7 bd 80 0d 4f 3c 28 cd 54 bd 98 0c df bc
       -0.09743877 0.012637496 -0.051953465 -0.027227685
000060 1c e5 0f 3d d0 61 22 bd 50 51 bf 3d 22 b0 bc bd
       0.035130605 -0.039644063 0.09341681 -0.09213282
000070 00 f1 5f bd d4 6a 37 bd a8 4f 5e 3d c0 8e 60 bb
       -0.054673195 -0.044779614 0.054275185 -0.0034264773
000080 e8 91 94 bc 58 ca b7 bc f6 f6 c4 3d fc 0e 76 3d
       -0.01813598 -0.022435352 0.096174166 0.060072884
000090 10 ac 1e 3c b8 4e d5 bc 70 ad 7c 3c 78 14 73 3d
       0.009684578 -0.026038513 0.01542221 0.059345692
0000a0 d0 7c 65 bd c4 c1 4a bd e4 67 cd bd 60 3c 37 bc
       -0.056027234 -0.049501196 -0.10029581 -0.011183828
0000b0 c4 dd 5b bd c0 74 dd bb 38 20 b3 bc e8 f0 6f 3d
       -0.05367829 -0.0067583025 -0.021865949 0.058579355
0000c0 f2 c3 ad bd b0 78 a8 3d 50 52 ca bd a0 28 62 bd
       -0.08484639 0.08226144 -0.09878981 -0.055214524
0000d0 b2 97 99 bd 84 f4 43 bd c0 fc 20 bb f4 fa d8 3d
       -0.07499637 -0.04784061 -0.0024564713 0.105947405
0000e0 20 4e ec 3c fa 07 f1 3d f8 e5 60 3d fc 47 59 bd
       0.028845847 0.117690995 0.054906815 -0.053047165
0000f0 90 41 57 bd 84 10 eb bd 04 40 17 bd f4 81 fe 3d
       -0.05255276 -0.114777595 -0.036926284 0.1242713
000100 d0 16 3b bc 16 58 92 3d 68 40 e6 3c 30 c1 95 bc
       -0.011419013 0.07145707 0.028106883 -0.018280596
000110 e8 49 af bd 5c 1c 5f bd 40 c6 49 bd ec 84 fe bd
       -0.085590184 -0.054470405 -0.04926133 -0.124276966
000120 e0 e2 dd bd d4 58 cd 3d 50 7f 1a 3d f0 7d 20 bd
       -0.108342886 0.10026708 0.03771907 -0.039182603
000130 48 06 e6 bd 8c d1 e0 bd c2 69 e6 3d e6 65 c9 bd
       -0.11231667 -0.10977468 0.112506405 -0.09833889
000140 b6 ac e5 3d 00 3e 67 bd 70 5c 52 bc 80 38 ea 3b
       0.112145826 -0.056455612 -0.012839422 0.0071478486
000150 c0 8c 07 3d a0 f3 5c 3c 02 81 f4 bd 00 13 c4 3c
       0.033093214 0.013485819 -0.11938669 0.023934841
000160 f4 cb c0 3d e0 34 dd 3c 96 be ae 3d fe 1c e4 bd
       0.09413901 0.027002752 0.08532445 -0.11138342
000170 94 1f 75 3d a0 4a ce 3b 6a dd 84 3d 38 62 55 bd
       0.05984457 0.006295517 0.06487544 -0.05209562
000180 82 4e 9a bd 0e 7c eb 3d 30 74 c2 bc fc d9 14 3d
       -0.075345054 0.11498271 -0.023737043 0.0363407

weight f4 [1, 100]
000000 52 dd 5e 3d 24 8c e9 3c 05 98 9e bd c2 95 6e 3d
       0.054410286 0.028509207 -0.07743839 0.05824829
000010 0c 4d fc bc 36 64 3d 3d c3 3d c5 bd 9d 0e c6 3d
       -0.030798458 0.046238147 -0.09630921 0.09670756
000020 46 c2 ac bd e3 53 54 bd 8d 08 7c bd d8 b1 0b 3c
       -0.08435492 -0.051837813 -0.061531592 0.008526288
000030 ab d4 9e bd 41 98 82 3d 96 d1 59 3d 8a 62 6b bd
       -0.07755407 0.063766964 0.053178392 -0.05746702
000040 87 3b 7c bd ce 7d 93 bd 03 65 8e 3d 92 88 34 3d
       -0.061580207 -0.0720173 0.0695286 0.044075556
000050 a6 64 11 3d 00 8a 75 39 2c ef 0e bd 7a 71 18 bd
       0.035496376 0.0002341643 -0.03489606 -0.037217595
000060 71 fc 8c 3d 50 72 b3 bb c2 0a 42 3d 20 bc a8 bc
       0.06884087 -0.0054762736 0.04737354 -0.020597517
000070 7a 82 1c 3d 18 95 54 bc 40 93 99 3c df f8 95 3d
       0.03821037 -0.012975 0.018746972 0.07322859
000080 50 20 6d bc 80 8b f8 bc 62 3e 07 3d cb 9c cc 3d
       -0.014473036 -0.030339956 0.033018477 0.099908434
000090 69 04 b7 3d 00 6b 17 3c 72 23 5a 3d 63 db b9 bd
       0.08936388 0.009241819 0.05325646 -0.09075048
0000a0 95 b1 80 3d 18 9b 01 bc 67 a1 42 bd 56 b5 a7 bd
       0.06283871 -0.007910512 -0.047517207 -0.08188884
0000b0 aa 81 36 bd 95 44 c0 3d d0 1d 7f 3c d8 32 80 3c
       -0.04455725 0.09388081 0.015571073 0.015649244
0000c0 9e 6c a8 bd 4d 2b c8 bd 5d de 74 bd 0c 7c e2 bc
       -0.08223842 -0.09773884 -0.059782375 -0.02764704
0000d0 c2 25 c5 bd 73 54 6c bd 65 d2 85 bd 4e 33 30 3d
       -0.09626342 -0.057697725 -0.0653427 0.043017678
0000e0 1e 4e 32 3d 86 36 78 3d 40 66 75 bb 71 21 9b 3d
       0.04353153 0.060598873 -0.003744498 0.07574738
0000f0 d8 ce c3 bd 0d 21 b0 3d 0e 6f 89 bd c2 ec 7c 3d
       -0.09560937 0.08600054 -0.06710635 0.061749227
000100 5e d0 7f 3d d4 da b0 bc 6a f4 37 3d a9 63 8a 3d
       0.062454574 -0.02158872 0.044910826 0.0675729
000110 35 80 a3 3d 22 f3 16 3d c8 e4 b8 3c 30 91 02 bd
       0.07983438 0.036852963 0.022570029 -0.031876743
000120 78 d0 f8 bc c2 ca 14 3d 83 67 96 3d 17 77 72 bd
       -0.030372843 0.036326177 0.07343962 -0.059195604
000130 ed 90 7a bd 2f 99 ca bd 52 7e 15 3d 12 36 c0 bd
       -0.06117337 -0.09892499 0.03649742 -0.09385313
000140 e0 ff d6 3b fd 88 5e bd 8e e6 a2 bd e6 4b 08 3d
       0.0065612644 -0.05432986 -0.07954131 0.033275507
000150 d7 e1 9c 3d 8e 82 94 bd d7 7a ac 3d 5c a4 e4 3c
       0.07660263 -0.07251464 0.08421867 0.027910404
000160 e8 2d be bc 00 f8 9f ba ad 64 7c bd 77 69 63 bd
       -0.02321525 -0.0012204647 -0.06161945 -0.0555205
000170 21 64 ae 3d a0 26 7c bd b1 3e 84 3d ab 03 bd 3d
       0.08515192 -0.061560273 0.0645727 0.09229215
000180 c4 bf ce 3c 40 75 7d 3c 1b ea a4 bd 3a ad 50 3d
       0.025237925 0.015469849 -0.080524646 0.05094645
