saved models/mlp_num_2_mpnn_4.pth (torch, 54549 bytes, 3 tensors)

weight f4 [100, 128]
000000 a1 d3 88 3d 71 0a 65 bd 8e 55 70 3d 15 ad 98 bd
       0.0668099 -0.05591816 0.05867534 -0.07454888
000010 00 c4 96 bb ca 2a 2a 3d fa d5 4d 3d 28 79 ac 3c
       -0.0046010017 0.041544713 0.050252892 0.021053866
000020 20 ce bf bb c4 53 8a bd f8 56 4b bd 73 da 89 3d
       -0.0058534294 -0.06754258 -0.049643487 0.06731119
000030 46 dc 1f 3d fe d4 45 3d b3 45 aa 3d 21 b3 33 bd
       0.03902843 0.04829883 0.08314075 -0.043872003
000040 c3 16 9a 3d 0c e5 a2 3c 9c 47 60 bd 47 58 a3 3d
       0.07523873 0.019884609 -0.054755792 0.07975822
000050 83 9f 92 3d 1d 60 9a bd 04 0e 4d bd 3f 02 00 bd
       0.07159331 -0.075378634 -0.050062194 -0.031252142
000060 ae 66 32 bd 50 26 4d bc f2 84 52 3d 8c 46 c7 bc
       -0.043554954 -0.012521341 0.051396318 -0.024325632
000070 04 0a a0 3c c8 a7 e0 3c 29 0d 86 3d db 55 8e 3d
       0.019536026 0.027423754 0.06545479 0.069499694
000080 3c 8d 74 bd 20 16 c9 bc a0 03 71 3c 82 be 01 bd
       -0.059705004 -0.024546683 0.014710337 -0.031675823
000090 96 da 7e bd 30 c7 a3 bd 10 e9 ff bb a6 40 29 3d
       -0.06222018 -0.079969764 -0.0078097656 0.04132142
0000a0 30 a9 a2 bb d6 0c 09 3d 36 1f 5f 3d 40 14 36 3c
       -0.0049640164 0.033459507 0.054473124 0.011113226
0000b0 c0 50 af ba b4 ea 4a bd 58 cd 98 bc 0d 31 16 bd
       -0.0013375506 -0.049540237 -0.018652603 -0.036667872
0000c0 e0 4f a8 bc 69 cf 8d 3d fe e3 0e 3d 18 5d f5 3c
       -0.0205459 0.06924326 0.0348854 0.029951617
0000d0 00 78 d7 b8 6d 6e a1 bd de ac a6 bd 82 ea 4c 3d
       -0.00010274351 -0.0788239 -0.081384405 0.05002833
0000e0 86 05 26 bd 7d 1b a3 bd f0 87 05 3c 68 4a 41 bc
       -0.04053261 -0.07964227 0.008150086 -0.011797525
0000f0 13 43 07 bd f4 00 a9 bc f1 ce 90 3d 93 d8 88 3d
       -0.03302295 -0.020630337 0.07070721 0.06681933
000100 00 05 fd 3a 3c b1 b1 3c 65 bc 91 bd ac 4e ce bc
       0.0019303858 0.021690957 -0.071160115 -0.025183998
000110 19 b5 a7 bd 08 a5 48 bc 00 0b e4 3b 1a 0c 7c 3d
       -0.081888385 -0.012246378 0.006959319 0.06153498
000120 e7 56 8e bd 54 b7 13 bd 28 97 cb 3c b7 93 99 3d
       -0.06950169 -0.036063507 0.02485235 0.074988775
000130 fd d1 8f 3d a5 23 a5 bd ce c0 24 3d e0 f1 62 3b
       0.07022474 -0.08063439 0.040222935 0.0034629032
000140 b5 8b 70 bd be d6 65 3d 1e 5d 06 3d 99 df 94 bd
       -0.058726985 0.056112997 0.032803647 -0.0726921
000150 98 d0 42 bd 18 ee 9b bc 7c 69 c2 3c f0 a5 5c bc
       -0.04756221 -0.01903443 0.02373194 -0.013467297
000160 20 66 02 bb 4c 76 a2 3c 30 33 3e 3c a0 a6 4d bb
       -0.0019897297 0.019831799 0.011608884 -0.0031379834
000170 f1 ff 9e 3d fe 97 58 3d 10 78 85 3c 50 83 b2 bd
       0.07763661 0.052879326 0.016292602 -0.08716452
000180 73 ca ad 3d 42 73 62 3d 80 f5 f3 3a e6 d2 95 bd
       0.0848588 0.0552857 0.0018612593 -0.07315616
000190 f9 05 9b 3d 65 c0 3c bd 40 6c 20 3b 73 92 9f 3d
       0.075694986 -0.04608192 0.0024478585 0.07791605
0001a0 30 b5 d1 3c b3 1f 4a bd 50 86 c0 3c c2 0f 70 3d
       0.025599092 -0.049346637 0.023501545 0.058608778
0001b0 96 45 9d bd 1c d8 e0 3c 0a 3d 7a 3d 30 1b 97 bc
       -0.07679288 0.027446799 0.061093368 -0.018445581
0001c0 bb 02 8c 3d a4 b7 99 bc 57 6c 9b 3d 86 78 36 bd
       0.06836458 -0.018764324 0.075890236 -0.044548534
0001d0 04 5d 66 bd e0 30 3d bc e0 33 b3 bb 53 41 ae 3d
       -0.05624105 -0.011547297 -0.0054688305 0.08508553
0001e0 9c 1a ab bc 20 a0 bf 3c 1e 0c 29 3d 11 fb 70 bd
       -0.020886712 0.023391783 0.04127132 -0.058833186
0001f0 e9 8f 8b 3d 68 93 aa 3c a5 3f 8c 3d 90 c2 38 3c
       0.06814558 0.020822242 0.06848077 0.011276856
000200 20 a1 00 bc e2 50 5a 3d 62 52 59 3d 2a ba 6b 3d
       -0.007850915 0.053299792 0.053057082 0.057550587
000210 74 3f 19 bd e1 83 af bd 14 3b 90 3c 40 46 01 bb
       -0.03741403 -0.08570076 0.017606296 -0.001972571
000220 7a 3c 57 3d be ca 2c 3d 08 1e f4 bc 08 38 4f 3c
       0.05254791 0.042185538 -0.029799476 0.012647636
000230 00 18 e2 38 17 e4 5e bd 90 f4 02 bd c9 57 1f bd
       0.0001078099 -0.054416742 -0.031971514 -0.038902078
000240 90 74 7e bc c6 b2 76 3d 00 25 c7 39 80 9d 5f 3c
       -0.01553072 0.060229085 0.00037983805 0.013648391
000250 4e 58 1d 3d a0 83 df 3b 42 c0 e9 bc 36 c2 61 bd
       0.038414292 0.006821111 -0.028534058 -0.055116855
000260 a2 88 43 3d cf 26 ac 3d 59 08 b3 3d c0 af 46 bc
       0.047737725 0.0840584 0.087418266 -0.012126863
000270 9a d7 ef bc 40 4d 1c bd db 8b 82 3d 5a 48 31 3d
       -0.029277612 -0.03815961 0.063743316 0.04328189
000280 f3 e5 a6 3d ea cd 91 bd 46 b6 a0 bd 00 c8 f7 b9
       0.08149328 -0.07119353 -0.07847266 -0.00047260523
000290 00 83 27 bb 58 2d 3b bd 6d f9 90 3d 0a 73 3d 3d
       -0.002556026 -0.04569754 0.07078824 0.046252288
0002a0 38 7c 67 bc 34 32 84 bc 48 a8 4a 3c a0 34 db bb
       -0.014128737 -0.01613722 0.012369223 -0.006689623
0002b0 35 92 52 bd 9d 89 54 bd 90 d8 72 bd 35 77 ad bd
       -0.051408965 -0.05188905 -0.05928856 -0.084700026
0002c0 50 92 86 3c 18 69 58 bc 08 3a 41 bd 68 b2 01 bc
       0.01642719 -0.01320865 -0.047174484 -0.0079160705
0002d0 30 79 d9 bb a0 b3 d2 bb ae 85 02 3d 21 2e 8a 3d
       -0.006636761 -0.0064301044 0.031865768 0.0674708
0002e0 2e b9 09 3d 52 07 37 3d 40 23 ea 3a 30 36 a6 bd
       0.033623867 0.044684716 0.0017863289 -0.08115804
0002f0 d2 16 48 3d 0a 36 47 3d 00 e0 6c b8 4e 65 66 3d
       0.04884989 0.04863552 -5.64754e-05 0.056248955
000300 80 d3 45 bb db 7e a0 3d ce 97 80 bd 4a c4 ec bc
       -0.0030185878 0.07836696 -0.062789544 -0.028902192
000310 0c 7d 87 bc b8 06 13 bc 4c 37 fe bc 10 50 47 3c
       -0.01653912 -0.00897377 -0.031032227 0.0121650845
000320 83 06 56 bd 30 c3 df 3c c2 f8 40 3d 0a 95 7d bd
       -0.052252304 0.027314752 0.047112234 -0.061909713
000330 82 fa 42 3d 00 a7 c8 bc d2 e1 f7 bc 74 7a 81 bd
       0.047602184 -0.024493694 -0.030259047 -0.06322184
000340 8c 83 93 bd 9a 89 3c 3d 20 59 27 bc 40 44 67 3b
       -0.07202825 0.046029665 -0.01021412 0.0035288483
000350 29 b8 04 bd f6 50 99 bd 62 fc 1a 3d b0 ab 76 bc
       -0.03240219 -0.07486145 0.037838347 -0.015055582
000360 60 f1 88 3c 2c 4c f3 bc 1e 6e f3 bc 3f 4d 38 bd
       0.01671666 -0.029699408 -0.029715594 -0.044995543
000370 e0 e4 4a 3b 7e 16 05 bd 86 ac 6f 3d 28 b6 81 bc
       0.0030959174 -0.032492153 0.05851414 -0.01583393
000380 ee 62 5f bd 70 ca b0 3b 3c d0 81 bd 8e dd 55 bd
       -0.054537706 0.005395226 -0.06338546 -0.052213244
000390 08 ae 1e bc dd f6 81 3d 1e 7f 8d bd 5e d1 16 3d
       -0.009685047 0.063459136 -0.06909011 0.03682076
0003a0 ca ae 22 bd ca b4 a3 bd 19 83 84 3d 7f 66 70 bd
       -0.039717473 -0.07993467 0.064703174 -0.058691498
0003b0 b4 7a ab bd 7d 26 03 bd c0 d9 2f bb 31 09 b4 bd
       -0.08373013 -0.032019127 -0.002683267 -0.087908156
0003c0 24 f4 cc bc 6c f1 b3 bc 20 28 b1 bb 6c 31 9e bc
       -0.02501876 -0.021965705 -0.0054063946 -0.019310676
0003d0 30 a5 e0 3c 36 fa 22 3d 94 27 9b bd 86 18 64 bd
       0.027422518 0.0397894 -0.07575908 -0.05568745
0003e0 de d4 8f bd 5c 98 c3 bc 50 8c ba 3c 1c 96 01 3d
       -0.07023023 -0.023876362 0.022771984 0.031637296
0003f0 b3 f8 05 bd 70 c5 f0 3b b0 8a de 3b f0 69 ac 3b
       -0.03270788 0.007347755 0.006791435 0.005261652

bias f4 [100]
000000 f2 b6 33 3d a7 69 10 bd fe f5 24 3d a6 99 2a 3d
       0.043875642 -0.035257008 0.04027366 0.041650437
000010 10 00 62 3c 60 ac ba 3b 77 fc 1f bd 60 e0 a1 bc
       0.01379396 0.005696818 -0.03905913 -0.01976031
000020 d2 e7 76 bd b8 3d 67 bd ef 43 9a 3d 32 70 51 3d
       -0.060279675 -0.056455344 0.075324886 0.05113239
000030 f4 dd b0 bc 00 59 24 bb 16 e0 2c 3d 72 51 7d bd
       -0.02159021 -0.0025077462 0.042205893 -0.06184525
000040 6c e9 1c bd 6e 04 3d 3d 9c e7 8d bd c0 27 db 3c
       -0.038308546 0.046146803 -0.069289416 0.026752353
000050 64 e8 b9 bc fa 29 4a 3d 0a 2b 25 bd 13 5a 97 3d
       -0.02269382 0.04935644 -0.04032425 0.07390227
000060 f1 2d 8e 3d 10 c9 f7 3c b0 c0 a3 3c 3f 58 19 bd
       0.069423564 0.030247241 0.019989341 -0.037437674
000070 92 73 78 3d ac 15 f9 bc 86 5a 27 3d 5c cd e5 bc
       0.06065709 -0.030405842 0.040857814 -0.028052025
000080 36 48 36 3d e5 7d a0 3d 30 15 f7 3b 04 1e 09 3d
       0.04450246 0.078365125 0.0075403675 0.03347589
000090 04 36 9b bd 88 78 6f bc 30 18 7c bd f7 b1 aa 3d
       -0.07578662 -0.014616139 -0.061546504 0.08334725
0000a0 ca 22 f3 bc c5 06 99 3d 00 e1 4d 3c d6 eb 70 3d
       -0.029679675 0.07471994 0.012565851 0.05881866
0000b0 a0 b4 04 bd df f8 7c bd 16 13 a3 bd fd 88 b2 bd
       -0.03239882 -0.06176078 -0.07962625 -0.08717535
0000c0 b6 c9 58 3d 19 7a aa bd 70 54 68 bc ca d7 19 3d
       0.05292674 -0.083240695 -0.014180288 0.037559308
0000d0 22 00 35 3d 78 e2 06 3c 92 e9 76 3d f3 9a 8d 3d
       0.04418958 0.008232705 0.060281344 0.0691432
0000e0 4c 1a 0d bd 21 09 a4 3d f9 26 9b bd 97 a5 82 3d
       -0.034448907 0.08009554 -0.07575793 0.0637924
0000f0 21 37 8b 3d 82 76 28 3d fb fc aa 3d e7 4a 92 3d
       0.067976244 0.041128643 0.083490334 0.07143193
000100 94 26 a4 bc 99 cd 3e bd 20 ec 40 3c a9 1c 80 3d
       -0.020037927 -0.046582792 0.011775047 0.062554665
000110 f0 a3 14 3c 00 17 c4 b9 5a 65 42 3d ea b3 25 3d
       0.009072289 -0.0003740117 0.047459938 0.040454783
000120 59 e8 a3 3d ae 81 27 3d 11 fe 62 bd 11 d8 98 3d
       0.08003301 0.040895157 -0.055418078 0.074630864
000130 74 fc ca bc c6 3b 08 3d c0 12 fe 3b ba fa 2b 3d
       -0.024778582 0.03326013 0.0077537 0.04198716
000140 1e 50 7c 3d d9 27 a6 3d d3 7b 8e 3d 52 42 68 3d
       0.061599843 0.08113069 0.06957211 0.056703873
000150 80 72 23 bc 8c 7a 03 3d 80 d0 18 bc 83 78 a3 3d
       -0.009976029 0.03209929 -0.009327054 0.0798197
000160 b2 12 73 3d 99 11 ae bd d2 3e 29 3d 74 ab 04 bd
       0.059344 -0.0849945 0.041319676 -0.032390073
000170 93 13 86 3d 1e 08 8a bd 50 98 70 bc 30 ed a1 bc
       0.06546702 -0.067398295 -0.014684752 -0.01976642
000180 2f e8 a9 3d 6e d0 70 3d d9 12 81 3d ac 1c fe 3c
       0.08296239 0.058792524 0.06302423 0.031019531

weight f4 [1, 100]
000000 00 15 8b bb d8 65 bd 3c 1b 29 8f 3d 32 bc a6 bd
       -0.0042444468 0.023119852 0.06990262 -0.08141364
000010 c8 e0 da bc b7 ea 89 3d b6 f3 91 bd 93 a7 8f 3d
       -0.026718512 0.067342214 -0.07126562 0.07014384
000020 0d 25 5c bd 60 f6 ab 3b b0 b1 5b bd 29 5f be 3d
       -0.053746272 0.005247876 -0.053636253 0.09295494
000030 c7 01 5b bd e2 f1 2d 3d 00 fa 08 39 2a 08 7f 3d
       -0.053468492 0.042467006 0.00013063103 0.062263645
000040 a3 76 97 3d 60 2b b7 bd 36 95 89 bd a0 b8 91 3b
       0.07395675 -0.0894382 -0.06717913 0.004447058
000050 3e 17 6c 3d c2 10 23 3d 10 fc 24 3c 07 ad 45 bd
       0.057639353 0.039810903 0.010069862 -0.048260715
000060 d6 66 80 bd 3a 1d 76 bd 93 7f 61 bd 92 3b 03 3d
       -0.062696144 -0.060086466 -0.055053305 0.032039233
000070 98 e7 d1 bc 20 2f d0 bc 98 13 43 3c 4f 94 8a 3d
       -0.025623128 -0.025413096 0.011906527 0.06766569
000080 d6 28 00 3d ac 62 87 bc 76 dd 23 3d ca 28 35 3d
       0.031288944 -0.016526543 0.040006123 0.044228353
000090 ac 53 ae bc 23 2f 6b bd 64 6d fc 3c cc f3 cf bc
       -0.021280132 -0.057418 0.03081388 -0.025384806
0000a0 16 59 a7 bd 40 a1 cc ba 59 0f 81 3d ad 0b 9c 3d
       -0.08171289 -0.0015612021 0.063017555 0.076194145
0000b0 c0 33 0c bb d0 cd 71 3c 0a 65 7a 3d 7c e1 d4 3c
       -0.002139315 0.014758542 0.061131515 0.025986426
0000c0 1e 0a 3d 3d bc 6e d0 3c 34 02 90 3c 18 82 a2 bc
       0.046152227 0.025443427 0.017579176 -0.019837424
0000d0 80 4d 85 3c fd 5d b5 3d 23 db 77 bd 38 3a a9 bc
       0.016272306 0.088558175 -0.06051172 -0.020657644
0000e0 bf a2 84 3d b4 9d a0 bc b3 97 40 bd 50 53 89 bb
       0.06476354 -0.019606449 -0.04701967 -0.00419084
0000f0 b7 db bc bd e1 77 9b 3d dd 47 84 3d fc 93 f5 3c
       -0.09221595 0.075912245 0.06459019 0.029977791
000100 56 a7 56 3d 1e 57 22 3d e0 f7 2e bd 28 08 b0 bd
       0.052405678 0.039633863 -0.04271686 -0.08595306
000110 ec 86 13 bd 13 50 b7 bd 80 93 8d ba 02 d1 59 3d
       -0.036017343 -0.0895082 -0.0010801405 0.05317784
000120 71 4b b4 3d 9a 58 bc bd 56 84 1d 3d c0 62 83 3c
       0.08803452 -0.09196587 0.038456284 0.016038299
000130 48 52 af 3c 50 1d 6a 3c 40 be 64 bd 6c 07 89 bd
       0.02140154 0.014289215 -0.0558455 -0.06690869
000140 78 53 8c bc ea f6 07 3d 53 c3 19 bd 70 b1 4e bc
       -0.017129645 0.03319446 -0.03753979 -0.012615547
000150 58 7f 84 3c a0 59 f8 3b 2c 8d 99 3c 76 ef 21 3d
       0.016174003 0.0075790435 0.018744074 0.03953501
000160 ed 3b c0 3d 50 89 a1 bd 08 0c 87 bc ed 65 a3 bd
       0.0938643 -0.078875184 -0.01648523 -0.07978425
000170 28 72 62 bc 69 ad a9 3d 73 bf c8 3d 52 6d 6d 3d
       -0.013821162 0.082850285 0.09802141 0.057965584
000180 e1 99 bb 3d 08 02 a4 bd 72 3e 81 bd 17 fb 4a bd
       0.091602094 -0.080082 -0.063107386 -0.049555864
