saved models/normal_mlp_num_1_mpnn_2.pth (torch, 54655 bytes, 3 tensors)

weight f4 [100, 128]
-0.037440836 -0.018145695 0.017307982 -0.009459533 -0.045019157 0.022791006 0.07283849 -0.043059602
-0.078314036 -0.065677896 0.053070568 0.08593073 0.07241086 -0.025534615 -0.0692856 0.060506515
0.08833767 0.0011824071 0.026689783 0.017033406 0.08749976 -0.017609626 -0.084459245 0.06551478
0.022003993 -0.018826827 -0.03664545 -0.067590944 -0.055405498 0.0536521 -0.08835284 0.06321474
0.026096001 -0.0065512434 -0.0863378 0.020787247 -0.015421629 -0.02440565 -0.02309335 -0.08021253
0.0058892965 0.024319753 0.056680284 0.036588714 -0.07412385 0.015495487 0.04841409 0.07713344
0.062184997 0.07226706 -0.039072372 -0.07120037 0.031653285 -0.015581317 -0.038770687 0.019088969
-0.061992504 -0.015984863 -0.024760872 -0.039488204 0.023251928 0.055563293 -0.026785862 -0.06851661
0.01626221 -0.020764507 -0.06010859 -0.039437752 -0.082252584 -0.06991697 -0.03082434 -0.018129319
0.06354245 0.035836592 -0.0031918362 0.010418974 -0.042953737 -8.247793e-06 0.03650862 0.052660204
0.007293977 -0.013822027 0.0262544 0.045300283 0.03643316 -0.011395119 -0.03914323 -0.08289982
0.027236812 0.077033885 0.0586927 -0.06303586 0.08747289 0.0070248023 -0.0762197 0.060274474
0.074437 -0.0426165 -0.060609266 0.0076009333 0.08655197 -0.0731535 -0.012958288 -0.08640801
-0.07181215 -0.04940892 -0.07582761 -0.02078069 -0.037855867 -0.07280877 -0.038750403 0.059376113
-0.034807608 -0.054736692 -0.024855554 -0.008762889 0.052791156 -0.032712225 0.084943764 -0.04020509
-0.049352366 -0.08430824 0.052430846 -0.0650368 0.07920747 0.005994968 -0.031869255 0.018244408
0.01818569 0.0023744553 0.041296206 0.06050753 0.010607034 -0.06410284 0.04339347 -0.07505585
-0.065451294 0.0040710047 -0.059018325 -0.07080446 0.039757438 0.08206964 -0.035918966 0.0319371
-0.08562976 -0.076034494 -0.08787606 0.028071277 -0.052806072 -0.013569966 0.055384092 -0.05969057
-0.067746446 0.0505322 0.026404165 -0.07369286 0.052414186 0.04051111 0.021554165 -0.041482467
0.029061474 0.078080736 -0.086108394 -0.06655678 -0.040484585 -0.05244468 0.01326213 0.05913148
0.0829184 0.017948613 -0.05727353 -0.02467306 -0.08450284 0.08524779 0.052418835 0.025459878
0.03470871 0.07444986 0.04145757 0.035935573 0.015867002 0.05618664 -0.0121303275 -0.046246883
0.05879157 0.044751264 0.045177422 0.030572057 -0.068552986 -0.013166167 -0.06665585 -0.04814703
0.07533712 0.0008496493 -0.0058433115 0.059353314 0.026983969 0.04631389 -0.020861678 -0.0584161
-0.053427674 0.042874165 0.05073575 0.07731808 -0.030030895 0.0483179 0.044356503 -0.08644997
-0.03572406 -0.037671506 -0.025352731 0.054804705 0.04765866 -0.046942737 -0.02853388 0.026512645
0.060476713 -0.048384897 0.071071275 0.035799682 -0.04085174 -0.030941118 -0.04188398 -0.07643946
0.015891552 -0.04420277 -0.0761797 0.035866812 -0.06954893 -0.068147436 -0.028163407 0.0022759289
0.009683266 0.060005136 -0.033156566 0.0101145655 0.00023965538 0.027082227 -0.02903743 0.05113121
-0.019128323 0.044694386 -0.06285505 -0.05024175 -0.07960602 0.07021155 0.023938261 -0.073445424
0.039639674 -0.005880557 0.021081157 -0.0064490065 -0.080112465 0.081204586 0.08460016 -0.022132635
00000000: 905b 19bd 48a6 94bc 78c9 8d3c 28fc 1abc
00000010: 0266 38bd 34b4 ba3c 592c 953d 445f 30bd
00000020: 1c63 a0bd 2282 86bd 8660 593d 73fc af3d
00000030: 254c 943d f82d d1bc 9ce5 8dbd aed5 773d
00000040: 61ea b43d 00fb 9a3a 88a4 da3c a489 8b3c
00000050: 1333 b33d 1042 90bc f8f8 acbd 9d2c 863d
00000060: b841 b43c b83a 9abc 8a19 16bd 1f6d 8abd
00000070: e0f0 62bd 4ec2 5b3d 55f2 b4bd bb76 813d
00000080: 48c7 d53c d0ab d6bb dfd1 b0bd 044a aa3c
00000090: 00ab 7cbc 5cee c7bc 442e bdbc 7846 a4bd
000000a0: 00fb c03b 383a c73c 9629 683d 0cde 153d
000000b0: 3fce 97bd c8e0 7d3c da4d 463d 23f8 9d3d
000000c0: b2b5 7e3d c100 943d 5a0a 20bd 80d1 91bd
000000d0: e0a6 013d c848 7fbc 03ce 1ebd 7860 9c3c
000000e0: daeb 7dbd b0f2 82bc 50d7 cabc 62be 21bd
000000f0: d47a be3c 5696 633d 066e dbbc 7052 8cbd
00000100: 5438 853c 541a aabc 6d34 76bd 7b89 21bd
00000110: 0b74 a8bd a130 8fbd 5483 fcbc f083 94bc
00000120: 8b22 823d 64c9 123d 202e 51bb 58b4 2a3c
00000130: 42f0 2fbd 0060 0ab7 108a 153d 3ab2 573d
00000140: 5002 ef3b c875 62bc 7813 d73c ca8c 393d
00000150: f03a 153d 98b2 3abc a754 20bd 61c7 a9bd
00000160: bc1f df3c f1c3 9d3d c267 703d f218 81bd
00000170: fd24 b33d 5030 e63b 1319 9cbd 5ee2 763d
00000180: 6d72 983d a48e 2ebd 6c41 78bd 4011 f93b
00000190: 2942 b13d 81d1 95bd 004f 54bc aff6 b0bd
000001a0: 4012 93bd 0261 4abd 824b 9bbd 443c aabc
000001b0: c10e 1bbd c41c 95bd beb8 1ebd 5e34 733d
000001c0: 6c92 0ebd 9533 60bd e09d cbbc 3892 0fbc
000001d0: 8a3b 583d 41fd 05bd fff6 ad3d 18ae 24bd
000001e0: b525 4abd cca9 acbd bac1 563d 0432 85bd
000001f0: 8737 a23d 7071 c43b 5689 02bd 4c75 953c
00000200: 28fa 943c c09c 1b3b 3626 293d bed6 773d
00000210: 20c9 2d3c 5a48 83bd 5abd 313d e2b6 99bd
00000220: 540b 86bd 1066 853b 33bd 71bd ee01 91bd
00000230: b2d8 223d 2114 a83d c41f 13bd 7ad0 023d
00000240: a85e afbd f9b7 9bbd 5df8 b3bd bcf5 e53c
00000250: 2e4b 58bd 9054 5ebc 6eda 623d 197e 74bd
00000260: a6be 8abd dafa 4e3d 8c4d d83c 48ec 96bd
00000270: 42b0 563d faee 253d 5c92 b03c 85e9 29bd
00000280: 5412 ee3c cbe8 9f3d 9959 b0bd ec4e 88bd
00000290: 2ad3 25bd 3cd0 56bd 6849 593c da33 723d
000002a0: 1fd1 a93d f808 933c a697 6abd 281f cabc
000002b0: d30f adbd 6596 ae3d 22b5 563d 3c91 d03c
000002c0: b82a 0e3d 2b79 983d 6acf 293d 2e31 133d
000002d0: 84fb 813c f623 663d 48be 46bc 5f6d 3dbd
000002e0: 6ecf 703d 1a4d 373d f60b 393d 4072 fa3c
000002f0: 8265 8cbd e8b6 57bc dd82 88bd d235 45bd
00000300: 594a 9a3d 00bb 5e3a 4079 bfbb 761c 733d
00000310: 7c0d dd3c a2b3 3d3d 1ce6 aabc b845 6fbd
00000320: fad6 5abd d29c 2f3d 4ad0 4f3d f158 9e3d
00000330: 5a03 f6bc fee8 453d 2aaf 353d af0c b1bd
00000340: 6453 12bd 704d 1abd 88b0 cfbc e67a 603d
00000350: ba35 433d 0747 40bd e2bf e9bc 0c31 d93c
00000360: 6eb6 773d 3e2f 46bd d18d 913d b0a2 123d
00000370: 2754 27bd 3a78 fdbc 898e 2bbd 4b8c 9cbd
00000380: 002f 823c f70d 35bd 1a04 9cbd 14e9 123d
00000390: ab6f 8ebd e290 8bbd f2b6 e6bc c027 153b
000003a0: 90a6 1e3c f2c7 753d 2ecf 07bd 90b7 253c
000003b0: 004c 7b39 8cdb dd3c e8df edbc f66e 513d
000003c0: 00b3 9cbc 7611 373d 26ba 80bd 4bca 4dbd
000003d0: 7b08 a3bd 13cb 8f3d 2c1a c43c 8e6a 96bd
000003e0: 365d 223d b0b1 c0bb 64b2 ac3c 3052 d3bb
000003f0: 0112 a4bd 974e a63d d942 ad3d 804f b5bc

bias f4 [100]
0.061817385 0.019566081 0.039856456 -0.06424944 0.08694471 -0.087292105 -0.0056439713 0.023308218
-0.06289427 -0.041016344 -0.031084724 -0.0752365 0.079630636 0.050530113 -0.04723175 -0.057565726
-0.030295756 0.05178354 0.013145834 0.024710916 0.0034184381 0.008302972 -0.08290102 -0.009171456
0.00079511106 5.6013465e-05 0.08238984 -0.07114975 0.030542701 0.06486911 -0.03541821 -0.025017902
0.03184957 0.034800366 -0.031245608 0.081573926 -0.06844141 -0.065675184 0.03063427 -0.0054635704
-0.04088893 0.0506225 -0.0020705909 0.040703915 -0.04791788 0.08264505 0.077052005 0.03573139
-0.009377316 0.058865316 -0.08031832 0.0001366064 -0.029298909 -0.0645078 -0.00832624 -0.08193493
0.01523561 0.008557625 0.054421775 -0.022629626 -0.014212899 -0.04877598 -0.067535564 0.004356131
-0.0830013 -0.07705885 0.02008389 -0.062542625 -0.06889303 -0.08005714 -0.07733407 -0.02065166
-0.06540032 -0.05908319 -0.015531324 -0.024269491 -0.08257781 0.0077879503 0.03998866 0.0721427
-0.04908992 -0.012215719 0.047309257 0.046863653 0.043221883 0.03249561 -0.08374335 -0.07415385
0.065568976 0.044205166 0.0032984987 -0.0633817 -0.038267672 -0.072515234 -0.046588134 0.014886849
-0.053193696 -0.027817298 0.043467738 0.0029774457
00000000: 3a34 7d3d 0c49 a03c 8640 233d 3695 83bd
00000010: 1110 b23d 34c6 b2bd 10f1 b8bb e0f0 be3c
00000020: b6ce 80bd c100 28bd 64a5 febc 9815 9abd
00000030: 6315 a33d aaf8 4e3d 1476 41bd 0aca 6bbd
00000040: ce2e f8bc fa1a 543d a061 573c 8c6e ca3c
00000050: e007 603b 3009 083c 03c8 a9bd e043 16bc
00000060: 006f 503a 00f0 6a38 01bc a83d f6b6 91bd
00000070: b034 fa3c 19da 843d af12 11bd 58f2 ccbc
00000080: b274 023d d48a 0e3d caf6 ffbc 3b10 a73d
00000090: 032b 8cbd b680 86bd b8f4 fa3c c007 b3bb
000000a0: 277b 27bd 8a59 4f3d c0b2 07bb 26b9 263d
000000b0: 8a45 44bd cf41 a93d 71cd 9d3d 145b 123d
000000c0: 50a3 19bc c21c 713d ee7d a4bd 003e 0f39
000000d0: 4404 f0bc aa1c 84bd c86a 08bc 80cd a7bd
000000e0: c89e 793c 4835 0c3c 5ee9 5e3d c461 b9bc
000000f0: 38dd 68bc 52c9 47bd 1650 8abd e0bd 8e3b
00000100: 96fc a9bd 08d1 9dbd f886 a43c 5916 80bd
00000110: ca17 8dbd fff4 a3bd 5361 9ebd ac2d a9bc
00000120: 9af0 85bd 3701 72bd 1877 7ebc d0d0 c6bc
00000130: 8e1e a9bd 1032 ff3b 26cb 233d 8dbf 933d
00000140: 8312 49bd 7024 48bc 5ac7 413d 1af4 3f3d
00000150: 6e09 313d 1e1a 053d a281 abbd f9dd 97bd
00000160: 0749 863d 7a10 353d a02b 583b 44ce 81bd
00000170: 90be 1cbd de82 94bd 33d3 3ebd f8e7 733c
00000180: a2e1 59bd 1ae1 e3bc 3a0b 323d 4021 433b

weight f4 [1, 100]
0.087141074 -0.06951481 -0.011210203 0.07010516 0.050792627 0.015412413 -0.03871553 -0.048107505
0.068822645 0.02174668 0.086370416 -0.062740654 -0.039785206 -0.0011154264 0.09532923 -0.0047553033
0.05358138 -0.0033702701 0.08824117 0.082577534 -0.057881534 -0.03659983 -0.058561217 -0.059284605
0.012637451 0.06797906 0.03384865 -0.061066926 0.090534545 -0.0684462 -0.079337195 0.03946627
0.0689685 -0.021796249 -0.08807629 0.023892082 -0.023875214 -0.02311194 -0.06653562 0.06003385
-0.031107463 0.036479063 -0.06238959 -0.08634933 -0.022986606 -0.0786562 -0.05738118 -0.0896662
-0.051441323 0.021672629 0.020631656 -0.05488528 -0.040561642 0.025577866 0.024356976 -0.077363014
0.0069817454 0.056745835 -0.0797046 -0.087217204 -0.09317881 0.08550372 0.07311534 -0.032192312
-0.08733851 0.025945567 0.04131306 -0.045239817 -0.049180258 -0.032006107 -0.026937976 0.090468936
-0.09121239 0.08832144 0.058840774 -0.043193735 -0.088351645 -0.03630598 0.015260838 0.09411857
0.008704506 0.07940399 -0.026239596 -0.07132757 0.0554452 0.02481959 0.018800221 -0.026674472
0.0086484775 0.038873263 -0.03745328 0.070049755 -0.050670683 -0.08044288 0.03573201 0.057236858
-0.01790861 -0.089707434 0.0331909 0.015673973
00000000: 0577 b23d c85d 8ebd 00ab 37bc 4b93 8f3d
00000010: ee0b 503d 5884 7c3c 2d94 1ebd 600c 45bd
00000020: e3f2 8c3d 1826 b23c f9e2 b03d 2c7e 80bd
00000030: d0f5 22bd 8033 92ba f93b c33d 60d2 9bbb
00000040: 2678 5b3d c0df 5cbb c9b7 b43d 691e a93d
00000050: 3015 6dbd b4e9 15bd e3dd 6fbd 6ad4 72bd
00000060: 500d 4f3c 9b38 8b3d e2a4 0a3d 5021 7abd
00000070: 2d6a b93d 852d 8cbd 8a7b a2bd 62a7 213d
00000080: 5b3f 8d3d 0c8e b2bc 5861 b4bd 54b9 c33c
00000090: f495 c3bc 4055 bdbc d443 88bd 0ee6 753d
000000a0: 14d5 febc 126b 153d 3a8c 7fbd ebd7 b0bd
000000b0: 684e bcbc 8016 a1bd 8708 6bbd eaa2 b7bd
000000c0: 23b4 52bd cc8a b13c b803 a93c 63cf 60bd
000000d0: f723 26bd ac88 d13c 4888 c73c 8070 9ebd
000000e0: 20c7 e43b 526e 683d 2a3c a3bd ef9e b2bd
000000f0: 88d4 bebd 931c af3d 7fbd 953d 16dc 03bd
00000100: 88de b2bd cc8b d43c e237 293d 634d 39bd
00000110: 3d71 49bd d618 03bd 08ad dcbc c747 b93d
00000120: 90cd babd dfe1 b43d 0603 713d eaeb 30bd
00000130: b5f1 b4bd 94b5 14bd 9808 7a3c 3dc1 c03d
00000140: 589d 0e3c 8f9e a23d 6cf4 d6bc 3014 92bd
00000150: 821a 633d 7452 cb3c ec02 9a3c 6c84 dabc
00000160: 58b2 0d3c 9239 1f3d 9c68 19bd 3f76 8f3d
00000170: 108c 4fbd 3dbf a4bd ba5b 123d 3271 6a3d
00000180: 14b5 92bc 88b8 b7bd 2ef3 073d b466 803c
