saved models/normal_mlp_num_2_mpnn_8.pth (torch, 54655 bytes, 3 tensors)

weight f4 [100, 128]
000000 da 03 f3 bc 3b db 8a bd c8 75 a2 3c 03 39 9b 3d
       -0.029664923 -0.06780096 0.019831553 0.075792335
000010 6b 65 99 3d 00 f6 be 3b f4 c3 9c bc 51 b8 56 bd
       0.07490047 0.0058276653 -0.019136406 -0.05242187
000020 b8 fe e5 3c 60 01 1d bd 1e 7a 4e 3d 09 5f 93 bd
       0.02807556 -0.03833139 0.05040943 -0.07195861
000030 88 b7 81 3c 24 48 ce bc e6 61 56 3d 3e 6e 62 3d
       0.015834585 -0.025180884 0.052339457 0.055280916
000040 f5 88 a7 3d 8d a4 b3 3d e3 d4 41 bd 3a 32 68 3d
       0.08180419 0.0877162 -0.047322165 0.056688525
000050 f8 5f 3c bc 14 b9 ae 3c 2a 0f 7d bd 00 4a 87 3b
       -0.01149749 0.021328487 -0.06178204 0.0041286945
000060 26 4e 5a bd 78 92 d1 bc c7 ac 76 bd bf 9c 50 bd
       -0.053297184 -0.025582537 -0.060223367 -0.050930735
000070 58 a0 93 bc 7f b2 a4 3d b0 cd dc 3c f8 1d a5 bd
       -0.018020794 0.08041858 0.026953548 -0.08062357
000080 bb bd 9d 3d 80 42 4b 3c 3c b0 c8 bc f2 5f 79 3d
       0.07702204 0.012405992 -0.024498098 0.060882516
000090 2f 58 81 3d 00 77 b8 3b fc 2d ac bc 9d 89 4b bd
       0.06315648 0.0056294203 -0.02101802 -0.049691785
0000a0 13 07 a5 3d aa 38 22 3d 1e 7f 1b bd ae 74 48 3d
       0.0805799 0.03960482 -0.037963025 0.0489394
0000b0 18 73 8d 3c a3 7d 83 3d 60 e4 09 3d c1 5f 8b 3d
       0.017266795 0.06420448 0.03366506 0.06805373
0000c0 72 d1 36 3d 42 f4 54 3d 1c 08 4a bd f8 23 f4 3c
       0.044633336 0.051990755 -0.04932414 0.029802307
0000d0 1f 1d 3a bd 01 f7 5a bd 32 ee 4c bd fd 57 85 bd
       -0.04543793 -0.053458218 -0.05003185 -0.06510923
0000e0 e0 bd 87 bd 06 60 2d 3d 11 3d 3d bd 5d 99 03 bd
       -0.06628013 0.042327903 -0.046200816 -0.03212868
0000f0 a9 5e 92 bd 6b 72 a2 3d 54 0a ac bc 51 35 03 bd
       -0.07146961 0.0793198 -0.021001019 -0.03203327
000100 14 4a a7 bd e3 80 32 bd b0 e6 9b bb 3b 78 46 bd
       -0.08168426 -0.043579947 -0.0047577247 -0.048454504
000110 70 80 76 bd b6 28 5d 3d e0 0a 57 3b b6 7a fb bc
       -0.06018108 0.053993903 0.0032812878 -0.030698162
000120 00 95 98 3a 2f 2a 8b bd ae 12 77 3d 71 eb ab 3d
       0.0011641085 -0.06795155 0.06032055 0.08394516
000130 f6 7b 1e 3d b5 ba ad bd 54 85 c3 3c 67 15 24 bd
       0.038692437 -0.08482877 0.023867287 -0.040059473
000140 58 69 51 bc 2f 3a b4 3d 51 c3 93 3d f1 c4 24 bd
       -0.012781464 0.0880016 0.07214988 -0.04022688
000150 34 f8 8a bd f0 68 97 bc a2 46 40 3d 02 e1 a0 bd
       -0.06785622 -0.018482655 0.04694236 -0.07855417
000160 08 0a 62 3c e0 86 96 bb ab 55 89 bd b0 4e 94 bb
       0.013796337 -0.004593715 -0.06705793 -0.004525982
000170 55 a9 50 bd 3f 6f 16 bd 3f 53 3c bd d2 d0 6f 3d
       -0.050942738 -0.036727186 -0.045977827 0.058548756
000180 88 f5 20 bc 17 c7 91 3d a2 1b 8d bd f6 22 df bc
       -0.009824164 0.071180515 -0.06890036 -0.02723835
000190 e2 4a 9b bd 70 74 4f bd 2d 01 81 3d c0 d1 12 bb
       -0.07582642 -0.050648153 0.062990524 -0.0022402853
0001a0 4a 5c a8 bd 76 78 5e 3d 30 cb a0 3b 4c a9 a9 bc
       -0.08220728 0.0543141 0.0049070343 -0.02071061
0001b0 d8 52 4e bd 4a 92 f3 bc c4 e6 29 bd c0 c6 83 3b
       -0.050371975 -0.029732842 -0.04147984 0.0040214956
0001c0 29 d9 95 bd bf 48 8a 3d 2a 83 64 3d 78 2b af bd
       -0.07316811 0.067521565 0.05578915 -0.08553213
0001d0 7e 63 7a 3d 24 82 c7 3c 14 82 99 bd e6 5a 71 3d
       0.06113004 0.024354048 -0.074955136 0.058924578
0001e0 3d dd 3d bd 0f 6a 88 3d 1b 90 24 bd 8b 5b aa 3d
       -0.046353567 0.06660854 -0.040176492 0.08318242
0001f0 0a e7 3d bd dc 1a 8d 3c 8c 57 95 bd cc 5f 89 bc
       -0.046362914 0.017224722 -0.07292089 -0.016769312
000200 8e 68 11 bd 52 bb 14 3d a0 85 c2 bb 98 66 3e bd
       -0.0355001 0.036311455 -0.0059363395 -0.04648456
000210 05 af 81 3d b6 f2 2a 3d fd 54 3b bd 6e f0 5c 3d
       0.063322105 0.041735373 -0.045735348 0.05394023
000220 fa 20 56 3d 37 1b b1 bd 8a 27 41 3d 16 00 65 3d
       0.052277543 -0.08647769 0.047156848 0.055908285
000230 24 52 62 bd 6f c3 3a bd 8b 1c 08 bd 20 f6 55 3b
       -0.055254117 -0.045596536 -0.033230346 0.0032647923
000240 30 26 88 bd 50 13 c7 3b 70 57 1e bc 33 e0 39 bd
       -0.06647909 0.0060753003 -0.009664401 -0.04537983
000250 28 72 65 3c d0 4e f6 bc c3 a5 8f 3d 7e b2 42 3d
       0.014004268 -0.030066878 0.070140384 0.047533505
000260 e0 d1 fe 3c 45 92 14 bd 13 66 92 bd 3c 50 ce 3c
       0.031105936 -0.036272306 -0.07148375 0.025184743
000270 b1 02 b2 3d c8 61 68 3c eb 89 ac 3d 51 2e a0 3d
       0.086919196 0.014183469 0.08424743 0.07821334
000280 46 27 37 3d b3 22 a4 bd 20 2a 52 3c 70 ef 4d bd
       0.04471519 -0.08014431 0.012827426 -0.050277174
000290 ad bd a4 3d fd 7d 17 bd e0 a7 d1 bb 04 6e 93 3c
       0.0804399 -0.036985386 -0.006398186 0.017996795
0002a0 36 04 73 3d 28 bf 91 bc 76 8b 54 3d 3a 82 91 bd
       0.059330188 -0.017791346 0.051890813 -0.07104917
0002b0 f0 bd 93 bd b0 6b a3 3c 1c b8 9b 3c 50 60 43 3c
       -0.07213962 0.01994881 0.019008689 0.011924818
0002c0 d9 79 62 bd 81 75 85 bd 24 ef 4b bd 4a fb 90 bd
       -0.055291984 -0.06516553 -0.04978861 -0.070791796
0002d0 f6 95 9a bd c0 29 0b bb 3c b3 94 bd a2 28 7f 3d
       -0.07548134 -0.0021234602 -0.07260749 0.06229461
0002e0 60 1b 29 3b 00 76 95 3b 40 28 c0 3a b9 99 a8 3d
       0.002580367 0.004561186 0.0014660433 0.08232445
0002f0 02 75 82 bd b2 39 fd bc 0a b0 66 3d 17 92 36 bd
       -0.06369974 -0.0309113 0.056320228 -0.044572916
000300 9f 33 b2 bd 5f 8e 85 3d c2 76 97 bd 7e f7 0c bd
       -0.08701252 0.06521296 -0.07395698 -0.034415714
000310 30 9c 6f bd 32 bc 00 3d 78 95 28 bc e0 8a 47 bd
       -0.05849856 0.031429477 -0.010289542 -0.048716426
000320 c0 82 d7 bb 91 2c 14 bd f1 40 20 bd c4 c2 a8 3c
       -0.006576866 -0.036175314 -0.039124433 0.020600684
000330 e4 04 8f 3c be ad 4d 3d 25 d8 94 bd f5 18 48 bd
       0.017458387 0.05021452 -0.07267789 -0.048851926
000340 33 4a 84 bd ff 65 82 bd 5e 03 23 3d ca 05 41 3d
       -0.06459465 -0.063671105 0.039798133 0.04712466
000350 03 23 42 bd 3f d5 a1 3d 26 94 49 3d ef 80 8d 3d
       -0.04739667 0.079020016 0.04921355 0.06909358
000360 3e 62 ec bc 94 5b d4 3c f8 c4 30 3c 7c 6f 8c bd
       -0.02885544 0.025922574 0.0107891485 -0.068572015
000370 a0 58 6b bc f8 e5 8a bd 3c 06 96 bd 16 ac a5 bd
       -0.014364392 -0.06782144 -0.07325408 -0.080894634
000380 c1 ab 9c bd 40 e3 16 3c be 2a 95 bd c7 8d 94 3d
       -0.07649947 0.009209454 -0.07283543 0.072536044
000390 0c 72 9c bc 81 d6 03 bd 50 f4 af bb b4 0a 99 bc
       -0.01909735 -0.03218699 -0.0053697005 -0.018681861
0003a0 54 0c b1 bc a0 68 c1 3c ca 82 75 bd 31 59 b4 3d
       -0.021612324 0.02360946 -0.059939183 0.088060744
0003b0 49 1a b3 3d a0 2b 24 3b c0 f5 b2 3c 80 f7 d1 bc
       0.08745248 0.0025050417 0.021845698 -0.025630713
0003c0 f6 1a 15 bd 73 50 ae 3d 68 d6 aa bd f1 f0 9e bd
       -0.036402665 0.08511438 -0.08341676 -0.077608
0003d0 6f 7b 8b bd d8 05 c3 bc bd fe b2 3d 3b cb 94 3d
       -0.068106525 -0.023806497 0.08739994 0.07265326
0003e0 7d 8f b3 3d 2f 9e 28 bd 15 54 8a 3d de bb 19 3d
       0.087676026 -0.04116648 0.067543186 0.03753268
0003f0 22 18 3d 3d 16 5d 31 3d 68 e2 50 3c 11 45 7e bd
       0.046165593 0.043301664 0.012749292 -0.062077586

bias f4 [100]
000000 e8 20 82 bd 68 35 2c 3c a0 fa f4 3c b8 df 5c 3c
       -0.063539326 0.01051078 0.029904664 0.013481073
000010 2e cc 74 bd b7 4c 83 3d a5 2f 8d 3d d0 c9 e2 3b
       -0.059765033 0.064111166 0.06893853 0.0069210306
000020 f4 ef fd 3c cb 00 9f 3d 40 91 c8 ba 98 a4 78 bd
       0.030998208 0.07763823 -0.0015302077 -0.060703844
000030 89 2a b2 3d 04 5c 15 3d e7 44 ab 3d c0 da 0a 3b
       0.08699519 0.036464706 0.083627515 0.0021187514
000040 e0 57 3d 3c b8 77 42 bc 0d d3 9d 3d a0 a5 89 bb
       0.011556596 -0.0118693635 0.0770627 -0.0042006522
000050 22 17 68 bd 40 9c b3 bb 0a 2b 4d bd b0 26 89 3b
       -0.056662686 -0.005481273 -0.050089873 0.00418552
000060 fe 45 47 3d 20 5d 59 bd e6 e9 2c bd c4 ce 08 3d
       0.048650734 -0.053067327 -0.04221525 0.033400312
000070 8b 87 a5 3d a0 a8 0a 3c 50 98 f9 bc ac bf d3 3c
       0.080824934 0.008463055 -0.030468136 0.025848232
000080 e0 36 ac bb e2 f9 3d 3d ec d4 a8 3c b3 1f 0f bd
       -0.005255565 0.046380885 0.020609342 -0.03494234
000090 a0 bd 82 bd e2 1a 84 bd fc c7 9c bd 89 ae 3f bd
       -0.06383824 -0.0645044 -0.076553315 -0.04679731
0000a0 ed ad a3 3d 95 36 ad bd eb 00 ad 3d d3 6a 9c 3d
       0.07992158 -0.08457676 0.08447441 0.076375626
0000b0 2a cb 8c bd 14 7d b6 3c 06 24 42 3d 3c 12 c8 3c
       -0.06874688 0.022276439 0.047397636 0.024422757
0000c0 81 09 90 3d 80 7f 1d bc 15 60 92 3d 02 3c 0c bd
       0.07033063 -0.009612918 0.071472324 -0.034236915
0000d0 70 7b 5c 3c 10 80 6c bc 50 23 a9 bc e6 c0 2b 3d
       0.013457164 -0.014434829 -0.020646721 0.04193201
0000e0 8c 1c 09 bd 04 4a 61 bd a4 cf e5 bc 23 2b ad 3d
       -0.03347449 -0.055002227 -0.028053112 0.08455493
0000f0 dd 3e b1 bd a7 9b 00 bd f2 68 62 3d b8 1c bf 3c
       -0.08654568 -0.03139844 0.055275865 0.023329124
000100 06 12 66 3d b0 1f bd 3c f4 54 ef 3c 12 4c a0 bd
       0.056169532 0.023086399 0.029215313 -0.07827009
000110 3b 74 a2 bd 10 1f 6b bd 00 eb b6 3c c6 bb 54 3d
       -0.079323255 -0.05740267 0.022328854 0.051936887
000120 54 da 91 bc 53 42 87 3d 3d 9d 98 bd 97 c3 44 bd
       -0.017804302 0.06604447 -0.07451866 -0.04803809
000130 cf 04 13 bd 5f 68 2b bd 0a a6 0d 3d 72 09 90 bd
       -0.035893258 -0.041847583 0.034582175 -0.070330516
000140 40 ad 66 bd 60 2d a2 3c c0 7e 67 bb a0 f8 8a bc
       -0.056317568 0.019797027 -0.0035323352 -0.016964257
000150 e8 0e 9c bc 5a 09 33 3d 08 70 b4 bd 38 b5 73 bc
       -0.019050077 0.04371009 -0.08810431 -0.014874749
000160 a4 11 10 bd 36 eb 9c bd b8 19 88 bd 0a 4a 70 3d
       -0.035173073 -0.076620504 -0.066455305 0.05866436
000170 88 f8 af bd 88 bc 61 bc 74 e3 98 bd 40 ab 86 3b
       -0.085923254 -0.0137778595 -0.07465258 0.00410977
000180 17 08 65 bd 51 e5 58 bd df 29 92 3d fb 68 a4 3d
       -0.05591592 -0.05295307 0.071368925 0.08027836

weight f4 [1, 100]
000000 b2 96 4f 3d ca da 12 bd d4 2a eb 3c e8 89 d2 bc
       0.050680824 -0.035853185 0.028706945 -0.025700524
000010 90 55 1f bc 99 50 85 3d 5f 08 9a 3d ae 85 46 3d
       -0.0097249895 0.065095134 0.07521128 0.04846733
000020 01 08 97 3d eb 14 b2 3d f3 32 a9 bd b6 88 09 3d
       0.073745735 0.08695396 -0.08261671 0.033577643
000030 7d 42 64 bd 23 7b 95 3d b2 4b 18 3d bc 86 0b bd
       -0.05572747 0.07298877 0.037181564 -0.03406404
000040 00 4b 03 bd d0 69 1d 3c 94 cd c5 bc 5d cf c0 bd
       -0.032053947 0.009607747 -0.024145879 -0.094145514
000050 14 5a e5 3c 9d f3 a4 bd e0 96 f7 bc e7 ae 97 3d
       0.027997054 -0.08054278 -0.03022331 0.07406407
000060 2e 5a 77 3d b0 fa f3 bb 75 43 c4 3d c0 bd 34 bc
       0.060388736 -0.0074456558 0.09583179 -0.011031568
000070 2d 43 5f bd a0 1b 52 3b 5f 1b af bd c6 f8 23 3d
       -0.054507423 0.0032059923 -0.085501425 0.04003217
000080 f0 41 94 bd e0 ea 83 bd f2 e0 81 bd 03 08 c6 3d
       -0.07239139 -0.06441283 -0.06341733 0.09669497
000090 ba 7d 29 3d 66 34 88 bd 00 5e 8d 39 70 df 8a bd
       0.041379668 -0.06650619 0.0002696365 -0.067808986
0000a0 2e cf a3 bd b5 ef 92 bd dd ec b1 bd d7 08 64 bd
       -0.07998501 -0.07174627 -0.08687756 -0.055672493
0000b0 fa 6c 1b 3d 60 6d f6 bc 26 c0 57 3d 42 97 62 3d
       0.037945725 -0.030081451 0.05267348 0.055320032
0000c0 f3 72 a7 bd 0e b1 96 bd 08 e9 c7 3c 2d 9b bf 3d
       -0.08176222 -0.07357989 0.02440311 0.09355769
0000d0 1e 4e 83 bd 28 d7 61 bc 33 58 53 bd e8 da 69 3c
       -0.06411384 -0.013784207 -0.051597785 0.014273383
0000e0 76 4a 66 3d 00 06 8e ba 6d 92 8c bd bd f8 23 bd
       0.056223355 -0.0010835528 -0.06863866 -0.040032137
0000f0 ed a5 78 bd 54 57 83 3c fa 2d c4 bd 6a bc 4c bd
       -0.060705114 0.016032852 -0.09579082 -0.049984373
000100 f9 d0 8c 3d 8f 09 ab 3d b4 66 ca 3c 5b d3 b7 bd
       0.06875796 0.083514325 0.024707176 -0.0897586
000110 57 2c c4 3d b0 f8 50 3c 12 79 17 3d 43 64 99 bd
       0.0957877 0.012754604 0.036980696 -0.074898265
000120 48 e5 9c bc 06 1d 77 3d 28 31 fe bc 3b 7d ba bd
       -0.019152299 0.060330413 -0.031029299 -0.09105917
000130 e7 10 3c bd f3 92 21 bd b8 c8 cb bd 08 4a c1 3c
       -0.045914557 -0.039446782 -0.099503934 0.023594871
000140 9e 6d 15 3d 0d c7 b2 bd 93 ed 27 bd 86 63 a8 bd
       0.036481492 -0.08729372 -0.040998053 -0.082221076
000150 95 bb a6 bd f4 be f8 3c 26 f3 24 3d b5 14 bb bd
       -0.08141247 0.030364491 0.040270947 -0.09134809
000160 00 8f 32 bd 00 c0 70 b9 7e 81 84 bd bd 29 96 bd
       -0.043593407 -0.00022959709 -0.06470011 -0.0733218
000170 1d f2 82 3d a8 7c af bd 30 c6 61 bc 16 ab 11 3d
       0.06393836 -0.08568698 -0.013780162 0.03556355
000180 f6 26 0b bd 78 8b ea bc cd 44 ac 3d 20 45 81 3b
       -0.033972703 -0.028630957 0.0841156 0.003945008
