saved models/pa_mlp_num_2_mpnn_9.pth (torch, 54567 bytes, 3 tensors)

weight f4 [100, 128]
000000 92 f5 3d 3d 96 2d 21 3d c3 0b 90 3d 60 84 bc 3c
       0.046376772 0.039350115 0.07033493 0.02301234
000010 c6 37 9f bd 3f 82 9b 3d 60 c1 eb 3c ac 7f e8 bc
       -0.0777431 0.07593202 0.028778732 -0.028381191
000020 80 4c 14 bb 58 ba 16 bc 90 a3 e0 bb b3 b2 82 3d
       -0.0022628605 -0.009199701 -0.0068554357 0.063817404
000030 93 f7 90 3d e4 50 87 bd f2 76 63 3d 94 2a 9c bc
       0.07078471 -0.066072255 0.055533357 -0.019063272
000040 58 99 5f bd c1 f6 95 bd 62 2e 46 3d e0 75 f7 bc
       -0.0545896 -0.07322455 0.048384078 -0.030207574
000050 b2 a4 10 bd b9 94 0b bd aa bf 94 bd f8 24 27 bc
       -0.035313316 -0.03407738 -0.072631195 -0.010201685
000060 af 2e ac 3d 89 99 8d bd d4 60 93 bc 6c a1 c4 bc
       0.08407342 -0.0691405 -0.017990507 -0.024002753
000070 c0 f8 87 bc 99 cc 37 bd bc 13 af bd c4 b5 8b bd
       -0.016598105 -0.044872854 -0.08548686 -0.068217784
000080 d0 0b 26 bc d6 a2 0f 3d 83 6d ac bd ec a3 0e bd
       -0.010134652 0.0350674 -0.08419325 -0.034824297
000090 1a 2e 39 3d 24 fd ac 3c 0e 89 8b bd e8 d3 a9 bc
       0.04520998 0.0211168 -0.068132505 -0.020730928
0000a0 d6 28 35 bd b0 31 9c bc 99 e3 84 bd 20 0e f6 3c
       -0.044228397 -0.019066662 -0.06488723 0.030036032
0000b0 32 b5 60 3d 04 bd ab bd b8 b3 a0 3c 64 d8 30 bd
       0.0548603 -0.08385661 0.019616947 -0.043175116
0000c0 00 13 40 bb c6 14 57 3d a9 5d 63 bd 14 54 8a 3c
       -0.00293082 0.052510045 -0.055509243 0.016885795
0000d0 fe 06 aa bd a1 0d a8 3d 3a f4 16 bd 00 92 cf bb
       -0.08302115 0.082057245 -0.036854006 -0.006334543
0000e0 00 65 d8 3c e8 4c 03 3c 40 95 f2 3a bf c6 5c bd
       0.026415348 0.008013941 0.0018507615 -0.053900477
0000f0 07 68 a7 3d a2 ae 28 bd 60 a0 67 3b 98 ed f3 3c
       0.081741385 -0.041182168 0.0035343394 0.02977638
000100 77 75 8e 3d 80 3c d8 bb 36 81 5c 3d c8 5a bc 3c
       0.069559984 -0.006599009 0.053834163 0.022992507
000110 dc 1d f0 3c 5a c9 65 3d a8 02 ab 3c 4b 2b 9d bd
       0.029311113 0.056100227 0.02087529 -0.07674273
000120 80 44 58 3c ac c1 87 bd 68 3c 02 bc d6 d3 1c 3d
       0.013199925 -0.06628737 -0.007948972 0.03828796
000130 94 f8 a2 3c d8 5a 21 3c 02 a5 a9 bd 40 67 9a ba
       0.019893922 0.009848319 -0.08283426 -0.0011780038
000140 5f 02 95 bd 41 13 2f bd 58 37 fe 3c fe c5 1c 3d
       -0.07275843 -0.04274297 0.03103225 0.038274758
000150 ca de 14 bd 00 6d b8 bb d4 0a df bc f0 02 9d 3c
       -0.03634528 -0.005628228 -0.027226843 0.01916644
000160 46 9a 3e 3d 10 e5 4d bd 91 0d 96 3d c6 2d 01 3d
       0.046533845 -0.05026728 0.07326806 0.031537794
000170 dc 95 da 3c 56 4b 47 3d a2 7d 07 bd 00 48 24 3b
       0.026682787 0.04865583 -0.033078797 0.002506733
000180 a0 bc 03 bb 48 8d 18 bc 49 0a 9d 3d 50 45 d9 3c
       -0.0020101443 -0.009311028 0.07667977 0.026522309
000190 58 4d 11 bc 74 8c 10 3d 50 69 83 3c ce b1 65 3d
       -0.008868538 0.035290197 0.016041428 0.05607777
0001a0 60 fa e4 bc e8 21 50 3c 2c f7 e1 3c 28 cd 10 3c
       -0.02795142 0.012703396 0.027583681 0.008837976
0001b0 6c f7 fc 3c 32 ff 2c 3d 06 ed 62 3d b0 14 25 bc
       0.030879699 0.04223556 0.055401824 -0.010075733
0001c0 ca e2 61 3d 20 9f 39 bc 50 10 ad 3c c8 6f 34 3c
       0.055147924 -0.011329442 0.021125942 0.011012979
0001d0 40 a0 af bc e0 dc 0c bb 38 ef 8f 3c b8 fa 20 3c
       -0.021438718 -0.0021493956 0.017570123 0.009825401
0001e0 23 f8 98 3d 41 e3 ae 3d 1a c8 5c 3d cb 5e a7 3d
       0.07469203 0.08539439 0.05390177 0.08172377
0001f0 30 c9 02 3d 43 6b 98 bd cc a4 d6 3c 98 70 1d 3c
       0.03193015 -0.074423335 0.026201628 0.009609364
000200 a8 48 f1 3c b9 7f 94 3d 7d d0 5a bd 4e 20 41 3d
       0.02945359 0.07250924 -0.053421486 0.04714995
000210 34 c5 e2 bc d2 dc 6e 3d 70 2b 06 bc 86 7e 5f 3d
       -0.027681924 0.05831606 -0.008189067 0.05456402
000220 22 31 90 bd f5 bb 94 3d 8d b0 a7 3d 58 2c 0f bc
       -0.07040621 0.072624125 0.08187971 -0.0087386
000230 80 d1 ac bd 90 d1 d7 3c 74 cf a2 bc f0 8e e2 3b
       -0.084383965 0.026345044 -0.019874312 0.006914012
000240 ca 84 1a 3d 40 95 a2 3a f2 2c 40 3d 52 44 01 bd
       0.037724294 0.0012404099 0.046917863 -0.031559296
000250 f1 a2 b1 3d 0c ea 94 bd 2e e8 9b bd 80 01 52 bc
       0.08673657 -0.072712034 -0.07612644 -0.01281774
000260 40 7a 79 3b 2a 8b 2f bd de 12 2e 3d 25 99 a5 3d
       0.0038067251 -0.042857327 0.042498462 0.080858506
000270 20 c1 25 3c 4e 47 16 bd 50 79 08 3c 3e e8 6a 3d
       0.010116845 -0.036689095 0.008329704 0.05735039
000280 50 b2 83 3b 1e 2b 3e 3d 80 09 b3 ba fe 46 75 3d
       0.0040190592 0.04642784 -0.0013659447 0.059882157
000290 b1 6d 26 bd 4e 98 0d bd b3 39 90 3d 12 29 81 bd
       -0.040631954 -0.034569077 0.07042255 -0.06306662
0002a0 dc 49 80 bc 16 cb 54 bd d0 8f 0e bd 59 91 a8 3d
       -0.015660219 -0.05195149 -0.03480512 0.08230848
0002b0 e7 86 74 bd c8 b9 3c 3c ee 35 a3 bd c9 af 83 3d
       -0.059698965 0.011518903 -0.07969271 0.06430013
0002c0 42 6b 3b 3d 80 5a 41 3b a3 1b 6f bd 58 b7 b4 bc
       0.045756586 0.0029503405 -0.058375966 -0.022060081
0002d0 a2 7d 72 bd a0 90 ba 3c c0 04 69 3b 54 ff a7 bd
       -0.059201844 0.02277404 0.003555581 -0.08202997
0002e0 e5 17 ad 3d bb eb 61 bd 7b e6 9e 3d 36 6e 5e 3d
       0.08451823 -0.05515645 0.077588044 0.054304324
0002f0 e2 f2 2b 3d 7c ed a0 3c f8 86 0e 3c b1 c6 36 bd
       0.041979678 0.019644491 0.008699171 -0.04462308
000300 0b 83 ab bd 25 3c 14 bd b7 a3 55 bd 58 12 11 3d
       -0.08374604 -0.03619017 -0.052158084 0.035417885
000310 d8 04 b0 3c 73 43 2b bd cb 55 a3 bd 51 83 b2 bd
       0.021486685 -0.04181237 -0.07975348 -0.08716453
000320 78 b4 a7 bc 1d 5b 66 bd 9e fa 76 3d 4c f1 81 bd
       -0.020471796 -0.056239236 0.0602976 -0.06344852
000330 94 29 98 bc 54 ac 91 bc 10 b9 91 bd 72 d3 5d 3d
       -0.018574513 -0.017782368 -0.07115376 0.054156728
000340 44 94 f5 3c 0e 47 52 3d 80 9f db 3b 00 5b 71 bd
       0.029977925 0.051337294 0.0067023635 -0.058924675
000350 78 29 43 bc 6c fc df 3c 2b c1 5e bd 80 d7 ef 3a
       -0.011911742 0.027342044 -0.054383438 0.0018298477
000360 12 e2 1b 3d d6 d4 90 bd 2b 93 90 bd 4e 0d 54 3d
       0.038057394 -0.07071845 -0.0705932 0.0517705
000370 68 fe 26 bd dc 57 a4 bc ac 67 58 bd f0 c9 1c bc
       -0.040769964 -0.020061426 -0.052833244 -0.00956963
000380 2d f8 85 bd af 89 38 bd 40 5e ff 3a 20 39 d5 3c
       -0.065414764 -0.04505318 0.0019483045 0.026028216
000390 48 01 97 3c 38 11 15 3c 77 38 a9 bd 52 c6 f8 bc
       0.018433228 0.009098344 -0.08262723 -0.030368004
0003a0 e8 c1 03 bc 00 69 d0 39 e0 b0 ae 3b a0 1b 09 bc
       -0.008041836 0.00039751083 0.0053311437 -0.008368403
0003b0 fa df a1 bd 48 6a 7c bc 85 bb 32 bd da 36 68 bd
       -0.07904048 -0.015406199 -0.043635864 -0.056692936
0003c0 55 04 50 bd 8d d7 8a bd 2f b4 a5 3d 92 d7 7d 3d
       -0.05078538 -0.06779394 0.08091008 0.061973162
0003d0 f5 41 87 bd 42 a9 23 bd 90 d2 d8 3b 10 bb ee bc
       -0.06604377 -0.03995634 0.006616898 -0.029141933
0003e0 58 c6 20 3c 50 89 93 3b c0 d8 56 3b 36 f9 09 bd
       0.009812914 0.004502453 0.0032783002 -0.03368493
0003f0 b6 f8 27 3d 00 75 e7 39 87 67 90 3d 7e a2 7b 3d
       0.041008674 0.00044146925 0.07050996 0.06143426

bias f4 [100]
000000 45 7c b2 3d 06 6a 96 bd 11 e0 ad 3d 1f dc 20 bd
       0.08715109 -0.07344441 0.08490003 -0.039272424
000010 99 ef a4 3d 60 e2 0f bc 78 ab 71 bd 64 9a e4 bc
       0.08053512 -0.008781999 -0.059001416 -0.02790565
000020 c9 a5 15 bd 20 9c 9e bd be 0a 7c 3d bf 11 a9 bd
       -0.03653506 -0.07744622 0.061533682 -0.08255338
000030 90 ab a2 3b 78 b4 34 bc a6 c6 25 bd 44 2a 80 bc
       0.0049642995 -0.011029355 -0.04047265 -0.015645154
000040 1b 7b a6 bd 48 82 1f 3c b0 d2 3b bc 20 be 52 bc
       -0.08128949 0.009735651 -0.011463806 -0.012862712
000050 7b 05 96 3d ab 03 99 3d 88 20 01 3c c0 07 94 bd
       0.07325264 0.07471403 0.007881291 -0.07228041
000060 28 ed 2d bc 04 40 e2 3c a5 fb a3 3d 24 0c f6 bc
       -0.0106156245 0.027618416 0.08006982 -0.030035086
000070 7d a7 5c bd 89 06 9e bd 56 e3 45 3d c0 18 3b 3c
       -0.053870667 -0.0771609 0.048312508 0.011419475
000080 06 b6 85 bd 9e 64 28 3d e8 26 43 bd 42 d5 23 3d
       -0.06528859 0.04111158 -0.047644526 0.0399983
000090 73 75 84 bd 4c 17 84 bc 8e be 8a bd 54 6d 81 bc
       -0.06467714 -0.01612439 -0.06774627 -0.015799202
0000a0 0e 52 69 3d 9c 53 a1 bd a8 9c 81 3c 10 b6 50 3c
       0.05696302 -0.07877275 0.01582177 0.01273872
0000b0 23 71 37 bd 23 14 a6 bd 80 61 50 3a ae 70 72 3d
       -0.04478563 -0.081093095 0.0007949099 0.05918949
0000c0 fa 4a 74 3d ac 5d 83 3c 2e cd 32 3d 92 9f ef bc
       0.059641816 0.016035877 0.043652706 -0.029250894
0000d0 a8 eb 4d 3c 04 ab d2 3c 10 1e ba bb d8 01 e5 bc
       0.012568392 0.025716312 -0.0056798533 -0.02795498
0000e0 30 3f cc bb 48 12 79 3c ae 9c 00 bd 97 b3 a1 3d
       -0.0062331185 0.0152021125 -0.03139942 0.07895582
0000f0 52 22 9f bd ee ba 0f bd be c4 64 3d 75 73 83 3d
       -0.07770218 -0.03509038 0.05585169 0.06418506
000100 6b e5 a5 3d 3a 31 10 3d f0 2e c9 bc 49 c8 91 3d
       0.08100399 0.035203196 -0.024558514 0.071182795
000110 08 21 93 3c f6 59 72 3d a3 72 84 3d fe 46 57 3d
       0.017960086 0.059167825 0.06467178 0.052557938
000120 16 50 2e 3d a1 f0 92 3d 91 58 9d 3d 9e d6 72 3d
       0.042556845 0.071748026 0.07682908 0.059286706
000130 d0 9b bf 3b 2d 6d 38 bd c0 71 f9 bb 41 12 af bd
       0.0058474317 -0.045025993 -0.007612437 -0.085484035
000140 e5 4f aa bd c2 b6 08 3d 86 7f a8 bd c8 cc de 3c
       -0.0831602 0.033377416 -0.08227448 0.027197257
000150 5a 33 74 3d 82 e6 d9 bc 2c f8 05 3d 56 ba 5e 3d
       0.059619285 -0.026599173 0.03270738 0.054376923
000160 de 2b 88 bd 91 76 30 bd 95 93 b4 3d 70 72 4c 3c
       -0.06648992 -0.043081824 0.088172115 0.012478456
000170 ab be 6b bd ec b9 2d bd 0c 04 02 3d fb b0 98 3d
       -0.057554882 -0.042413637 0.03174214 0.07455631
000180 4a d3 6a 3d 98 64 58 3c 51 60 a0 3d 10 1b 9e bd
       0.057330407 0.013207577 0.07830871 -0.077200055

weight f4 [1, 100]
000000 71 cc c5 3d 04 7f e0 3c 90 70 15 bc 6f 78 b2 3d
       0.09658135 0.027404316 -0.009121075 0.08714377
000010 ce a2 7c 3d 8c b8 c4 bc 24 3b 8b bd e1 04 ab 3d
       0.0616787 -0.02401378 -0.067983896 0.0835054
000020 63 02 4e bd 7e 8d 19 3d fa e7 7d 3d 3f 06 ca 3d
       -0.050295245 0.037488453 0.06198881 0.098644726
000030 d2 76 02 3d b0 33 3d bc 80 84 b5 3b 10 14 1a 3c
       0.031851597 -0.011547968 0.005539477 0.009404197
000040 93 56 71 bd 9b 28 ca 3d 5d e3 4f bd 43 6a 6c bd
       -0.058920454 0.09871026 -0.05075394 -0.057718527
000050 80 7a 97 3a 06 a4 1e 3d 4a 0c 55 3d e0 95 f2 3b
       0.0011556894 0.038730644 0.052013673 0.0074031204
000060 d2 58 b1 bd 7f 9f c8 bd 18 87 be bc 8c 0a e5 3c
       -0.08659519 -0.097960465 -0.023257777 0.02795913
000070 f0 7f 33 bd e5 91 ab 3d 60 0c 4f 3b 62 01 48 3d
       -0.043823183 0.083774365 0.003159307 0.048829444
000080 40 59 bc 3c cd a1 c4 3d ea 02 37 bd 3b 7f a5 3d
       0.022991776 0.096011735 -0.044680513 0.08080908
000090 ed d1 bd bd 50 9b a5 3b 04 ea f1 3c bb 5f 97 3d
       -0.09268556 0.005053915 0.029530533 0.07391306
0000a0 ea b5 15 3d 18 ee c7 bc c8 73 c1 3c ab ca 8e bd
       0.03655044 -0.024405524 0.02361478 -0.069722496
0000b0 9d 32 50 bd 20 3a a2 bc a1 9e 9f 3d e0 cd ba 3c
       -0.05082952 -0.019803107 0.07793928 0.022803247
0000c0 a0 26 c0 bb e0 f9 fc bb c9 a7 c9 3d 47 82 a6 3d
       -0.0058639795 -0.007720217 0.098464556 0.08130317
0000d0 98 bd 41 3c b7 00 b3 3d 2a 92 9a bd 7a 4b 12 bd
       0.011824988 0.08740371 -0.0754741 -0.03571651
0000e0 00 0d 93 39 e1 17 aa 3d 6a 78 58 3d 58 4d 0a 3c
       0.0002804771 0.08305336 0.05284921 0.008441292
0000f0 e5 88 b3 bd 8e 93 3f 3d d4 13 b8 bc b0 89 a1 3b
       -0.08766345 0.04677158 -0.022470392 0.0049297437
000100 c6 9c 07 bd 76 ee 4c 3d 97 ca 1e bd 5c 5b e0 3c
       -0.033108495 0.0500321 -0.038767423 0.027387314
000110 c0 99 6e 3c 08 f7 b7 bd e4 f3 ce 3c 99 2b 8c 3d
       0.014563024 -0.08982664 0.02526278 0.06844253
000120 00 72 27 bd c7 bd 2a bd ee 39 72 3d 0a f8 64 bd
       -0.040880203 -0.041684892 0.059137277 -0.05590061
000130 13 19 8d bd a3 fb 57 bd 5e a2 5a 3d 8b 3b ae 3d
       -0.06889548 -0.052730214 0.0533775 0.08507451
000140 40 14 70 bc 40 22 15 3b 00 e6 93 bd 4a c9 0a 3d
       -0.0146532655 0.002275601 -0.072216034 0.03388337
000150 c0 5a 93 bc e4 49 e7 3c ad 2f 65 bd d8 ab f7 bc
       -0.017987609 0.028233476 -0.05595367 -0.030233309
000160 80 f0 17 bd 22 2e 26 3d 50 24 48 bd 80 b7 a4 ba
       -0.037094593 0.04057134 -0.048862755 -0.0012566894
000170 4b 9a 9d 3d 21 6f 8f 3d 43 7b bd bd 1e 90 1f 3d
       0.07695445 0.07003618 -0.09252026 0.0389558
000180 c0 9f 47 bb 76 55 12 3d 2a 3f 5c 3d c8 94 b0 3c
       -0.0030460209 0.035726033 0.053771175 0.02155532
