saved models/r2_mlp_num_2_mpnn_5.pth (torch, 54567 bytes, 3 tensors)

weight f4 [100, 128]
-0.025182784 0.062465675 0.06764055 -0.0009195879 0.07665848 0.042084835 -0.045838144 -0.047990814
0.05017496 0.056170322 0.06981007 -0.04817177 0.034703694 -0.03904052 0.0010313243 0.0715955
-0.033697564 0.054504223 -0.06083729 0.035624854 -0.032454886 0.03327208 0.005254805 0.08312481
-0.027683925 -0.0825908 -0.014376491 0.048708387 0.048475824 0.036080495 -0.07375979 0.033006042
-0.08238605 0.08415019 0.012577534 0.01265984 0.014243156 0.06450371 -0.07122139 0.0631687
-0.05039188 -0.025034793 0.07128803 -0.01686076 0.03892932 -0.08756668 -0.030581627 -0.056221515
-0.07965553 -0.04250911 -0.061060622 0.024639435 0.0045690835 -0.0019825846 0.03830988 0.02583155
-0.006833352 -0.0036464632 -0.04133259 0.03194771 -0.0017856136 -0.015549205 0.023628041 0.018084697
0.035774842 -0.029193193 0.041908644 0.078940995 0.028033756 0.0752425 -0.08115363 0.04547114
0.07465676 -0.051506355 0.08494187 0.03766129 -0.018183507 0.077993564 0.029968686 0.040728368
0.0014244989 0.08379764 -0.06942941 0.056719415 -0.079135925 0.007618621 0.017795376 0.044857763
0.060945146 0.06460824 -0.030260287 0.07054158 0.03681124 0.006184779 0.047867678 0.012144856
-0.040355194 -0.025624216 0.013643399 0.07426881 -0.012043767 0.008325383 -0.06343755 -0.05769641
0.00029008836 0.0325106 0.017113738 -0.042933498 -0.062250018 -0.07081874 -0.0012360737 -0.08730149
-0.08756073 -0.08519706 -0.035726145 -0.0027535483 -0.026289318 -0.02579052 -0.041640602 0.007970557
-0.077836335 -0.028208263 0.040996812 -0.0054874495 -0.0084980875 -0.032711506 0.067806445 -0.06461637
0.06696444 0.013578281 -0.024971515 0.035878137 0.03156919 -0.011783503 0.02827964 0.07039551
0.03839787 -0.011686057 -0.0767781 -0.06852375 -0.025779225 -0.05127806 -0.028301924 0.066760726
-0.07913932 0.07030348 -0.08411152 0.04697419 0.0036433563 0.058703996 -0.010684513 0.008797869
0.045799546 0.06615981 0.04303781 0.07568518 0.035952754 0.002635695 -0.0791462 0.07335832
-0.08764496 -0.04316558 -0.059072644 0.04634113 -0.055513743 0.041417293 0.042820774 -0.08070277
0.08396659 -0.006009668 -0.04131233 0.088197775 -0.040929824 0.035394914 0.01667419 0.058218814
0.08377934 -0.08600449 0.029491529 0.012080371 0.0065204427 0.07415073 0.07959571 -0.044833656
0.010890409 -0.015555888 -0.020147793 0.0775317 0.048009716 -0.014823191 0.065182336 -0.08083297
-0.07944277 -0.04249515 0.008532882 0.0024545938 0.04362128 0.0030237287 -0.042133857 0.047452293
-0.0806756 -0.0699721 -0.020232677 0.08079433 -0.045742173 0.013226405 -0.05954046 -0.06896042
0.02100622 -0.055958044 0.049953915 0.06314091 -0.00950329 -0.03330248 0.025886416 -0.0140493065
0.04293444 0.05610416 -0.018187232 0.009401865 0.06793205 0.010305166 -0.010178819 0.028373465
-0.020577684 -0.022608802 -0.062963955 -0.056722198 -0.00948476 -0.0047774166 0.02295018 0.0023062676
-0.001356341 0.06606681 0.053589024 -0.026027713 0.026895083 0.06810164 -0.0499563 -0.07162385
0.013109654 0.039102294 0.064011775 -0.0300177 0.06876352 -0.06615486 0.042929016 0.022998959
0.012730554 0.034670755 -0.012653202 -0.009363368 0.027715065 -0.05106705 0.05162505 -0.028847009
00000000: 204c cebc 02dc 7f3d 2187 8a3d 8010 71ba
00000010: 1fff 9c3d 2661 2c3d c7c0 3bbd 0492 44bd
00000020: 4284 4d3d da12 663d 95f8 8e3d c34f 45bd
00000030: 7625 0e3d f4e8 1fbd 802d 873a a9a0 923d
00000040: 7506 0abd d23f 5f3d 8630 79bd 5eeb 113d
00000050: 6aef 04bd 4e48 083d 8030 ac3b 573d aa3d
00000060: 66c9 e2bc 5e25 a9bd 608b 6bbc 7282 473d
00000070: 968e 463d 24c9 133d 5f0f 97bd 5831 073d
00000080: 04ba a8bd ef56 ac3d 0012 4e3c 386b 4f3c
00000090: 205c 693c 851a 843d 85dc 91bd 975e 813d
000000a0: b767 4ebd c415 cdbc 75ff 913d 941f 8abc
000000b0: 5a74 1f3d 2956 b3bd 5286 fabc 8848 66bd
000000c0: 7022 a3bd 081e 2ebd b41a 7abd a4d8 c93c
000000d0: 40b8 953b 40ee 01bb d2ea 1c3d b09c d33c
000000e0: 50ea dfbb 80f9 6ebb 5d4c 29bd 9adb 023d
000000f0: 400b eaba 18c2 7ebc 988f c13c 5c26 943c
00000100: a488 123d 9026 efbc 66a8 2b3d d1ab a13d
00000110: 0ca7 e53c bd18 9a3d e033 a6bd f23f 3a3d
00000120: a5e5 983d 54f8 52bd 01f6 ad3d ba42 1a3d
00000130: 94f5 94bc 17bb 9f3d e480 f53c cad2 263d
00000140: 40b6 ba3a 199e ab3d 0231 8ebd 9e52 683d
00000150: 0412 a2bd a0a5 f93b 9cc7 913c c6bc 373d
00000160: 9ea1 793d 5351 843d 6ce4 f7bc 1b78 903d
00000170: 62c7 163d b0a9 ca3b e610 443d 38fb 463c
00000180: 7d4b 25bd e0e9 d1bc 9088 5f3c 3f1a 983d
00000190: 3853 45bc 3067 083c 8ceb 81bd 1253 6cbd
000001a0: 0017 9839 d629 053d 1c32 8c3c 09db 2fbd
000001b0: e0f9 7ebd 6a09 91bd c003 a2ba 20cb b2bd
000001c0: 0a53 b3bd cc7b aebd 9455 12bd e074 34bb
000001d0: b25c d7bc a446 d3bc 568f 2abd f096 023c
000001e0: a868 9fbd 0415 e7bc 46ec 273d 10d0 b3bb
000001f0: 903b 0bbc 80fc 05bd 1bde 8a3d 9655 84bd
00000200: a724 893d 7077 5e3c 1091 ccbc f4f4 123d
00000210: b24e 013d 980f 41bc b4aa e73c 852b 903d
00000220: 1647 1d3d e076 3fbc d63d 9dbd 2e56 8cbd
00000230: f42e d3bc f108 52bd 70d9 e7bc d9b9 883d
00000240: cc13 a2bd 45fb 8f3d a942 acbd 0268 403d
00000250: 60c5 6e3b 9a73 703d 180e 2fbc f024 103c
00000260: 4e98 3b3d cb7e 873d 6a48 303d d500 9b3d
00000270: 3243 133d a0bb 2c3b 6717 a2bd e33c 963d
00000280: 337f b3bd 64ce 30bd 28f6 71bd 32d0 3d3d
00000290: 6162 63bd 2ea5 293d d664 2f3d 7e47 a5bd
000002a0: adf6 ab3d c0ec c4bb 1e37 29bd 09a1 b43d
000002b0: 08a6 27bd 42fa 103d 5098 883c da76 6e3d
000002c0: 8194 ab3d 1f23 b0bd 3898 f13c c0ec 453c
000002d0: 70a9 d53b 57dc 973d 1303 a33d 7fa3 37bd
000002e0: b06d 323c 20de 7ebc fc0c a5bc f1c8 9e3d
000002f0: d6a5 443d f8dc 72bc 517e 853d c28b a5bd
00000300: e4b2 a2bd 650f 2ebd 80cd 0b3c 40dd 203b
00000310: 3aac 323d c029 463b 8d94 2cbd 565d 423d
00000320: 4039 a5bd 884d 8fbd 00bf a5bc 7f77 a53d
00000330: 255c 3bbd 90b3 583c b3e0 73bd 1f3b 8dbd
00000340: 3c15 ac3c 4334 65bd 7a9c 4c3d 0550 813d
00000350: b0b3 1bbc 2e68 08bd c00f d43c 102f 66bc
00000360: 06dc 2f3d 7acd 653d 64fd 94bc 480a 1a3c
00000370: f51f 8b3d 00d7 283c 10c5 26bc 786f e83c
00000380: 8892 a8bc 1836 b9bc 3ff3 80bd 8955 68bd
00000390: f865 1bbc e08b 9cbb 0402 bc3c c024 173b
000003a0: 40c7 b1ba 094e 873d 2a80 5b3d 1238 d5bc
000003b0: 1453 dc3c df78 8b3d fa9e 4cbd 86af 92bd
000003c0: e0c9 563c ba29 203d 9b18 833d aee7 f5bc
000003d0: e3d3 8c3d 337c 87bd 56d6 2f3d 5068 bc3c
000003e0: d093 503c ec02 0e3d 604f 4fbc d068 19bc
000003f0: b40a e33c af2b 51bd ca74 533d 9050 ecbc

bias f4 [100]
0.02931545 0.0056949034 0.06566843 0.019403026 -0.01327049 -0.023369573 -0.0734544 0.051416777
-0.07181746 -0.028495956 -0.03478999 -0.0066518784 -0.02490785 0.04183521 -0.011111312 0.0013347492
0.01462879 0.07170867 -0.07618384 -0.049931116 0.039253913 -0.068404704 0.067242675 -0.008911476
0.048840187 -0.07527097 -0.05156529 0.073700406 0.031775117 0.024894439 0.04830443 -0.06755321
0.013562992 0.014444776 0.054087095 -0.035195198 -0.007996701 0.027912848 0.07826888 0.06621767
0.01712139 -0.05058433 -0.026302468 -0.064692974 -0.06079821 -0.04017157 -0.06277409 0.022198431
0.05450397 -0.016756356 -0.048609015 -0.07657586 -0.015068032 0.037153773 -0.044755526 0.08105343
0.08402444 0.008207664 0.015595242 -0.036351718 -0.023398936 0.016791992 0.07501323 0.02662313
-0.0008051917 0.08341239 0.08603329 0.043079786 -0.05962936 0.03211306 -0.04508973 0.022787534
0.016677856 0.011550903 -0.08610248 -0.050642315 0.07466643 -0.06497498 -0.0128917545 0.03280595
0.014767878 0.070666395 -0.05423839 0.08821338 0.0040105656 -0.044851527 0.064638965 -0.05321149
0.06719416 -0.046715282 0.030082114 0.062141903 0.014349662 0.068958126 0.051002897 0.063093565
0.06307305 0.08212482 -0.062471725 0.06334368
00000000: f426 f03c 509c ba3b 2b7d 863d 18f3 9e3c
00000010: 786c 59bc 8c71 bfbc 436f 96bd 669a 523d
00000020: 0815 93bd 5a70 e9bc f37f 0ebd 00f8 d9bb
00000030: 8c0b ccbc 665b 2b3d 380c 36bc c0f2 ae3a
00000040: 98ad 6f3c ffdb 923d 4606 9cbd 9284 4cbd
00000050: b6c8 203d c417 8cbd 87b6 893d 7001 12bc
00000060: a60c 483d ab27 9abd 2036 53bd 3df0 963d
00000070: a026 023d 6cef cb3c deda 453d 5659 8abd
00000080: 5037 5e3c c8a9 6c3c 6e8a 5d3d d728 10bd
00000090: 9804 03bc 7ca9 e43c 6f4b a03d 219d 873d
000000a0: 2842 8c3c 8431 4fbd 4678 d7bc c07d 84bd
000000b0: 8b07 79bd f28a 24bd b48f 80bd 7cd9 b53c
000000c0: 8e3f 5f3d a044 89bc 3f1a 47bd ced3 9cbd
000000d0: e8df 76bc 8e2e 183d 9251 37bd 57ff a53d
000000e0: 0115 ac3d 7079 063c 3083 7f3c 8ae5 14bd
000000f0: 20af bfbc 5c8f 893c 89a0 993d c018 da3c
00000100: 8013 53ba 1dd4 aa3d 3932 b03d 6e74 303d
00000110: ea3d 74bd fc88 033d 02b0 38bd ecac ba3c
00000120: 00a0 883c 0040 3d3c 7f56 b0bd 516e 4fbd
00000130: b7ea 983d 9a11 85bd f037 53bc 885f 063d
00000140: f8f4 713c 8bb9 903d 1329 5ebd 37a9 b43d
00000150: 106b 833b 3cb6 37bd 6f61 843d 4bf4 59bd
00000160: 179d 893d 8658 3fbd c46e f63c 8288 7e3d
00000170: d81a 6b3c eb39 8d3d 6ae8 503d 3337 813d
00000180: 712c 813d 0f31 a83d 5ae2 7fbd 55ba 813d

weight f4 [1, 100]
0.034645207 -0.077014804 -0.06325178 -0.009534098 -0.07925429 0.01940874 0.04557187 0.0962007
-0.048125386 0.04088407 -0.091098666 0.012291826 -0.011207677 -0.091774836 -0.07901998 -0.016706929
-0.07748028 0.09306852 0.024803713 0.047400974 0.06834922 0.010158017 -0.03880508 0.042354666
0.09939309 0.016775414 0.040512793 -0.091856934 0.03670398 0.047662742 0.04785856 -0.0061447993
-0.0979507 -0.050675083 -0.008044146 0.017608143 0.033405937 0.048225977 0.08636577 0.08770708
0.010215655 -0.054512512 -0.02088704 0.041181408 0.015332423 0.015265569 -0.042606223 0.093300916
0.0335434 0.07642559 0.027674563 -0.04250405 0.010039642 -0.023795024 -0.029725865 0.060738824
-0.093529105 0.08032896 0.032898404 -0.09637984 -0.043671846 -0.001254715 0.05042457 -0.06590912
0.087330826 0.06267256 0.013490364 0.094530396 -0.0899958 -0.025696196 -0.09834945 -0.02132734
-0.06416999 -0.054626107 0.06452603 -0.099626854 -0.066818394 -0.088791884 0.014199212 0.043583162
-0.057696234 0.033355884 -0.008945167 -0.08282844 0.055370666 0.07172852 0.00030075014 0.015115932
-0.029827334 -0.04124396 0.06793613 0.09285692 0.09256121 0.004793808 -0.029994532 0.04178185
-0.079857066 0.08995218 0.07120866 -0.025698103
00000000: 22e8 0d3d f0b9 9dbd 268a 81bd e834 1cbc
00000010: 1350 a2bd 14ff 9e3c 92a9 3a3d df04 c53d
00000020: 201f 45bd 0e76 273d f091 babd a863 493c
00000030: 68a0 37bc 72f4 bbbd 3ad5 a1bd f8dc 88bc
00000040: fbad 9ebd b59a be3d 2831 cb3c 8627 423d
00000050: adfa 8b3d d06d 263c 13f2 1ebd 167c 2d3d
00000060: 9b8e cb3d 986c 893c bef0 253d 7d1f bcbd
00000070: ea56 163d 023a 433d 5607 443d 505a c9bb
00000080: 609a c8bd ad90 4fbd 98cb 03bc f43e 903c
00000090: aad4 083d 9a88 453d 89e0 b03d c59f b33d
000000a0: 905f 273c 8348 5fbd 4c1b abbc d6ad 283d
000000b0: d834 7b3c 701c 7a3c dd83 2ebd 8d14 bf3d
000000c0: ce64 093d 0585 9c3d c4b5 e23c ba18 2ebd
000000d0: 507d 243c c8ed c2bc a883 f3bc 46c9 783d
000000e0: 308c bfbd 8383 a43d 7ac0 063d cb62 c5bd
000000f0: 40e1 32bd 4075 a4ba fe89 4e3d 5cfb 86bd
00000100: 81da b23d 795a 803d b006 5d3c 2799 c13d
00000110: b84f b8bd d480 d2bc 706b c9bd acb6 aebc
00000120: 8e6b 83bd a0bf 5fbd 3926 843d 2a09 ccbd
00000130: 15d8 88bd 85d8 b5bd d0a3 683c 4284 323d
00000140: e352 6cbd 2ea0 083d c08e 12bc f5a1 a9bd
00000150: 5acc 623d 67e6 923d 00ae 9d39 d0a8 773c
00000160: 7458 f4bc 6def 28bd 1922 8b3d c52b be3d
00000170: bb90 bd3d 6015 9d3b 18b7 f5bc 7223 2b3d
00000180: 1a8c a3bd d938 b83d d9d5 913d d484 d2bc
