saved models/relu_mlp_num_3_mpnn_4.pth (torch, 54579 bytes, 3 tensors)

weight f4 [100, 128]
00000000: 1610 e3bc 8e56 463d a24b 5c3d 4c5a 9bbc
00000010: 90f7 a83b 2081 66bb 754b 8e3d 73fc 803d
00000020: d03a 523c 0a85 1e3d bd81 b03d eab9 d9bc
00000030: 8671 4d3d a059 853b e067 113c b9ab 23bd
00000040: 7390 74bd 2007 3f3b b25d 463d 5f89 b2bd
00000050: 0e5e 0f3d f864 bb3c 48e4 b93c 806f 013a
00000060: ae8e 7bbd 10e3 c83c 6017 0fbb dce2 e6bc
00000070: cc23 d83c 3ca3 32bd 98aa 913c 01c0 2cbd
00000080: d2c5 abbd 8df5 96bd 28e4 b9bc a10a 4cbd
00000090: 285f 5a3c 19f3 85bd 23fc 903d 1e06 563d
000000a0: d084 febb b5ed 8a3d cd82 893d 5497 aabd
000000b0: a45e 24bd a009 4dbb 9888 fb3c 06bc 42bd
000000c0: 7c4f ba3c 21bc 0cbd 3031 a83c 5ad2 53bd
000000d0: bb04 9f3d 0ac2 653d c0e1 143c 1065 4c3c
000000e0: ae85 753d d878 633c 50bc c63b e2a7 773d
000000f0: f09e 873c 000b bdba 4369 26bd d0e4 d83c
00000100: e900 19bd 99dd ab3d fe3d b2bd fe4d 5c3d
00000110: e494 ac3c 3cec 893c 0712 82bd 441e 043d
00000120: f879 4abc 7477 b7bc d745 8c3d b5e6 9cbd
00000130: 727e 60bd 30f8 d03c 1f87 9fbd 76f5 4e3d
00000140: 7092 5cbc 1dc6 843d f5dd 7ebd 8b30 843d
00000150: 7018 d63b 9f04 a8bd 23d5 ac3d 54ef 1fbd
00000160: 0d10 68bd b1a5 a23d 8830 64bc b883 86bc
00000170: 7a54 a2bd 781f 003c c0ad 97bd 9c32 75bd
00000180: cab7 1e3d a6dc 7bbd 4298 84bd f32f afbd
00000190: ef95 5cbd 286b 153c 363f 02bd d27e afbd
000001a0: 40a3 be3c 112a 8fbd 5523 ac3d 5cd1 67bd
000001b0: 1c43 d7bc c0c0 87bc 0254 263d 7fd6 65bd
000001c0: 51f7 993d fe58 203d b01d 993b 8a27 653d
000001d0: e0e7 c83b 3c69 64bd 088a 45bc 80d0 8cbb
000001e0: 265d 82bd b67d 2b3d 2040 93bd 8345 a93d
000001f0: f015 f83c d0ef d8bc 6444 9cbc bce7 9abc
00000200: 8f30 a5bd 1db3 23bd d021 9f3b 84f2 b2bd
00000210: f0fb 55bd 64f2 7dbd f093 a23b 8433 97bc
00000220: 0dba 49bd caf1 89bd c0e6 603b 1ba8 37bd
00000230: 8037 2ebd 5e60 43bd 00e6 c73b fb74 a23d
00000240: a53d 3abd 7059 92bd 6ece 31bd 0f78 9a3d
00000250: 3a6d 633d 24a8 8b3c 317d 65bd e67a 393d
00000260: 74dd acbc 38c4 95bc 54a7 6cbd 35a8 903d
00000270: 1083 8a3c 046f cd3c 6ca1 3fbd 400e e8bb
00000280: 1e70 7a3d 1031 cabc 5789 77bd a0d3 11bc
00000290: 553d 28bd 816b 883d 4822 b8bc a638 323d
000002a0: 2d78 ae3d e0eb 243b 8e3e 6d3d 6b18 8e3d
000002b0: 5001 60bc fdea 62bd c079 143d ebbf a83d
000002c0: 12c3 7c3d b31a 933d a672 303d 805b cb3c
000002d0: 94aa d5bc c276 353d 1f11 81bd d44f 67bd
000002e0: 0355 34bd 08d4 d1bc c7d8 863d e312 5ebd
000002f0: d31c 18bd d02e 4b3c e8fd 1c3c 8e30 aabd
00000300: 804c f1bb 007a 403a 0083 86bd 304c 9e3b
00000310: b72f 9abd 8f15 89bd 2663 123d 0da8 a6bd
00000320: 865b 323d e054 3a3b 8ffc 9c3d b904 b23d
00000330: f8c9 053d 12e4 453d ca62 6fbd b948 ac3d
00000340: 7bec 09bd 605e 563c 502c 293c 9dc2 b0bd
00000350: b446 f63c ee53 2a3d 22cc 91bd de29 383d
00000360: 8e12 e9bc faef 293d 94ad aabd 82b0 2f3d
00000370: 3b3e 853d 1004 973c 1ad0 203d c20c 663d
00000380: 840d f6bc 20c0 4abc 7489 c8bc 7800 923c
00000390: be39 ebbc 6f22 a83d c2cb dabc afdd 873d
000003a0: b46c cdbc 6d69 9d3d 2075 b1bb eca5 93bc
000003b0: 20f4 9dbc e60b 023d 5f48 913d fe69 2d3d
000003c0: 52e8 513d b212 343d 8707 aebd 20e0 45bb
000003d0: 5068 ec3b 2504 5fbd 6011 de3c 4d3f 863d
000003e0: ba8a 553d 7295 5e3d 6392 833d ee2e 563d
000003f0: 0443 9ebc 308f e03b 1e88 613d 75be a03d
-0.027717631 0.04842239 0.053783067 -0.018963955 0.005156465 -0.003517218 0.06947986 0.06298151
0.012831405 0.038701095 0.086184956 -0.026577909 0.050157093 0.004069522 0.008874863 -0.03995869
-0.05970807 0.0029148534 0.0484292 -0.08717608 0.035001807 0.022875294 0.02269186 0.0004937574
-0.061415367 0.024522334 -0.0021834 -0.028184347 0.026384257 -0.043612704 0.01778154 -0.042175297
-0.083873406 -0.07371054 -0.022691801 -0.049814824 0.013328351 -0.06540508 0.07079341 0.052251928
-0.0077672973 0.0678362 0.067144014 -0.08329645 -0.04012932 -0.0031286255 0.030704781 -0.047542594
0.02274298 -0.0343591 0.020531267 -0.05171428 0.07764574 0.056093253 0.009087026 0.012475267
0.05994194 0.013883792 0.006064929 0.06046284 0.01655528 -0.0014422834 -0.04062773 0.026476294
-0.037354384 0.08391876 -0.0870323 0.053785317 0.02106709 0.016836278 -0.06351095 0.032255426
-0.012358181 -0.022395827 0.068492584 -0.076611914 -0.054808088 0.02550897 -0.07789444 0.05052706
-0.013462648 0.064830996 -0.062223393 0.06454571 0.006533675 -0.082040064 0.0843909 -0.0390466
-0.056655932 0.079417594 -0.013927586 -0.01642023 -0.07926269 0.007820003 -0.07406187 -0.059862718
0.038749494 -0.061489724 -0.064743534 -0.085540675 -0.053853925 0.009119786 -0.031798564 -0.08569111
0.023271203 -0.069904454 0.084051766 -0.056596145 -0.026277117 -0.016571403 0.04060746 -0.056112763
0.07517875 0.03914737 0.0046727285 0.05594591 0.0061311573 -0.05576442 -0.012056835 -0.004297316
-0.06365423 0.041867934 -0.07189965 0.082652114 0.030283898 -0.026481539 -0.01907558 -0.018909328
-0.080659024 -0.039965738 0.0048563257 -0.087376624 -0.05224222 -0.06199874 0.004961483 -0.018457182
-0.049249697 -0.06735571 0.0034317225 -0.044838052 -0.042533398 -0.047699325 0.006100416 0.079324685
-0.045468945 -0.07145965 -0.043409757 0.075424306 0.05552409 0.01704795 -0.056027595 0.04528322
-0.02110169 -0.018282041 -0.057776764 0.07063333 0.016908199 0.02507735 -0.046784803 -0.007081777
0.06114208 -0.024681598 -0.06043371 -0.008900553 -0.041074116 0.0666113 -0.022477284 0.043511055
0.085190155 0.0025165007 0.057920985 0.06938251 -0.013672188 -0.055399884 0.036248922 0.082397304
0.06170947 0.07182827 0.043078087 0.024823904 -0.026082315 0.04430271 -0.06302094 -0.056472614
-0.044026386 -0.0256138 0.06584316 -0.05421723 -0.037136864 0.012401298 0.00958202 -0.08310042
-0.007363856 0.0007342398 -0.06567955 0.0048308596 -0.07528632 -0.06693565 0.035739087 -0.08137522
0.043544315 0.0028431937 0.07665359 0.08692307 0.032663316 0.048313208 -0.058443822 0.08412308
-0.03367279 0.013084024 0.010325506 -0.086308695 0.03006301 0.041583948 -0.07119013 0.044961803
-0.02845123 0.041488625 -0.08333889 0.04289294 0.0650601 0.018434554 0.03926096 0.05616451
-0.030035742 -0.012374908 -0.024479605 0.01782249 -0.028714057 0.08209693 -0.026708487 0.0663408
-0.025076248 0.07686124 -0.0054155737 -0.018023454 -0.019281447 0.03174963 0.07093882 0.04233741
0.05124695 0.04396314 -0.084975295 -0.0030193403 0.0072145835 -0.054447312 0.027107894 0.065550424
0.052134253 0.05434174 0.064244054 0.05229085 -0.019319065 0.006853007 0.055061452 0.07848827

bias f4 [100]
00000000: ec69 bbbc 0810 1d3c cb33 86bd 9f72 913d
00000010: 8632 473d c8ab 883c 3232 2f3d 55b1 afbd
00000020: 90c0 ef3c 2176 2bbd 7856 603c 70da 693c
00000030: de9a 443d 4763 893d 55c4 813d e494 a43c
00000040: df7f 91bd 9c36 c53c 08ed 7f3c 6f88 893d
00000050: 9521 5abd 83a6 813d 8ba2 a13d 0490 99bc
00000060: 04a7 bf3c ae32 563d 5703 833d b2e4 eebc
00000070: c816 723c 5538 53bd 04e1 b4bc a176 a73d
00000080: 7f14 893d 6b3a 69bd a02b 603c 3d3d 10bd
00000090: 80f4 0c3c a652 153d 4276 2d3d 98d8 61bc
000000a0: bdae 953d a01a cf3b 15bd 16bd 9118 863d
000000b0: 8016 1a3b 126f 26bd 134a 36bd 29bd 7fbd
000000c0: b53c 8ebd 487b 6b3c c0be 6fbc 291b 50bd
000000d0: 64dc 9cbc e803 9e3c 385e 51bd 1ee5 2abd
000000e0: 95e1 0abd aefb 153d f8b5 04bc b096 42bd
000000f0: 0819 16bc cacd 1d3d 8005 e4bc 5416 2dbd
00000100: 204a 463c 411a a43d 6a06 5b3d 510e ac3d
00000110: cc8e 8dbc 0089 bd3a 314f 60bd 4e4e 423d
00000120: 5471 80bc 414b 8f3d c8e1 853c 06f7 4cbd
00000130: 4d2a 68bd 5040 1b3c d826 ce3c 22c3 97bd
00000140: 2026 e7bb 2952 a03d cd00 9e3d 58e7 9dbc
00000150: b65f 703d 60ab d33c 20e8 0d3c fc43 cc3c
00000160: f83e 34bc 4296 183d c44a d13c 4dc6 a6bd
00000170: 09ce 15bd 42de 1f3d e085 d4bc 180e d4bc
00000180: 145f 51bd 6a0f f2bc 5e79 1d3d fe37 96bd
-0.022877656 0.009586342 -0.065528475 0.0710194 0.048632167 0.016683474 0.04277248 -0.08578745
0.029266626 -0.041860703 0.013692491 0.014273271 0.047999255 0.06708389 0.063362755 0.020090528
-0.071044676 0.024073891 0.0156204775 0.06715476 -0.053254683 0.06330588 0.07892331 -0.01874543
0.023395069 0.052294426 0.063971214 -0.029161785 0.014775939 -0.051567394 -0.022079952 0.081769235
0.066933624 -0.056940477 0.013682276 -0.03521465 0.008603215 0.036455773 0.042349108 -0.01378455
0.07308719 0.0063203126 -0.036801416 0.065476544 0.0023511946 -0.04063327 -0.044504236 -0.062436257
-0.06945173 0.014372654 -0.014632881 -0.050807152 -0.01914806 0.019288972 -0.051115245 -0.04172241
-0.033906538 0.036616974 -0.008100025 -0.047506988 -0.009161241 0.038526334 -0.027834654 -0.042257622
0.012102634 0.0801282 0.053472914 0.08401168 -0.017280005 0.0014460385 -0.054763023 0.04743796
-0.015679039 0.069967754 0.016343012 -0.050040267 -0.056680966 0.0094757825 0.025165007 -0.074102655
-0.0070541054 0.07828171 0.077149965 -0.019275352 0.058685027 0.025838554 0.0086613 0.024934761
-0.011001341 0.037252672 0.025548346 -0.081432916 -0.036573444 0.03903032 -0.025942743 -0.025885627
-0.051116064 -0.029548366 0.038445823 -0.073348984

weight f4 [1, 100]
00000000: 1855 9ebd 66e9 01bd 0668 6c3d aab2 20bd
00000010: 0788 c23d 4955 a23d 80f2 c6bc 4f15 a53d
00000020: e264 6b3d 86e5 043d 518c 923d fea5 793d
00000030: 2090 d9bb 00b0 dd37 6053 c23b a8f2 3cbc
00000040: 4308 2cbd 9b2c c0bd 31a5 a53d 0d7a ca3d
00000050: fe64 083d f752 903d 80f8 36bc df3f b83d
00000060: e774 bfbd 0443 08bd 50a8 993b e0ce 883b
00000070: 30d0 253c fd2c 4ebd 02b0 783d b1df a73d
00000080: e27b 723d 0af7 96bd 22ea 603d 15dc bdbd
00000090: 4010 55bc d66f a2bd d123 b33d 500e 23bc
000000a0: 1f93 863d e392 af3d 67d5 1bbd 884d 83bd
000000b0: 3e62 7d3d 4092 233c 4037 d7bc 52b6 793d
000000c0: a2b4 c6bd 6088 a23b cfdc b93d c375 53bd
000000d0: 50ae 57bd 7244 563d fa36 5cbd 223f 7c3d
000000e0: 5095 9bbd 1928 953d 0339 5bbd 12c3 ccbd
000000f0: 221a a6bd d0f7 6abd 5b27 9e3d 23e9 cb3d
00000100: c285 653d f259 bcbd d8ad c93c fa8a 52bd
00000110: a557 bdbd 08a4 c93c dd96 56bd 3fa5 b03d
00000120: 1463 8b3c d419 e6bc 960e 573d b2ad 6a3d
00000130: f645 7f3d 80cf 23bd 6891 3e3c 4235 b3bd
00000140: e328 5bbd 20d8 853c ddc5 6ebd 9135 b23d
00000150: b826 a4bd cc89 84bc 3b2f 9bbd b07a 5ebc
00000160: 13af 74bd 5fca 993d 92b9 213d 9299 2b3d
00000170: 6459 ff3c f696 17bd 9b1b 9e3d 007e dbbc
00000180: 6c7b 93bc 73af 2abd 0d26 40bd b823 b8bc
-0.07731074 -0.031716727 0.057716392 -0.039232887 0.094986014 0.07926423 -0.024285555 0.08060705
0.057469256 0.032445453 0.071556695 0.060949318 -0.0066394955 2.642721e-05 0.005930349 -0.011532463
-0.042000066 -0.09383508 0.080881484 0.098865606 0.03329944 0.07047074 -0.011167645 0.089965574
-0.09348469 -0.033267036 0.004689254 0.004175052 0.010120437 -0.050335873 0.06071473 0.081969626
0.059200175 -0.07371338 0.054910786 -0.09270493 -0.013004363 -0.07931487 0.08747066 -0.009952143
0.0657103 0.08572938 -0.038045313 -0.06411272 0.06186127 0.009983599 -0.026271462 0.06096489
-0.09702422 0.004960105 0.09075319 -0.05162598 -0.05265647 0.05231137 -0.053763367 0.061583646
-0.075968385 0.07283039 -0.053521167 -0.09998144 -0.08110453 -0.05736524 0.0772235 0.09956577
0.056035765 -0.09196843 0.024619028 -0.05140207 -0.092452325 0.024614349 -0.05238997 0.08625268
0.017015018 -0.028088488 0.052504145 0.057294555 0.06232258 -0.03999281 0.011631347 -0.087503925
-0.05350579 0.016338408 -0.058294166 0.08701623 -0.080151975 -0.016178988 -0.07577368 -0.013579056
-0.059737276 0.07509302 0.039483614 0.041894503 0.031170554 -0.037009202 0.07720109 -0.02679348
-0.018003188 -0.041671228 -0.046911288 -0.02247797
