saved models/v_mlp_num_1_mpnn_1.pth (torch, 54561 bytes, 3 tensors)

weight f4 [100, 128]
000000 bb 25 92 bd 08 c2 16 3c 0c f1 a3 bc 6b ff 97 bd
       -0.07136103 0.009201534 -0.020012401 -0.07421764
000010 38 82 73 3c 70 ec 69 bc 31 75 70 bd 50 80 a2 bb
       0.01486259 -0.0142775625 -0.058705512 -0.0049591437
000020 36 7d 77 bd 2e e4 01 3d be 08 79 3d 7b b0 85 bd
       -0.060422145 0.03171175 0.060799353 -0.065278016
000030 10 3c 97 bd 51 2c 8a 3d bb b6 b3 bd 40 48 24 bc
       -0.07384503 0.06746734 -0.087750874 -0.010026991
000040 80 26 c3 bb 00 a0 6f bc 88 43 10 bc 81 27 98 3d
       -0.0059555173 -0.014625549 -0.008805163 0.0742941
000050 d8 26 13 3c e0 3e 89 bd a7 c9 3c bd 68 81 86 3c
       0.008981429 -0.067014456 -0.04609075 0.016419128
000060 08 57 94 bd 30 7c e2 3c 02 c8 98 bd c8 28 44 3c
       -0.072431624 0.027647108 -0.074600235 0.011972614
000070 ea 20 46 bd 89 ce a1 3d a8 6a 4e bc 5e 02 81 bd
       -0.048371233 0.079007216 -0.012598671 -0.0629928
000080 b1 9b 36 bd 8e 8c 74 3d fe cb 9a bd 9e b9 96 bd
       -0.044582073 0.059704356 -0.0755844 -0.073596224
000090 20 23 d7 3b b6 c2 5a 3d ed 2d 16 bd 32 89 35 3d
       0.0065654665 0.053408347 -0.036664892 0.044320293
0000a0 d6 d2 1a bd d4 cc a5 3c a0 54 2a 3c 0a 20 2e 3d
       -0.037798725 0.020239271 0.010396153 0.042511024
0000b0 19 4b b2 3d da df 16 3d 53 94 96 3d 93 a7 8e bd
       0.0870573 0.036834575 0.07352509 -0.06965556
0000c0 a0 c3 9f 3c 1d 4f 96 3d 9a a6 ee bc 4e b1 5e 3d
       0.019502461 0.073393084 -0.029132176 0.05436831
0000d0 e0 03 07 3b e4 1b a4 bc 48 b7 8e bc 99 41 54 bd
       0.0020601675 -0.02003283 -0.01742138 -0.05182037
0000e0 6a 3a 7b 3d 73 9a 93 3d 98 5c 75 3c 67 af 05 bd
       0.061335005 0.07207193 0.014975689 -0.03263798
0000f0 06 0e 1b 3d e0 e3 c7 bb 9a 20 55 3d 14 1a b4 bd
       0.03785517 -0.006100163 0.052033044 -0.087940365
000100 34 91 b2 bd 88 83 4f 3c ff 9a a6 bd 34 b0 97 3c
       -0.087191015 0.012665637 -0.08135032 0.018516637
000110 88 d2 22 3c c0 a3 e6 3a b4 bf b4 bc 7e 04 90 bd
       0.00993789 0.0017596409 -0.022064067 -0.07032107
000120 c0 c2 07 bd a0 68 cb bc 25 1c a2 3d 80 62 ee 3c
       -0.033144712 -0.024830163 0.079155244 0.029099703
000130 80 ee 34 ba c8 3e 4e bc b8 c1 ee 3c b0 31 96 bd
       -0.00069019943 -0.01258821 0.029145107 -0.07333696
000140 55 ce 9f bd 68 a2 42 bc 96 dd ec bc 55 b0 84 bd
       -0.078030266 -0.011879541 -0.028914254 -0.06478945
000150 6e 8d 34 3d d2 e0 75 bd a0 f3 91 3c ae bb 59 bd
       0.04408019 -0.06002886 0.017816365 -0.0531575
000160 ca d7 79 3d 0a ba 49 bd 60 c0 26 3b 50 7f 39 bd
       0.060996808 -0.049249686 0.0025444254 -0.04528743
000170 78 c7 74 bd 46 3a 23 3d f5 60 b0 3d 43 d3 9d 3d
       -0.05976054 0.039850496 0.08612243 0.077063106
000180 1d fb 92 bd b4 c4 a8 bd 66 84 1a 3d c8 db bd 3c
       -0.07176802 -0.08240643 0.03772392 0.023176089
000190 e0 d2 7e bc 9d 3b b1 3d 9a ce 65 3d 3c 51 ca 3c
       -0.015553206 0.086539485 0.056105234 0.024696939
0001a0 e2 e2 b4 bd e0 6e 9c 3c 12 2a 46 3d 72 29 44 3d
       -0.08832337 0.019095838 0.048379965 0.047891088
0001b0 5a 25 71 3d e0 19 31 bd 1f 5a 8b 3d e8 90 6d bd
       0.05887351 -0.043237567 0.068042986 -0.05799952
0001c0 c8 2c 58 3c 44 d3 8d bc db 41 9c 3d 76 07 3f 3d
       0.01319427 -0.017312653 0.076297484 0.046637975
0001d0 f8 47 38 3c 17 70 81 bd f2 78 1e 3d 63 b4 98 3d
       0.011247627 -0.063202076 0.03868956 0.07456281
0001e0 34 6f 04 3d 80 70 5b 3c be 19 a1 bd 18 4a 82 bd
       0.032332614 0.013393521 -0.07866238 -0.063617885
0001f0 a3 88 93 3d 63 d5 b0 3d b8 88 51 3c bb 2b b1 3d
       0.07203796 0.0863445 0.012788944 0.08650919
000200 7b 7b 43 bd 59 ee 85 3d 80 b4 00 bb a2 cd ab bd
       -0.047725182 0.06539602 -0.0019638836 -0.08388831
000210 38 aa 3b bc 84 f2 d7 bc 88 98 f1 3c ec d6 83 bd
       -0.0114541575 -0.026360758 0.029491678 -0.064374775
000220 22 a8 70 3d 9a bc 78 bd 92 fb 50 3d fc 22 bd 3c
       0.058754094 -0.06072674 0.051021166 0.02308797
000230 48 39 21 bc 0e fe 18 3d 60 21 f1 3c c0 59 ca 3b
       -0.009840317 0.03735166 0.02943486 0.00617525
000240 9b bf 98 bd 7c 4e 93 bc 48 70 25 bc 81 7c 8c 3d
       -0.07458421 -0.01798176 -0.010097571 0.06859685
000250 7c 4d a5 3c e1 ab 9f 3d 6c 9e 0f 3d 60 dc 0b 3d
       0.020178549 0.07796455 0.035063192 0.034145713
000260 ee 81 09 3d aa e4 17 3d e0 ae d4 3b 9b 6c 44 bd
       0.033571176 0.037083305 0.0064905733 -0.047955137
000270 71 9f 8d 3d 2d fe 98 3d 9d bb 8f 3d cb aa 93 3d
       0.06915177 0.07470355 0.07018206 0.072103105
000280 f5 46 94 3d fc 4f c3 bc 24 de 09 bd f0 49 dd 3b
       0.072400965 -0.02384185 -0.033659115 0.006753199
000290 26 5e 66 3d 93 07 84 3d eb e0 b1 bd 94 b0 ba 3c
       0.05624213 0.06446757 -0.08685478 0.022789277
0002a0 91 c7 93 bd 64 56 7c bd 13 5f 76 bd 25 c1 9e bd
       -0.07215799 -0.061605826 -0.060149264 -0.07751683
0002b0 34 1c 68 bd 12 22 24 3d 26 f8 9b bd 78 f6 f9 bc
       -0.05666752 0.040071554 -0.0761569 -0.030513033
0002c0 48 0a 37 bc 4a c3 58 3d 55 eb ab bd 91 ff 11 bd
       -0.011171885 0.052920617 -0.083944954 -0.035644118
0002d0 de 64 2f 3d 11 c3 73 bd 0d c5 1e bd 04 dc 90 3c
       0.042820804 -0.0595122 -0.03876214 0.017683037
0002e0 80 94 70 bc 63 2a 9b bd 47 ec 9f 3d 4f 98 ac 3d
       -0.014683843 -0.07576444 0.07808738 0.08427488
0002f0 80 c6 00 3d 6d aa 50 bd 38 5e c6 bc 74 5c 9b bc
       0.031439304 -0.05094378 -0.024214849 -0.018964984
000300 84 52 e7 3c 42 3a 17 3d 90 28 99 3c b8 9d 37 bc
       0.028237589 0.036920793 0.0186961 -0.011207037
000310 a2 81 68 3d dc 20 c2 3c 00 f0 f8 bb b5 e2 82 bd
       0.056764252 0.02369731 -0.0075969696 -0.06390897
000320 1d 96 46 bd 11 a1 83 3d cd 31 9b 3d 98 92 06 bd
       -0.048483003 0.06427205 0.07577858 -0.032854646
000330 7e 97 08 bd 6d 49 88 3d 70 49 0b bc 9b 94 8f 3d
       -0.0333476 0.0665463 -0.008501396 0.07010766
000340 d6 6b 32 3d 1f b1 9a bd 71 0b a2 3d b0 91 a0 bc
       0.04355987 -0.075533144 0.079123385 -0.01960072
000350 9d 5d a1 3d 86 c2 1e 3d d6 95 24 3d e0 5c 84 bd
       0.078791834 0.03875973 0.040181957 -0.06463027
000360 40 04 ac 3b a8 19 11 3c e0 1a 4a 3b d6 b3 d4 bc
       0.00524953 0.008856215 0.0030838773 -0.025964659
000370 82 66 64 3d 22 0f 7b bd d4 99 3b bd 00 67 56 3c
       0.05576182 -0.06129373 -0.045801 0.013086081
000380 f0 3b c7 bb 80 2a b3 3a 19 1e b4 3d 20 33 62 bb
       -0.006080143 0.0013669282 0.08794803 -0.0034515336
000390 00 ce 2f 3a 38 cc 05 3c a2 af 53 3d e9 0f 8b bd
       0.00067064166 0.008166365 0.05168117 -0.06790144
0003a0 48 00 a0 3c e0 5a 0e bc e9 23 84 bd 5c 2c f2 3c
       0.019531384 -0.0086886585 -0.06452162 0.029562168
0003b0 7c 10 94 3c f8 85 5c bd 3e 87 7d 3d 13 78 b2 3d
       0.018074267 -0.0538387 0.061896555 0.087143086
0003c0 03 dd 95 3d 28 61 7d bc fb ca 8c 3d 30 6c eb bc
       0.07317545 -0.015465058 0.06874653 -0.028738111
0003d0 1f 65 90 3d f0 8b 8e 3b f8 7e 8a 3c 8d ca 94 3d
       0.07050537 0.004350178 0.016906247 0.07265196
0003e0 cd 06 b4 3d 86 78 69 3d 32 55 70 bd 90 a7 63 bd
       0.0879036 0.056999706 -0.058675 -0.055579722
0003f0 01 e9 b1 3d 0a 18 df bc e8 67 df 3c aa 0f 1f 3d
       0.0868702 -0.027233142 0.027271226 0.038833298

bias f4 [100]
000000 26 0d 1a 3d d9 50 9b 3d 08 1c cb bc 82 b2 55 bd
       0.037610196 0.0758378 -0.02479364 -0.05217219
000010 e0 eb d4 3c c8 c7 24 3c ab 91 97 3d 64 43 8d bc
       0.02599138 0.010057397 0.07400831 -0.017244048
000020 b8 76 13 bd 95 09 b2 bd e8 c4 16 bc fe 90 7a bd
       -0.03600189 -0.08693234 -0.00920222 -0.06117343
000030 ea 0e 38 3d 51 4a a9 3d fe 76 45 3d 2d 34 a7 3d
       0.0449361 0.08266128 0.048209183 0.081642486
000040 bf dc 83 bd c0 8d 2e 3c 4e 83 f7 bc 00 6e a5 b9
       -0.06438588 0.010653913 -0.030213978 -0.0003155321
000050 40 a0 ca ba f1 bc 81 3d af 42 a4 3d 9c 2f cc bc
       -0.0015459135 0.06334866 0.080205314 -0.024925046
000060 3e 76 d6 bc 80 6b 04 ba 0b 5d ad bd 20 67 74 bd
       -0.02617943 -0.0005051419 -0.08465012 -0.05966866
000070 4f 18 82 3d fc 5c 00 bd 00 f4 fa bb c8 86 90 bd
       0.06352293 -0.031338677 -0.0076584816 -0.070569575
000080 f6 d4 fe bc 5e e1 73 3d 32 87 a0 bd 4c 74 92 bd
       -0.031107407 0.0595411 -0.078382865 -0.07151088
000090 0c 78 a0 bc da 2a 35 3d c9 ca a7 bd a4 02 0d 3d
       -0.019588493 0.04423032 -0.08192975 0.034426346
0000a0 05 47 9f 3d d5 67 89 3d f3 b8 ad bd 3e 7a 3e 3d
       0.07777218 0.067092575 -0.08482542 0.046503298
0000b0 a6 36 27 3d 34 81 9f 3c bd 9c 82 3d e2 cf 04 3d
       0.0408236 0.019470789 0.06377552 0.032424815
0000c0 70 40 9b bb 27 14 31 bd b8 1e 17 bd b4 fb dc bc
       -0.004737906 -0.04323211 -0.03689453 -0.02697549
0000d0 06 e7 37 3d 7a e8 dc bc da 69 e6 bc 40 2b f2 bb
       0.044898055 -0.026966322 -0.028126646 -0.0073904097
0000e0 d4 a7 83 3c 01 84 51 bd d7 f2 b3 bd 5c 44 a9 bc
       0.016071238 -0.05115128 -0.087865524 -0.02066248
0000f0 72 46 47 3d a0 67 15 bc fd d2 b0 3d 9f 08 87 bd
       0.048651166 -0.009118944 0.08633993 -0.06593441
000100 76 3c 4b 3d 96 3f 7a bd 24 57 cf bc 80 1d 6f 3b
       0.049618207 -0.061095797 -0.025310107 0.003648609
000110 32 56 5e bd 96 6c 11 3d e4 86 2d bd 9e 62 16 3d
       -0.05428142 0.035503946 -0.04236497 0.036715142
000120 cd 7b a0 3d 1b e5 56 bd 30 7e 01 bc 94 d2 85 3c
       0.07836113 -0.052464586 -0.007903621 0.016335763
000130 de e9 fa bc f8 cf 06 3c e1 aa 65 bd e2 26 9c bd
       -0.030629095 0.008228295 -0.056071166 -0.07624604
000140 c2 13 7e bd 48 af a6 3c b4 c5 e3 bc fa db 7b 3d
       -0.06203056 0.020347252 -0.027804233 0.061489083
000150 12 7b 5a 3d 41 90 6f bd d2 67 34 3d 00 3c 89 bb
       0.053340025 -0.05848718 0.044044323 -0.0041880608
000160 c6 cc 4c 3d 6f 8d 8c 3d 8e f6 92 bd 63 a6 91 bd
       0.049999975 0.06862914 -0.07175933 -0.07111814
000170 e7 04 87 bd f8 d4 65 bc 64 f7 fd 3c d8 ab 39 bc
       -0.06592732 -0.0140278265 0.031001754 -0.011332475
000180 b7 2d 8e 3d 6b 03 aa 3d 14 4a 09 bd 50 80 3c bd
       0.06942313 0.08301433 -0.033517912 -0.046020806

weight f4 [1, 100]
000000 b0 9e 42 3c fb 7a b4 3d 73 35 94 3d e4 38 ee 3c
       0.011878654 0.08812519 0.07236757 0.029079862
000010 be 41 63 3d 00 f1 be 3b 00 81 1c ba c8 ae b4 bd
       0.05548262 0.0058270693 -0.000597015 -0.088223994
000020 ab 12 b0 bd f3 78 c6 bd 13 b7 ca bd 29 e4 9e 3d
       -0.08597311 -0.09691038 -0.098982 0.07758362
000030 8c f1 f0 bc d0 74 9f bb aa ee 06 3d 00 27 cf 3b
       -0.029412054 -0.00486622 0.03294245 0.006321788
000040 47 a7 5d bd 6b 49 8d bd ff fc ae bd 50 51 1e bc
       -0.054114606 -0.06898769 -0.08544349 -0.009662941
000050 30 cc a5 bd 5a b6 b2 bd 03 28 c5 3d 40 84 4f bb
       -0.08095586 -0.08726187 0.09626772 -0.003166452
000060 be 89 8b bd 58 60 b9 bc c0 c3 6a 3c 63 f7 c5 3d
       -0.068133816 -0.022628948 0.014328897 0.09666326
000070 7d 4c 4b bd 09 77 9f 3d b8 8c 9b bd 17 9c 23 bd
       -0.04963349 0.07786376 -0.07595199 -0.03994378
000080 d4 c4 b3 bc be 73 92 bd 00 68 ef bc 68 3f 18 bc
       -0.02194444 -0.07150982 -0.029224396 -0.009292461
000090 f0 59 97 bd 87 fc b2 bd a4 2e e3 3c b0 f3 cf 3b
       -0.07390201 -0.08739572 0.0277322 0.0063461885
0000a0 1a 8d 9a bd ad 9d 34 bd f7 6a c9 3d 12 74 32 3d
       -0.07546444 -0.044095684 0.09834855 0.043567725
0000b0 d0 f2 4b bc 00 12 f1 b9 54 61 10 bd 40 12 09 bc
       -0.012448028 -0.00045980513 -0.03524907 -0.008366168
0000c0 88 56 a4 3c 29 81 93 3d 5a e3 19 3d f2 cb b5 bd
       0.020060793 0.0720237 0.037570335 -0.0887679
0000d0 c1 15 c1 3d 6a 89 28 bd b2 75 88 bd 07 de 4c bd
       0.09427977 -0.041146673 -0.066630736 -0.05001643
0000e0 00 a3 06 3b 43 c7 b0 3d a4 ef fc 3c d0 00 76 bc
       0.0020543933 0.08631756 0.030875988 -0.015014842
0000f0 20 11 93 3b 95 e2 82 bd 8d d9 39 bd 94 46 9e 3c
       0.0044881254 -0.06390873 -0.04537349 0.019320764
000100 fd 52 b0 3d 00 d7 bc bd ca 16 c6 bd db 93 c7 bd
       0.08609579 -0.092206955 -0.096723154 -0.09744998
000110 27 25 b9 bd d8 c6 f1 bc 29 ae 8b 3d 6b 81 b2 bd
       -0.09040289 -0.029513761 0.06820328 -0.08716091
000120 e7 e6 45 bd 1d 73 47 bd da 99 06 3d aa cf 34 3d
       -0.04831591 -0.048693765 0.032861568 0.044143356
000130 00 2d 4e 3b 75 eb a6 bd 50 72 fd 3b 98 f3 34 3c
       0.0031459928 -0.081503786 0.0077345744 0.011044405
000140 a7 7d c2 3d 2a 99 62 3d 80 e5 ec 3a 4d 68 9d bd
       0.094966225 0.05532185 0.0018073767 -0.076859094
000150 30 98 e6 3b 67 f4 5a bd 8b 28 9c 3d cd 59 82 3d
       0.007037185 -0.053455736 0.076249205 0.063647844
000160 58 6d 22 bc aa 81 74 bd c0 4b 8c bd b0 0e a4 bb
       -0.009913765 -0.05969397 -0.06850386 -0.0050066337
000170 5b 97 99 bd 20 50 8c 3c c5 32 94 3d 20 cd d4 bc
       -0.07499572 0.01712805 0.07236246 -0.025976717
000180 8c 8a a9 3c ce d3 7a 3d 89 d5 a3 3d 53 a9 21 bd
       0.020695947 0.06123715 0.07999713 -0.03946812
