additional experiments/saved models/mlp_num_1_mpnn_0.pth (torch, 54549 bytes, 3 tensors)

weight f4 [100, 128]
0	0x3cf27398	0.029596135
1	0xbd3c2db7	-0.045942035
2	0x3d82de89	0.063901015
3	0x3d9e82df	0.077398054
4	0x3db0b6f7	0.08628648
5	0x3dac4ff9	0.08413691
6	0xbade9040	-0.0016980246
7	0x3d9019a7	0.07036143
8	0xbcc42d00	-0.023947239
9	0xbd9163dc	-0.07099125
10	0xbc7343a8	-0.0148476735
11	0x3d33ae66	0.04386749
12	0x3c758760	0.014985889
13	0xbda7b1c8	-0.08188206
14	0xbd0bb869	-0.034111414
15	0x3ca85420	0.020547926
16	0x3d7660fa	0.060151078
17	0xbda4895e	-0.08034013
18	0xbd2769f9	-0.040872548
19	0xbccfb750	-0.025355965
20	0x3d6b9ed6	0.057524525
21	0xbd2514cd	-0.04030304
22	0xbd3542ec	-0.044253275
23	0xbdb1b48c	-0.08677015
24	0x3d2e4c7a	0.042553402
25	0xbd8d87e1	-0.069106825
26	0xbd0144d1	-0.03155977
27	0x3da6e681	0.08149434
28	0x3d8afb5f	0.067862265
29	0xbb8cd190	-0.0042974427
30	0x3d3d147a	0.046162106
31	0x3d0f6e66	0.035017394
32	0x3cd26040	0.025680661
33	0xbcb30760	-0.021854103
34	0x3d1a0122	0.037598737
35	0x3da2a997	0.07942503
36	0xbda439d4	-0.08018842
37	0xbda4036e	-0.08008467
38	0xbd9ffd33	-0.07811966
39	0xbd3328e4	-0.04374017
40	0xbd3f838c	-0.046756312
41	0x3b9fb160	0.0048734397
42	0x3d7d3556	0.061818443
43	0x3d929875	0.07157985
44	0x3cc9afc4	0.024619944
45	0x3d9d1b2d	0.07671199
46	0x3d5b10ca	0.05348281
47	0xbda4dd8d	-0.0805007
48	0x3d0fef9a	0.03514061
49	0x3d8b25b7	0.06794303
50	0x3c36bf10	0.011153951
51	0xbda358b7	-0.079759054
52	0xbd3c9644	-0.046041742
53	0x3ba9f120	0.005186215
54	0x3d6a5252	0.057207413
55	0x3ce574c0	0.028009772
56	0xbdab0741	-0.08350993
57	0xbd9e064a	-0.07716043
58	0x3db2236d	0.08698163
59	0xbcc67cb0	-0.024229378
60	0xbc0d2290	-0.008614197
61	0xbdad99bb	-0.084765874
62	0x3d8a57b5	0.0675501
63	0x3c8416cc	0.016124152
64	0x3d120312	0.03564746
65	0x3d8a1c11	0.067436345
66	0x3ce54bd8	0.027990267
67	0xbd41e548	-0.0473378
68	0x3d9e6d03	0.07735636
69	0xbdac4b1a	-0.08412762
70	0xbd88d6c5	-0.06681589
71	0x3d823d1f	0.06359314
72	0xbc4bf350	-0.012448147
73	0x3d293cea	0.041317858
74	0xbd7d48c3	-0.06183697
75	0x3cbe62a4	0.023240395
76	0x3da08d39	0.07839436
77	0x3cdf1b54	0.02723471
78	0x3c032318	0.0080039725
79	0x3cd31b78	0.025769934
80	0xbd2c3beb	-0.04204933
81	0x3d9f0e13	0.07766356
82	0xbd9e3e38	-0.07726711
83	0x3d801913	0.062547825
84	0xbd5b7a40	-0.053583384
85	0xbbab05d0	-0.0052191988
86	0x3c2a1788	0.010381587
87	0x3d89baef	0.06725108
88	0x3d92638b	0.071478926
89	0x3d4600b2	0.048340507
90	0xbcf6eea4	-0.03014309
91	0x3d70ceca	0.05879096
92	0x3d8837bb	0.06651255
93	0x3d8e958d	0.06962118
94	0x3cbce808	0.02305986
95	0xbb1bfa20	-0.002380021
96	0x3cf28924	0.02960641
97	0x3d92c263	0.071659826
98	0xbd2fd5ca	-0.042928495
99	0xbd147ab1	-0.03624982
100	0xbce681ea	-0.02813812
101	0x3d9ace3d	0.07558868
102	0x3d7bc3ba	0.061465956
103	0x3d6d2322	0.057894833
104	0x3c789030	0.015171096
105	0xbd854b7b	-0.065085374
106	0xbc745020	-0.014911681
107	0xbcd930b0	-0.026512474
108	0x3d90433f	0.07044076
109	0x3cfd627c	0.03093075
110	0xbd6bb511	-0.057545725
111	0xbd4c26a0	-0.049841523
112	0x3cf90e74	0.0304024
113	0xbd852574	-0.06501284
114	0x3da787b7	0.081801824
115	0x3cf3bc58	0.029752895
116	0xbd42e993	-0.047586035
117	0x3d75200a	0.059845008
118	0x3dabaa1b	0.083820544
119	0xbd9bf199	-0.076144405
120	0x3c4bf760	0.0124491155
121	0xbd6676f5	-0.05626579
122	0xbd9c15e1	-0.076213606
123	0x3bd47740	0.0064839423
124	0x3d41f24e	0.04735022
125	0xbd48e698	-0.049048036
126	0x3d56407a	0.052307583
127	0xbbafa090	-0.0053597167
128	0x3d3322ee	0.043734483
129	0xbd01e0ab	-0.0317084
130	0xbd9e8e10	-0.0774194
131	0xbd860e79	-0.06545729
132	0xbcb3eef4	-0.021964528
133	0x3da4671f	0.08027481
134	0xbd8e0d74	-0.0693616
135	0x3da451bd	0.08023403
136	0x3bc37c70	0.005965762
137	0xbda27772	-0.07932939
138	0xbc76b440	-0.015057623
139	0x3d132e78	0.035932988
140	0x3d3ded26	0.04636874
141	0xbdb20183	-0.086916946
142	0xbd213a79	-0.039362404
143	0x3c2c4128	0.010513581
144	0x3d1f0a02	0.038827904
145	0x3a3da400	0.0007234216
146	0xbd7c82ee	-0.0616483
147	0xbcae5d1c	-0.021284632
148	0xbd1da1d2	-0.038484402
149	0xbcd7d50a	-0.026346702
150	0xbc319800	-0.010839462
151	0xbd2aac7b	-0.041668396
152	0xbda69113	-0.081331395
153	0x3bf795e0	0.0075557083
154	0x3dab9455	0.083779015
155	0xbd2ba0cc	-0.041901395
156	0x3db3632f	0.08759152
157	0x3d56afc6	0.052413724
158	0x3d78f706	0.060782455
159	0x3cf6a184	0.030106314
160	0xbc94d19c	-0.018166356
161	0xbc3d0e10	-0.011538997
162	0x3c1b8620	0.009492427
163	0xbd7b9395	-0.061420042
164	0x3ce98144	0.028504021
165	0x3d488962	0.048959143
166	0x3b907130	0.0044080243
167	0xbd8482e9	-0.06470282
168	0xbd10fc4a	-0.03539685
169	0xbd916c7c	-0.0710077
170	0x3d975513	0.073892735
171	0xbd7d52b5	-0.061846454
172	0x3d74a54e	0.05972796
173	0x3d01edc6	0.0317209
174	0xb93ff800	-0.00018307567
175	0x3c9a10cc	0.018806837
176	0x3cfec8a8	0.03110154
177	0x3d667102	0.056260116
178	0xbdb227bc	-0.08698985
179	0x3da7bbb7	0.08190101
180	0x3d90ac2b	0.070640884
181	0xbcd65b1c	-0.026166491
182	0x3cec6670	0.02885744
183	0x3cc29f68	0.023757651
184	0xbd4f6ae4	-0.05063905
185	0x3d3f41fa	0.04669378
186	0x3d98d9c3	0.0746341
187	0xbce98138	-0.028504
188	0xbcc27b4c	-0.023740433
189	0x3da4269d	0.080151774
190	0xbc147530	-0.009061143
191	0xbd8ae796	-0.06782453
192	0xbd72c000	-0.059265137
193	0x3d93dd0b	0.07219895
194	0x3d94e23b	0.072697125
195	0xbc39bd30	-0.01133661
196	0xbc75e690	-0.015008584
197	0x3d21482a	0.03937546
198	0xbd9992f1	-0.0749873
199	0x3dacd157	0.08438366
200	0xbd7f58be	-0.06234049
201	0xbcf8031e	-0.030274924
202	0xbb55cf60	-0.0032624826
203	0x3d2bc69a	0.041937448
204	0xbd723c28	-0.0591394
205	0xbcbf58cc	-0.023357771
206	0x3b1dffa0	0.0024108663
207	0xbb3bd760	-0.002866231
208	0x3d3cd2aa	0.046099342
209	0x3d64bbe2	0.05584324
210	0x3d27dcfe	0.04098224
211	0xbd2a7d31	-0.041623298
212	0x3dae3515	0.08506218
213	0xbb0631c0	-0.002047643
214	0xbbcca260	-0.0062449425
215	0x3d903b15	0.07042519
216	0x3dad9a71	0.08476723
217	0xbcace5c0	-0.021105647
218	0xbd39027f	-0.045168396
219	0xbc622f08	-0.013805158
220	0x3cb30b1c	0.021855883
221	0x3d91ab7d	0.07112787
222	0x3d654d0a	0.055981673
223	0x3d58d242	0.052934892
224	0xbd563d03	-0.05230428
225	0x3d1de506	0.038548492
226	0xbccb9cc4	-0.024855025
227	0xbd009eba	-0.031401373
228	0x3c9b8de4	0.018988557
229	0x3c54cbe8	0.012988068
230	0x3d7aa0b2	0.061188407
231	0x3d850133	0.06494369
232	0x3c8d1c0c	0.017225288
233	0xbda9e76e	-0.08296095
234	0xbcad5af4	-0.021161534
235	0x3d5ee082	0.054413326
236	0xbd2aa813	-0.041664194
237	0xbbc82b40	-0.0061086714
238	0x3d5e5262	0.054277785
239	0x3db3acad	0.0877317
240	0xbcaffc68	-0.021482661
241	0x3c39ab60	0.011332363
242	0x3bb37800	0.0054769516
243	0x3d56ad72	0.052411504
244	0x3d12437a	0.035708882
245	0x3d85b195	0.06528012
246	0xbd3931bb	-0.045213442
247	0x3d8642f3	0.06555738
248	0xbc935770	-0.01798603
249	0xbd70bf9d	-0.058776487
250	0x3d885b5b	0.0665805
251	0x3d61ee7a	0.05515907
252	0xbcb9d6fc	-0.02268552
253	0x3ce48878	0.027897105
254	0xbd86f91c	-0.065904826
255	0x3d81a037	0.06329387

bias f4 [100]
0	0x3d5296ee	0.05141347
1	0x3da21caf	0.07915627
2	0xbd5231bb	-0.051316958
3	0xbcb8d938	-0.022564515
4	0xbcdad09a	-0.026710797
5	0xbd984044	-0.07434133
6	0xbd330ed6	-0.04371532
7	0x3d58461e	0.052801244
8	0x3cdd1110	0.026985675
9	0xbd4900e1	-0.049073104
10	0xbd93b98e	-0.07213126
11	0xbd11b5b2	-0.03557367
12	0xbdae84a4	-0.08521393
13	0x3d8c82a1	0.06860853
14	0xbcd5d790	-0.026103765
15	0x3cc0cc18	0.02353482
16	0x3c993878	0.018703684
17	0x3bf48310	0.007461913
18	0x3d0bb62e	0.034109287
19	0x3d97e963	0.07417562
20	0x3dab8377	0.08374684
21	0xbc4f23c0	-0.012642801
22	0xbdaad03d	-0.083404996
23	0x3d020866	0.03174629
24	0xbccfa2b8	-0.025346145
25	0x3a978f40	0.0011563078
26	0x3cb3a1b8	0.0219277
27	0x3cb97a04	0.02264119
28	0xbda360a3	-0.07977416
29	0xba82b280	-0.000997141
30	0x3da00a71	0.078144915
31	0xbd5194b8	-0.05116722
32	0xbd4ec587	-0.050481346
33	0xbd503969	-0.050836
34	0xbda79112	-0.08181967
35	0x3cb2299c	0.021748357
36	0xbc917dd0	-0.017760187
37	0x3d58ffb6	0.05297824
38	0xbd31449c	-0.04327832
39	0x3cba28c8	0.022724524
40	0x3d9ebc63	0.07750776
41	0x3d880b4f	0.06642782
42	0x3d50c196	0.050965868
43	0xbbff9b50	-0.007800497
44	0xbbef23b0	-0.0072979555
45	0xbbd1a260	-0.0063975304
46	0x3c24e2a8	0.010063805
47	0x3d6d7ca6	0.057980202
48	0xbd8d7141	-0.06906367
49	0x3d3ec426	0.04657378
50	0x3cabee8c	0.020987771
51	0x3d676fc6	0.05650308
52	0x3d56b692	0.052420206
53	0xbd58c74c	-0.05292444
54	0x3d9d48cf	0.07679903
55	0xbd658862	-0.056038268
56	0xbc1ff508	-0.00976301
57	0xbda2147f	-0.079140656
58	0x3da3e07f	0.080018036
59	0x3b25dce0	0.0025308654
60	0xbd819a99	-0.06328315
61	0x3d72bde6	0.059263133
62	0x3d5190f6	0.051163636
63	0x3d84871f	0.06471085
64	0x3d4ac0fa	0.049500443
65	0xbd4ec77b	-0.05048321
66	0xbd3fef91	-0.046859328
67	0xbcfa8866	-0.030582618
68	0xbd5b9b2d	-0.053614784
69	0x3d84cb6b	0.064841114
70	0x3c46e168	0.012138702
71	0x3b899df0	0.004199736
72	0x3d159120	0.036515355
73	0xbd3c4f64	-0.04597415
74	0xbd716e2c	-0.05894296
75	0x3d275402	0.0408516
76	0xbd67ddf8	-0.05660817
77	0x3cba4fc0	0.022743106
78	0x3d74580a	0.059654273
79	0xbd8d2cd7	-0.06893318
80	0xbbee6d40	-0.007276207
81	0xbd3eb25d	-0.04655682
82	0xbcbbe31c	-0.022935443
83	0x3d8f76a9	0.070050545
84	0xbd973c58	-0.073845565
85	0xbc9d0c98	-0.019171044
86	0x3d421d9a	0.04739151
87	0xbd3d8493	-0.04626901
88	0x3da6baf7	0.081411295
89	0xbb2e1f80	-0.0026569068
90	0xbcb05c04	-0.021528251
91	0xbd01dbe0	-0.03170383
92	0xbd848d18	-0.06472224
93	0x3cdeb644	0.02718652
94	0x3d428b96	0.0474964
95	0x3cbe4640	0.023226857
96	0x3ca60c9c	0.020269684
97	0x3d8a6779	0.06758017
98	0xbd43acb4	-0.047772124
99	0x3cdee440	0.027208447

weight f4 [1, 100]
0	0x3d86adaf	0.06576096
1	0x3db5fda9	0.088862725
2	0x3d86d21b	0.06583043
3	0x3b97b830	0.004630111
4	0x3c100068	0.008789159
5	0x3d8390b3	0.064240836
6	0xbdc005d8	-0.093761146
7	0xbdc14abf	-0.09438085
8	0x3cb2bf8c	0.021819852
9	0xba051980	-0.0005077347
10	0xbcf9c8c8	-0.030491248
11	0xbd076876	-0.033058606
12	0xbceac248	-0.028657094
13	0x3d84eb71	0.064902194
14	0xbd712afa	-0.058878876
15	0x3d3d24da	0.046177723
16	0x3d99b121	0.07504488
17	0xbdc1e8c3	-0.09468224
18	0xbd532637	-0.051550116
19	0xbd4cf433	-0.050037574
20	0xbd06be46	-0.032896303
21	0x3c9c5c80	0.019087076
22	0xbd97a60a	-0.07404716
23	0x3c3ca030	0.011512801
24	0xbdb742c2	-0.0894828
25	0xbd8dcc7b	-0.06923767
26	0xbd5109fd	-0.051034916
27	0xbd3c07b0	-0.04590577
28	0x3daf3dfb	0.08556744
29	0xbdbbc228	-0.09167892
30	0xbd71a2a0	-0.058992982
31	0xbdbd5f43	-0.09246685
32	0x3afb2f40	0.0019163862
33	0xbc1f2c90	-0.009715214
34	0x3cd1cc24	0.025610037
35	0xbb3b8b40	-0.0028616935
36	0x3c23edd0	0.010005429
37	0x3d9ae6d1	0.07563556
38	0xbcaac9e8	-0.02084823
39	0x3d93ad69	0.0721081
40	0xbdade6e7	-0.08491307
41	0xbd9d970b	-0.07694825
42	0xbd90843b	-0.07056471
43	0xbd903d83	-0.070429824
44	0x3c656e18	0.014003299
45	0x3d8bb707	0.06822019
46	0x3c70a630	0.01468806
47	0xbd4a28e7	-0.049355414
48	0xbca623cc	-0.020280741
49	0xbdbd1f2f	-0.092344634
50	0xbd77d9d3	-0.060510468
51	0x3db8b1e5	0.09018306
52	0x3d299d52	0.041409798
53	0x3ca25db4	0.019820072
54	0xbd171304	-0.03688337
55	0xbd86d18d	-0.065829374
56	0xbd62eb9d	-0.05540048
57	0xbda72556	-0.08161418
58	0xbcf02ea8	-0.029319122
59	0xbdb33308	-0.08749968
60	0x3dc52c81	0.09627629
61	0xbd95161b	-0.07279607
62	0x3d80944b	0.06278285
63	0x3b553240	0.0032531172
64	0x3daabee7	0.08337193
65	0x3c486150	0.012230232
66	0x3d1e5aa2	0.038660653
67	0xbd8a9044	-0.06765798
68	0x3cfc6664	0.030810542
69	0x3db32f8f	0.087493055
70	0x3b5592c0	0.003258869
71	0xbab5b180	-0.0013862103
72	0xbc10c898	-0.008836888
73	0xbdc9b9cf	-0.09849893
74	0x3d99f6ab	0.07517751
75	0x3dc916c7	0.098187976
76	0x3d86c511	0.06580556
77	0xbd3ffd7a	-0.046872593
78	0x3bf25020	0.0073948056
79	0xbc4890e8	-0.01224158
80	0xbd74be2a	-0.059751667
81	0xbd89e220	-0.06732583
82	0xbc5ae658	-0.013360582
83	0xbd790643	-0.060796987
84	0xbbe57ab0	-0.007003151
85	0xbcee5df8	-0.029097542
86	0x3d073016	0.033004843
87	0xbc8ee360	-0.017442405
88	0xbdc6da7a	-0.0970964
89	0xbd793323	-0.060839783
90	0xbda828fd	-0.08210943
91	0x3d981415	0.07425705
92	0x3d3ace42	0.04560686
93	0x3ab5f000	0.001388073
94	0xbd995872	-0.07487573
95	0x3b9d5660	0.0048015565
96	0x3c07d318	0.008290075
97	0xbc082c58	-0.008311354
98	0xbd9a8520	-0.07544923
99	0x3a23c300	0.0006247014
