additional experiments/saved models/normal_mlp_num_1_mpnn_3.pth (torch, 54655 bytes, 3 tensors)

weight f4 [100, 128]
000000 18 c9 45 3c 00 51 34 bc 34 3f 07 3d 62 b1 87 bd
       0.01207187 -0.01100564 0.03301926 -0.0662563
000010 80 af 8f bb 31 cf 09 bd 81 fc 39 bd 52 5d 11 3d
       -0.004384935 -0.03364486 -0.045406822 0.035489388
000020 5d 1e b0 3d 47 37 9b 3d 90 92 a8 3b 00 6d 2e 3a
       0.08599541 0.07578903 0.0051444247 0.00066538155
000030 51 9b ae 3d 4d ee 9a 3d 59 b6 af bd e0 41 d1 3c
       0.08525718 0.075649835 -0.08579702 0.025544107
000040 0d e6 9f 3d 60 24 9a 3b 40 3b f2 3a cc 58 a8 bd
       0.078075506 0.0047040433 0.0018480793 -0.08220062
000050 21 38 8b 3d de 33 a9 bd 83 94 88 3d c2 0d f2 bc
       0.06797815 -0.08261846 0.06668951 -0.029547576
000060 3a 40 30 3d ef 7b 95 3d 9c c1 e3 3c 27 b2 89 3d
       0.04303 0.07299029 0.027802281 0.06723433
000070 e4 38 17 bd 0a 07 7d 3d 10 57 d2 bb f3 6b 91 3d
       -0.03691949 0.06177429 -0.00641907 0.07100668
000080 2c 3f 84 bc d2 6c 49 3d 30 13 36 bc 2d d2 8f 3d
       -0.016143404 0.049176045 -0.011112973 0.0702251
000090 d9 7e 8a 3d c1 e7 13 bd 99 c4 37 bd 4c ab ca 3c
       0.067624755 -0.03610969 -0.044865225 0.024739884
0000a0 e0 20 28 bb 59 9b b2 3d 9a 21 ae bd 88 01 17 3c
       -0.002565436 0.087210365 -0.08502503 0.009216674
0000b0 72 3e 4c bd 34 22 73 bd bd b6 83 3d ef 03 52 bd
       -0.04986424 -0.05935879 0.06431339 -0.051273283
0000c0 b4 73 56 bd 93 15 99 bd 16 86 75 3d df 55 13 bd
       -0.052356437 -0.07474818 0.059942327 -0.035970565
0000d0 f7 a9 b4 bd 56 31 08 3d b0 7c a5 bc 23 f1 a0 3d
       -0.08821481 0.033250175 -0.020201057 0.07858493
0000e0 fa 11 00 bd 24 fd ae bd 52 a2 40 bd 6f 29 84 bd
       -0.031267144 -0.085443765 -0.0470298 -0.06453215
0000f0 42 d4 2c 3d 80 a7 92 bb 38 45 11 3d c7 b9 84 bd
       0.042194612 -0.004475534 0.035466403 -0.06480747
000100 23 31 99 3d d6 c9 67 3d ce a4 4f 3d 4c db 85 bc
       0.07480075 0.05658897 0.05069428 -0.01633992
000110 0a 37 3f 3d 4a e3 75 3d 5f cf 8a 3d 99 f7 99 3d
       0.04668335 0.060031213 0.06777834 0.07517929
000120 d6 8a 81 bd 40 9d 50 3b f8 dc 6e bd 9e 43 90 bd
       -0.06325309 0.003183201 -0.0583162 -0.07044147
000130 55 c6 9b 3d d2 49 65 3d 89 8a 8c 3d 00 93 64 bc
       0.07606188 0.055978604 0.06862361 -0.013951063
000140 b0 68 ca bb b0 41 be bc ea 0d 35 3d b4 3b c6 bc
       -0.0061770305 -0.023224682 0.044202723 -0.02419839
000150 31 01 a8 3d a8 5e 94 3c 13 86 a8 3d 68 41 1c bd
       0.08203352 0.018111542 0.08228698 -0.038148314
000160 12 62 6d 3d 20 31 cd 3b 00 d6 73 bc 0e 37 2b 3d
       0.057954855 0.0062619597 -0.014882565 0.04180055
000170 c0 6f 81 bb 7a 81 09 3d 25 d6 15 bd 99 22 5a bd
       -0.003950089 0.033570744 -0.036581177 -0.05325565
000180 e7 6a 09 bd a0 cc 61 bb 27 6b 0e bd 8c 1a 07 3d
       -0.033549216 -0.0034454241 -0.034770157 0.0329843
000190 e0 d2 09 bb 3b 0d 99 3d 65 f8 9e 3d 48 58 a9 bc
       -0.0021030232 0.07473227 0.07762221 -0.020671979
0001a0 4f 2d 97 3d 7f 03 8a bd 10 b9 b2 3b 8c bb bc bc
       0.07381689 -0.06738948 0.00545419 -0.023038648
0001b0 30 c4 1e 3c 04 da eb 3c e8 ec a0 bc 4d e0 a1 bd
       0.009690329 0.028790481 -0.019644216 -0.0790411
0001c0 e8 93 af 3c 64 de 47 bd 95 a5 ae bd 40 fe 79 bb
       0.021432832 -0.048796073 -0.08527676 -0.003814593
0001d0 d6 c1 e7 bc 00 e5 d7 39 88 cd 17 3c d0 50 0f bc
       -0.02829067 0.00041178614 0.009265311 -0.008747295
0001e0 13 0a 84 3d f7 b8 9c 3d 6c 78 b5 3c 26 93 3e 3d
       0.06447234 0.07652467 0.022152148 0.04652705
0001f0 ae a5 01 3d 03 93 26 bd a2 68 20 3d cc 22 fa 3c
       0.031652145 -0.040667545 0.039162286 0.03053417
000200 13 0a 94 3d f0 43 c3 bb fd 76 64 bd 81 5e 0e bd
       0.07228484 -0.0059590265 -0.05577754 -0.034758095
000210 47 ce a1 bd 44 df b0 bd c2 6c 58 3d 87 e3 94 3d
       -0.079006724 -0.086363345 0.052838095 0.0726996
000220 59 46 26 bd a0 88 e3 bb 9d e1 19 bd 00 db 36 3b
       -0.040594433 -0.006943777 -0.037568677 0.002790153
000230 30 2c ae bc 82 2b 5b 3d 97 b3 ae bd ef 35 b4 bd
       -0.021261305 0.05350829 -0.08530348 -0.087993495
000240 4a e0 7a 3d ee 68 60 3d ad 51 9a 3d 05 7d 98 3d
       0.061249055 0.05478757 0.0753511 0.074457206
000250 fc 9e 14 bd 28 ba cf 3c 0b 86 11 bd 36 d6 68 3d
       -0.03628443 0.02535732 -0.035528224 0.056844912
000260 a2 e6 62 bd 3b 94 85 bd ab 3d 96 3d c0 64 ff ba
       -0.05539573 -0.06522413 0.07335981 -0.0019484982
000270 7a 21 18 3d 78 ff 1a bc 7c 26 f1 3c 88 be 48 3c
       0.0371413 -0.009460323 0.029437296 0.012252457
000280 b3 11 86 3d 86 a7 9e bd 38 17 7c 3c 26 74 84 bd
       0.065463446 -0.07746796 0.015386395 -0.06467466
000290 76 9b 69 3d 16 9a b0 bd 00 fa ee 3b 41 84 9e 3d
       0.057033025 -0.086231396 0.007292986 0.07740069
0002a0 c0 dd c6 bb 9a 2e 42 3d dd c5 94 3d fa fb 59 3d
       -0.006068915 0.047407724 0.07264302 0.05321882
0002b0 61 cf a8 3d 18 e8 9d 3c bc 7b 94 3c 8b 58 8e 3d
       0.082426794 0.01927571 0.018125407 0.06950482
0002c0 51 9c 90 bd 54 ba 9e 3c 59 f2 51 bd 56 f1 45 3d
       -0.07061065 0.019375958 -0.05125651 0.04832586
0002d0 e0 f7 5c bc b2 4a 3e bd ce 6c 2c 3d f0 80 22 bd
       -0.013486832 -0.046457954 0.04209595 -0.039673746
0002e0 e6 4f a1 bd 1a ff 70 3d 3b 1b a2 bd 8a 40 22 3d
       -0.078765675 0.058837034 -0.0791535 0.03961233
0002f0 f8 2e 2c bd 3c 51 b2 bd d5 73 96 3d 28 62 ce bc
       -0.04203698 -0.087069005 0.07346312 -0.025193289
000300 d4 13 8e 3c ae d5 84 bd 37 8a 81 3d d4 bc fa 3c
       0.01734344 -0.06486069 0.063251905 0.030607618
000310 dd 92 a6 3d e5 9c a6 3d 26 18 01 bd ba 96 65 bd
       0.08133481 0.08135394 -0.03151717 -0.056051947
000320 ce 1e 83 bd 05 42 71 bd c3 e2 41 bd 41 05 86 3d
       -0.0640236 -0.05890085 -0.047335397 0.06543971
000330 f6 e8 19 bd 60 87 43 3b 9e 84 0f bd 4c ab 83 bd
       -0.037575684 0.0029835328 -0.035038583 -0.06429157
000340 00 36 c4 39 d5 5b 01 bd 02 f5 8c bd 40 31 da 3a
       0.00037424266 -0.03158172 -0.06882669 0.0016646758
000350 36 a8 75 3d 85 ee 5e bd c0 53 f4 3c e4 a8 ea 3c
       0.05997487 -0.05442669 0.029825091 0.028644986
000360 4d 54 89 3d 5c 19 6b bd c2 7f 1d 3d 00 99 5d 3b
       0.06705532 -0.05739723 0.038451917 0.003381312
000370 e1 ad 9e 3d fc 1f 74 bd 00 d6 52 b9 30 5b 1b 3c
       0.077480085 -0.059600815 -0.00020106882 0.00948219
000380 31 d4 8e 3d 2a d3 e2 bc 7b 38 ab 3d fa 01 00 3d
       0.06974066 -0.027688581 0.08360382 0.031251885
000390 23 31 9e 3d f4 37 9f bd 37 43 ab bd 7a 5d 1a 3d
       0.07724216 -0.07774344 -0.083624296 0.037686802
0003a0 ed 7e a7 3d 95 18 9f 3d 20 d5 e4 bb b1 78 46 bd
       0.08178506 0.077683605 -0.0069834143 -0.048454944
0003b0 80 3f 01 3a 84 4f f6 bc c0 15 18 bd f0 6c cd bc
       0.0004930422 -0.030067213 -0.037130117 -0.02507636
0003c0 88 9b 96 bc c4 76 d8 3c e0 d7 c7 bb 14 79 1a bd
       -0.01838471 0.02642382 -0.0060987324 -0.037713125
0003d0 99 6e 9d 3d de 8b 62 3d e2 2b 58 3d 63 e2 93 3d
       0.076871105 0.05530917 0.052776225 0.07220914
0003e0 d0 b7 bc 3b f4 e4 7e bd 86 4d 2e 3d 19 66 9f bd
       0.005759217 -0.062230065 0.0425544 -0.077831455
0003f0 43 28 b4 3d 3a a2 4f 3d 78 c9 28 3c 15 1e 86 bd
       0.08796742 0.05069182 0.01030194 -0.065487064

bias f4 [100]
000000 7d 3c a1 3d c2 6f 59 3d d0 eb 87 3c 68 5f fd 3c
       0.07872865 0.053085096 0.016591936 0.030929282
000010 20 fc a6 bd 20 fe 23 bb 7a f5 9d bd 60 3d d1 3b
       -0.08153558 -0.0025023296 -0.077128366 0.0063854903
000020 aa b3 87 bd ce f9 0b 3d 68 46 28 bc d3 93 91 3d
       -0.06626065 0.03417378 -0.010270692 0.07108273
000030 e0 40 3d 3b be 3a 83 bd 1e 81 a1 bd a0 d9 10 3b
       0.002887778 -0.064076886 -0.07885955 0.002210237
000040 bc ad 3c bd 1f 38 84 3d 9c 51 90 bd 80 78 54 bc
       -0.046064124 0.06456017 -0.07046816 -0.012968183
000050 d6 e1 98 bd 60 53 f1 bb c0 46 f5 bb 80 58 81 3b
       -0.0746495 -0.0073646754 -0.0074852407 0.0039473176
000060 22 c5 1c 3d 0e 2e 5f 3d 4e d9 46 3d 94 06 94 3c
       0.038273938 0.05448728 0.04854708 0.018069543
000070 a0 6a 07 3d 76 5c 10 3d 0c c5 a7 bc 57 04 8c 3d
       0.03306067 0.035244428 -0.020479701 0.06836765
000080 3d a5 86 3d 20 fb 91 bc 34 33 af bc f2 2e 50 bd
       0.065744855 -0.017819941 -0.02138672 -0.05082602
000090 24 03 9e bd 5c 81 e7 3c d4 be a9 3c a2 0a 22 3d
       -0.07715443 0.028259926 0.020720877 0.03956092
0000a0 ac e0 f6 bc 92 4f 3a 3d 00 b0 84 37 40 6e c8 3c
       -0.030136429 0.04548604 1.5817583e-05 0.024466634
0000b0 80 79 4f bc 15 0f 9c 3d 72 17 91 bd 3d ad 9e 3d
       -0.012663245 0.07620064 -0.0708455 0.07747886
0000c0 33 55 a1 3d 02 3e 6e 3d f0 f3 ca 3b f5 cd a9 bd
       0.078775786 0.058164604 0.0061936304 -0.08291236
0000d0 d2 39 27 3d 7a 95 42 3d ea 15 30 3d 3c 02 8b bd
       0.040826626 0.047505833 0.04298965 -0.067875355
0000e0 51 e2 44 bd 72 4e 21 3d f4 a4 11 3d 10 ba 9b bd
       -0.048067395 0.039381452 0.035557702 -0.07603848
0000f0 64 1e d9 bc 60 68 95 3b 00 a4 e3 38 d7 c9 85 3d
       -0.02650375 0.0045595616 0.00010854751 0.065326385
000100 c1 b3 94 3d 98 25 a8 3c e6 18 57 3d b7 57 4e bd
       0.07260848 0.020525739 0.05251398 -0.05037662
000110 34 8c d3 bc a0 f8 47 bc a3 58 71 bd d0 4e 3f bd
       -0.02582369 -0.012205273 -0.05892242 -0.04670602
000120 4b 07 94 bd d0 e1 c8 3c 50 89 d8 3b 00 9d f3 3a
       -0.072279535 0.024521738 0.006608166 0.0018586218
000130 ae ef 8e bd 8c 81 8c bd 00 83 35 3b 30 51 8b bd
       -0.06979309 -0.068606466 0.002769649 -0.06802595
000140 5e 61 1b 3d e7 90 9a 3d a6 f8 15 bd 70 e4 5a 3c
       0.037934653 0.07547169 -0.036614083 0.013360128
000150 38 9b 8a bc ca 03 84 bd e0 81 d1 3b 20 60 e4 3c
       -0.016919717 -0.06446035 0.006393656 0.027877867
000160 6c 74 cb 3c 91 87 9a 3d ca cf 89 bd b8 ee bc 3c
       0.024835788 0.075453885 -0.06729086 0.023063049
000170 08 d2 09 bd 68 2e 15 3c e5 04 b1 bd 88 99 cb bc
       -0.033647567 0.009105302 -0.08643512 -0.024853483
000180 ca ee 4f 3d 00 59 9f 39 da 2b 6d 3d c4 4d 82 bc
       0.050764836 0.00030393153 0.05790315 -0.015906222

weight f4 [1, 100]
000000 c0 d6 a9 bd 28 11 05 bc 58 bc 73 bc 2c 1d d4 3c
       -0.082929134 -0.008121766 -0.014876448 0.025892816
000010 21 6f 99 3d f9 85 c7 3d 13 30 4a bd b4 3e e2 3c
       0.07491899 0.0974235 -0.049362253 0.02761779
000020 30 02 3d bd 82 52 57 3d 58 50 62 3c 0d 4d be 3d
       -0.046144664 0.05256892 0.013813101 0.0929204
000030 a8 a6 f8 bc 97 1d 59 bd e1 66 a1 3d 04 06 dc 3c
       -0.030352905 -0.053006735 0.07880951 0.026858337
000040 c8 db a8 3c 02 de 02 3d 44 82 e1 3c 40 f4 8c 3c
       0.020612612 0.031950004 0.027527936 0.017206311
000050 54 d8 b3 3c e8 a0 f7 bc 82 b7 23 3d 78 f4 f5 bc
       0.02195374 -0.030228093 0.03996993 -0.030023798
000060 57 d2 2f bd b3 e2 7a bd 28 7a 5a bc c8 0b 9e 3c
       -0.042925205 -0.061251353 -0.013334788 0.019292727
000070 65 28 82 bd 01 08 c8 3d d4 96 e3 bc c0 f2 0e bc
       -0.06355361 0.097671516 -0.027781881 -0.008724868
000080 c0 4d 76 3b 4e c1 1f 3d e2 38 65 3d 92 07 2a 3d
       0.0037582964 0.03900271 0.05596245 0.041511126
000090 49 50 b3 3d d0 87 42 bc 7b 6c a7 bd 45 46 a6 3d
       0.087555476 -0.011873201 -0.08174988 0.081188716
0000a0 c9 29 c8 3d 75 3b a6 bd 8e 9a 65 3d ba ec 5d bd
       0.09773595 -0.08116809 0.056055598 -0.05418084
0000b0 6e 4b 04 3d 58 7d 97 bc 86 c1 88 bd 08 c3 bf bc
       0.032298498 -0.018492386 -0.06677537 -0.023408428
0000c0 33 07 ae 3d 69 e0 be 3d 90 23 0d bd 69 99 bd 3d
       0.08497467 0.093201466 -0.034457743 0.09257776
0000d0 b0 45 3b bc c9 54 a5 3d e3 22 b9 3d 51 35 ac 3d
       -0.011430189 0.08072812 0.09039857 0.08408607
0000e0 67 84 28 bd fd 26 9f bd 32 40 9c bd 30 a5 4b bd
       -0.041141894 -0.07771108 -0.07629432 -0.049718082
0000f0 9a 4a 18 bd d0 fa 30 3c 50 8f c8 bb 40 65 00 bc
       -0.03718052 0.010801986 -0.0061206 -0.00783664
000100 3a 64 05 3d c0 e1 04 3c e1 d0 b2 3d 98 41 c6 bc
       0.032566287 0.008110464 0.08731247 -0.0242012
000110 79 41 84 3d e0 02 a8 bc 8a 4a 0c 3d b0 10 49 bd
       0.064578004 -0.020509183 0.034250773 -0.04908818
000120 fb a8 90 3d 27 e1 2f bd c0 d0 d9 ba 20 74 80 bb
       0.070634805 -0.04293933 -0.0016617998 -0.003920093
000130 92 48 27 3d 85 dd a7 bd 39 ea ae 3d 30 e3 a6 bd
       0.040840693 -0.08196548 0.08540768 -0.08148801
000140 d0 e2 92 3b 9a 7d 81 bd 3d 57 7d bd 67 44 3c bd
       0.0044826046 -0.06322785 -0.061850775 -0.04596367
000150 5b ee b3 bd fb 04 a9 3d 6f 9c b4 bd 0c 9a b4 3c
       -0.08785697 0.08252903 -0.088189 0.022046112
000160 b4 c1 ab 3c a2 a3 47 3d 98 6e 53 bc ef 74 a8 3d
       0.020966388 0.048740037 -0.012904786 0.08225428
000170 50 47 d2 3b 00 06 23 b9 83 56 7a bd 87 a1 45 bd
       0.0064171925 -0.00015547127 -0.06111766 -0.048249748
000180 2a 38 18 bd 13 9c a3 bd 1e f1 58 3d 22 91 07 3d
       -0.037162937 -0.07988753 0.052964322 0.033097394
