additional experiments/saved models/normal_mlp_num_2_mpnn_2.pth (torch, 54655 bytes, 3 tensors)

weight f4 [100, 128]
00000000: ae96 59bd 4015 733b 78eb 96bc a8ad 4dbc
00000010: cc2f a8bc f66e 1a3d 8079 40ba 0e8e 343d
00000020: 157b 97bd ac6d 123d f0e5 033d b08d 13bc
00000030: 4810 01bc eafb 29bd bd22 52bd 9843 51bc
00000040: fc36 95bc d8c5 21bc 58bc 7b3c e881 d7bc
00000050: 22ee 783d e54d 2ebd 9030 d8bc d077 8fbc
00000060: 5ef1 663d 3078 4ebd a85a 8abd 9083 db3b
00000070: f13a 7fbd f7db 59bd 6883 593c 786c 01bc
00000080: 48da 20bc c14e 0dbd 40c9 c33c 0f39 b1bd
00000090: 243a 73bd 19c6 af3d 3c73 aa3c 724b 773d
000000a0: 58c7 0f3c f4cf fe3c d794 8b3d 2f6f 3bbd
000000b0: 7ce9 38bd 155b 44bd 949d 84bd 48b7 55bc
000000c0: 42bb 673d 32fd aabd b2e7 733d 80de 10ba
000000d0: 46bc 463d 8842 31bd ac1c 4abd c0c9 ca3c
000000e0: 4019 873a 5601 99bd 8087 093c 2f78 5bbd
000000f0: 9a4a 41bd a026 0abb 7570 903d be6f 1e3d
00000100: 9297 773d 5486 ec3c e808 a8bc 7f71 ae3d
00000110: fe4e d4bc 5049 f9bc 8d0e 803d 3e1e 773d
00000120: af53 883d cd36 90bd 3abd 5a3d 894b 9bbd
00000130: cdc9 5fbd 66bd 373d a0db c23b fc72 91bd
00000140: 8bec 823d 329d 57bd 8da2 99bd 7003 c93b
00000150: 0ae9 04bd c0ed e0ba 4869 a23c a4e4 933c
00000160: 008a 98bc acd1 a23c 1e51 5fbd 5765 65bd
00000170: e839 7abd 63fb 24bd 69bf 88bd 4c1b f2bc
00000180: 943e c33c ff44 01bd d406 0fbd c87e 56bc
00000190: 283d ae3c 5c9a cfbc 9626 393d a076 bbbc
000001a0: cf9e 44bd 530b 26bd e6d4 2e3d c24f 7a3d
000001b0: 189a 85bc 317c aa3d 80c5 67bc c05a a1bc
000001c0: 52f6 b0bd 7b36 90bd a7fd 65bd 7ceb d83c
000001d0: 4a47 373d b864 973c 2c21 b3bc 3cac 82bd
000001e0: 425a 91bd bbed a63d 7693 5a3d 5766 33bd
000001f0: f2c2 3b3d 63f3 68bd 76d1 0d3d e194 833d
00000200: 60d4 e4bb 1e21 483d 4d81 3bbd 5d8c 19bd
00000210: cecd 393d 80dc 6bba 6221 283d 0d5c 23bd
00000220: a6f2 5c3d 30aa a0bc a9fa 13bd d48b 0d3d
00000230: 790f 71bd 7e1b 0e3d 7e95 653d 2482 48bd
00000240: 80bc 61bd b3bb 9c3d 2dfc 903d 988a c93c
00000250: 48ba efbc fca1 f63c 2530 9e3d 66ff 623d
00000260: 12b5 263d 3083 1abc 62ef 323d 9bc5 7abd
00000270: cb1b 973d 2ad9 753d 03e7 14bd e0d0 5e3b
00000280: 01f4 8a3d e214 293d 42d0 5b3d 43ab 913d
00000290: d57b 35bd 6fa8 863d 5f83 8d3d 6125 9e3d
000002a0: 149e cf3c 8390 a03d c024 0d3c 4214 a2bd
000002b0: c44d 3ebd 8a4e 643d 1ae4 233d d228 36bd
000002c0: 8053 37ba d8fb 9e3c 9fb9 b1bd cfeb 91bd
000002d0: aa7f 253d 0de3 933d 366d 1f3d 5d8d 87bd
000002e0: 40bd 133c 346a ca3c 20e0 953c 4c15 53bd
000002f0: 4e30 583d d2d9 5f3d f765 57bd e174 8a3d
00000300: 36ca 793d 982e 733c 5c57 d43c 09f3 853d
00000310: 9c87 b83c f4bb 8c3c b6eb 043d 714a 03bd
00000320: c012 2ebc cba5 acbd 6826 bc3c efff 1fbd
00000330: 1951 a83d 7236 523d d592 9c3d cfed 0bbd
00000340: 017c 32bd 74ba f5bc c06d 993a 0f86 9e3d
00000350: e011 05bb 295d 8b3d 47c2 9b3d 001b f939
00000360: 2b67 1abd 6202 88bd 445f b3bd 20c3 4e3b
00000370: 9d26 893d 0040 763a 800f 573a 84f7 86bc
00000380: 100a 0b3d 0aa3 2a3d b414 5bbd d85d 173c
00000390: c019 b4ba 9232 e1bc fcad 92bd cfac 9a3d
000003a0: 59ef 6dbd ecae 97bd ab68 afbd 6278 20bd
000003b0: 20b1 c7bc 0a96 35bd c091 003c 3076 e23b
000003c0: 0e34 5cbd 8316 62bd f649 503d a487 113d
000003d0: ae27 573d 54c5 5dbd b4fb a9bd 289c 583c
000003e0: 6072 cc3b e8f1 85bd a4ef 90bc dcf5 93bd
000003f0: c069 bdbb 6145 a0bd 408d b8bb e063 94bb
-0.053122215 0.0037091523 -0.018422827 -0.01255361 -0.020530604 0.037703477 -0.00073423237 0.044080786
-0.07396523 0.035749123 0.032201707 -0.009005949 -0.007877417 -0.04150001 -0.05130266 -0.012772463
-0.018214695 -0.00987383 0.015364729 -0.026307061 0.060773976 -0.042554755 -0.026390344 -0.017513186
0.05638253 -0.05040759 -0.067555726 0.006699033 -0.06231207 -0.05318829 0.013275959 -0.007899396
-0.009817667 -0.034498934 0.023899674 -0.08653461 -0.05938162 0.08582706 0.020806901 0.060374685
0.008775555 0.03110502 0.06815498 -0.04576033 -0.045144543 -0.047938425 -0.06475368 -0.013044186
0.056575067 -0.083490744 0.059547134 -0.0005526319 0.048519395 -0.04327634 -0.04934375 0.024754405
0.0010307208 -0.07470958 0.008394122 -0.053581413 -0.047190286 -0.0021080151 0.070526995 0.038680784
0.060447283 0.028872646 -0.02051206 0.085177414 -0.025916573 -0.030430466 0.06252775 0.060331576
0.066565864 -0.070417024 0.053403117 -0.075827666 -0.05463581 0.04485836 0.0059465915 -0.0710201
0.06392773 -0.052640148 -0.07501707 0.006134443 -0.032448806 -0.0017160699 0.019825593 0.01805336
-0.018620491 0.01987537 -0.05452072 -0.05600485 -0.06109038 -0.040278804 -0.066771336 -0.029554032
0.02383355 -0.03155994 -0.03491862 -0.01309175 0.021269396 -0.025342159 0.045202814 -0.022883713
-0.048003014 -0.040538143 0.042683505 0.06111122 -0.01630883 0.08324469 -0.014146209 -0.019696593
-0.08640732 -0.07041641 -0.056150105 0.026479475 0.04474572 0.018480644 -0.021866404 -0.06380507
-0.070972934 0.08150812 0.053363286 -0.04379877 0.04584021 -0.056872737 0.034623586 0.06424881
-0.006983325 0.048859708 -0.045777608 -0.037487376 0.045362286 -0.00089973956 0.04104746 -0.03988271
0.053942345 -0.019612402 -0.03612772 0.03455718 -0.058852646 0.034694187 0.05605077 -0.048952237
-0.05511141 0.07652988 0.07079349 0.02460222 -0.02926363 0.030106537 0.077240266 0.05541935
0.040700026 -0.009430692 0.043685324 -0.061223608 0.07378348 0.060021557 -0.036353122 0.003399901
0.06784821 0.04127968 0.053665407 0.07112744 -0.04430755 0.06575095 0.06909823 0.07721973
0.025343932 0.078400634 0.008614719 -0.0791402 -0.04646088 0.055738963 0.040012456 -0.044472523
-0.00069933385 0.019407198 -0.086779825 -0.07125055 0.040404953 0.07221041 0.03892251 -0.0661876
0.009017289 0.024708845 0.018295348 -0.051533982 0.052780442 0.05465109 -0.052587476 0.06760574
0.06098386 0.014842652 0.025920562 0.06540496 0.022525601 0.017179467 0.032451354 -0.032053415
-0.010624588 -0.0843006 0.022967532 -0.039062437 0.08218593 0.051321454 0.076451935 -0.03416234
-0.04357529 -0.029996134 0.0011705682 0.077404134 -0.0020304844 0.06804878 0.07605415 0.00047513098
-0.037696045 -0.066410795 -0.08758405 0.003154941 0.06696818 0.0009393692 0.0008203909 -0.016475447
0.033945143 0.041659392 -0.05348654 0.009238683 -0.0013740584 -0.027489934 -0.07162091 0.07552492
-0.058089588 -0.074064106 -0.08564886 -0.039177306 -0.024376452 -0.04433254 0.0078472495 0.0069110617
-0.05376058 -0.05519725 0.050851785 0.035529748 0.052528076 -0.054143265 -0.08299962 0.013220824
0.0062392205 -0.065402806 -0.017692395 -0.07224628 -0.0057804286 -0.07825733 -0.0056320727 -0.0045285076

bias f4 [100]
00000000: eb56 22bd 7425 8ebd 46a4 6a3d d854 84bd
00000010: b296 e4bc 0044 fe3b ff6f b2bd 2e22 5d3d
00000020: 2ce8 48bd 878a 2abd 1ea3 523d 60aa b7bb
00000030: d23d 97bd b1ba ae3d 77d9 57bd 612d 30bd
00000040: 45e5 873d fa14 633d d8c1 143c 3c62 92bc
00000050: 00a8 83bd 3c0e 9b3c 7a80 9ebd 1aad 763d
00000060: 5cc4 ab3c 05d3 9dbd f694 473d b7fa aa3d
00000070: dae9 3f3d b8a0 2fbc df1e 873d 47c4 5dbd
00000080: 438d 893d 2490 afbc ad1f 9b3d 405a 813b
00000090: fe20 213d e477 93bd b7f8 843d 3911 a9bd
000000a0: 58e5 ec3c 92d3 703d c888 2abd 4a00 773d
000000b0: 6b0d ac3d f0e7 8dbc 5717 b0bd 6e84 593d
000000c0: ae43 763d 076b 5dbd 8386 0ebd 2f8e a1bd
000000d0: 670e b23d 20a7 483b baa7 203d c667 73bd
000000e0: 103a c0bb d2f1 593d fbe2 a5bd 368e 4a3d
000000f0: 4331 97bd f18f b4bd bfe9 97bd b623 603d
00000100: 6e4a 6fbd 4694 343d cb72 b0bd f0a0 3f3c
00000110: 9996 b13d c236 86bd 9d33 893d d6f0 193d
00000120: 6a50 283d c605 64bd a0bb 2c3c 8018 87bd
00000130: a89b 083c 2c5f a13c 5c90 be3c c0be 903b
00000140: bd59 943d 0a0b 423d e03c dcbb d66a 60bd
00000150: 167e a6bd 271e 8f3d c5be 8dbd 5860 bc3c
00000160: b075 cabc 10bd 113d 68ea abbd d8d3 84bc
00000170: 1cb8 cc3c 934e 14bd 268c 20bd 521b 793d
00000180: 4a87 493d 79f5 82bd cf5a 13bd 7b03 9c3d
-0.039633673 -0.06940737 0.05728557 -0.06461495 -0.027903888 0.007759571 -0.08712768 0.053987674
-0.04904954 -0.041636016 0.051425092 -0.005605027 -0.07384838 0.08531702 -0.052697625 -0.043012027
0.066355266 0.055439927 0.009079419 -0.017869107 -0.06428528 0.018927686 -0.07739349 0.060223676
0.020967655 -0.077062644 0.048726045 0.08348601 0.046853878 -0.010719471 0.06597685 -0.054142263
0.06716397 -0.021431036 0.07574401 0.003947526 0.039338104 -0.07200602 0.06492751 -0.08255238
0.028917953 0.05879552 -0.04163435 0.06030301 0.08400997 -0.01732251 -0.08598202 0.05310481
0.060123138 -0.054057147 -0.03479625 -0.078884475 0.08694153 0.0030617192 0.039222457 -0.059425138
-0.0058662966 0.053209133 -0.08099934 0.04945203 -0.07382443 -0.08816517 -0.074176304 0.054721557
-0.05842059 0.044086717 -0.08615645 0.011696085 0.08671302 -0.06553413 0.066992976 0.037583195
0.041092314 -0.05566957 0.01054278 -0.0659647 0.008337893 0.019698702 0.023262195 0.0044172704
0.07243679 0.04737381 -0.006721124 -0.054789387 -0.08129518 0.06988173 -0.06921152 0.022995159
-0.02471432 0.035580695 -0.08394319 -0.016214296 0.024990134 -0.036207747 -0.039196156 0.06081707
0.049201287 -0.063944764 -0.035975274 0.07617851

weight f4 [1, 100]
00000000: a6be 063d ba6c 2cbd 7af7 09bd 5358 71bd
00000010: 0d6e 9e3d 0866 bebc 87e1 873d 8c0f f33c
00000020: 8a0c 09bd 00e3 95bd 2aef 63bd 82b1 5a3d
00000030: a501 9bbd 4521 cc3d 0d0d 7bbd 4cb3 e3bc
00000040: 383c abbd 11d7 bf3d 81a9 873d 14dc 9dbc
00000050: 8908 b93d 224a 583d 18f3 a83c e003 08bd
00000060: 6144 b93d 330f 28bd b4a9 c9bc 9220 583d
00000070: baab b0bd 8faf bdbd c02b 1c3c 3695 453d
00000080: 7d14 62bd 98c4 41bc c05b ffbc a652 87bd
00000090: f139 a23d 0ccd b53c 8fd2 893d 0e1b 5e3d
000000a0: 233b c13d 2d81 c3bd eaf9 9ebd 3bec b13d
000000b0: f8dc a53c 2c09 17bd 000d 36bd d761 afbd
000000c0: 1bb1 813d d0c5 46bc 0d5d 8dbd 7986 a23d
000000d0: 18d3 513c c22e 533d 454e 8bbd a59f b03d
000000e0: fef5 503d 1d3d 4abd 28d6 c0bd 923d cbbd
000000f0: 3de5 cabd aa18 103d b3e0 40bd 0048 10bc
00000100: 892d c63d fa69 2a3d 3abe 4f3d 5f03 b33d
00000110: b994 803d 28ec 44bc 10ff a5bd 8400 f43c
00000120: 4acd 00bd df38 b1bd ed61 afbd 56e5 213d
00000130: 4cfb 8abd 2d9e a4bd 0a01 5d3d 0c92 a63c
00000140: d06d 4d3c 428f 573d 6fc0 903d 17a1 59bd
00000150: d3ce 58bd 5d6c 75bd 1360 38bd 9f57 b53d
00000160: 9dca cabd 26c0 a6bd bcb8 cf3c f9ae 8d3d
00000170: 18cc ca3c 877e 39bd 5d0b bdbd 96fc 663d
00000180: e18f 813d b789 b7bd b0a7 be3b f562 993d
0.03289666 -0.042095877 -0.033683278 -0.058922123 0.07735834 -0.023242012 0.06634813 0.0296705
-0.033459224 -0.073186874 -0.055648006 0.05339194 -0.07568673 0.09967283 -0.061291743 -0.027795456
-0.08361095 0.093671925 0.06624127 -0.01926998 0.09034831 0.052805074 0.020623729 -0.03320682
0.09046245 -0.04103012 -0.024617054 0.052765436 -0.08626504 -0.09262001 0.009531915 0.048238
-0.05519532 -0.011826657 -0.03117168 -0.06607561 0.07921208 0.0221925 0.06729614 0.05422502
0.094351076 -0.09546123 -0.07762511 0.086876355 0.020246968 -0.03687398 -0.04444599 -0.08563583
0.06332608 -0.012132123 -0.06902514 0.07935805 0.012806676 0.051558264 -0.06802038 0.086242
0.051015846 -0.04937469 -0.09415847 -0.09923853 -0.09907005 0.03517977 -0.04708929 -0.008806229
0.09676654 0.041604973 0.050718524 0.08740877 0.062783666 -0.012019195 -0.0810529 0.029785402
-0.03144578 -0.086534254 -0.085636 0.039525352 -0.06786212 -0.08037982 0.05395607 0.020333312
0.012538388 0.052626856 0.07067954 -0.053132143 -0.052931618 -0.059917796 -0.0450135 0.08854603
-0.09901927 -0.08142118 0.025356643 0.06918139 0.024755523 -0.04528668 -0.09230683 0.05639323
0.06326271 -0.08961814 0.0058183298 0.07489578
