additional experiments/saved models/normal_mlp_num_1_mpnn_6.pth (torch, 54655 bytes, 3 tensors)

weight f4 [100, 128]
00000000: e751 3bbd aada 84bd d684 563d 7c86 b8bc
00000010: ba8d 4d3d 8009 c9bb f0aa 82bd 7e3b 653d
00000020: 3dac 8d3d 6a2f 73bd 1ff7 59bd cafd 4e3d
00000030: ffc2 37bd b82f 6e3c 6e0a 3a3d 03a3 3bbd
00000040: 2c67 3bbd 26d3 81bd 10f9 97bc b193 a9bd
00000050: 008a 153b e0af b5bb 5581 953d 707e bfbc
00000060: 376e 9c3d b69f 763d e854 79bc bcc3 97bd
00000070: f22a 8bbd 84d9 0c3d d034 6d3c e6ee 333d
00000080: d235 b0bd 282a 083d 5013 24bd fc05 f13c
00000090: 6aea a9bd a464 5dbd b45d 0f3d a4d7 a3bd
000000a0: cf9d 3fbd f20b aabd a461 c63c 181a aabc
000000b0: 4e18 74bd ed81 af3d 7cc0 95bc afd9 9e3d
000000c0: 4e42 4d3d 408b 853a d0cb 203c 2a02 9dbd
000000d0: 0f6c a0bd b490 a7bd 7e82 5bbd 8007 d93c
000000e0: 4020 c93c 4034 c93a 58b3 69bd 58f2 e53c
000000f0: e2a1 5c3d 80a0 d83c 50e3 aebc bfa6 923d
00000100: 7e7e 333d c0f4 9ebd 8084 d03c 9abe b3bd
00000110: 4ead 3f3d 40f2 f53a 397b 8f3d 56d4 84bd
00000120: 60a7 fb3b ea19 3b3d 68a9 2ebc 601b 9dbb
00000130: b64b 1c3d 18f1 b6bc 746a 82bd 2c06 8fbd
00000140: a0fc b3bc 44b2 f3bc 0221 82bd 91d5 59bd
00000150: 005f b739 c0ca d8ba d449 973c e078 8d3b
00000160: 8cde 823c 9117 46bd 4827 c4bc 4517 a3bd
00000170: 11f8 9fbd f54d 863d 8b2f 95bd cf5e 35bd
00000180: 982a dd3c df2a ae3d e016 06bd fcc3 913c
00000190: 60aa 0b3d 6e92 553d 426c 56bd 87a0 1dbd
000001a0: 72ff 343d c001 bcbc ab8c 9abd 4cbc 7fbd
000001b0: 74d4 b8bc 5399 ac3d 03b2 66bd c933 a83d
000001c0: 1a1f 663d 8840 95bc 75f8 82bd 6a57 1b3d
000001d0: c122 40bd 1cbd de3c aec7 7d3d 4967 04bd
000001e0: fce3 a1bd 3491 c13c 2109 a33d abd0 993d
000001f0: e5b7 1bbd dc1c dfbc 60b1 88bd 7062 833b
00000200: 4aee 88bd 11f7 933d 815d af3d 8831 a6bd
00000210: ca5a 86bd 9c04 063d a85d 6cbc 3e8a 533d
00000220: d8e9 45bc 12d4 613d 636f 893d f855 c3bc
00000230: 4872 febc 34cc e3bc d49d f33c 29df 9e3d
00000240: 828a 793d e0c3 1d3c 5f55 983d 5c88 83bc
00000250: 2425 db3c 968f 5f3d 4c66 d63c 098b 8abd
00000260: 204e bcbb c296 09bd 08c1 0ebc 4d1e 953d
00000270: 3615 1d3d d4d4 bf3c fc9b 20bd 81d6 a13d
00000280: cc50 09bd 8d74 9b3d 386b adbd 74a0 9fbd
00000290: 00c5 21bb 17c2 ab3d f839 b2bd ecfd c03c
000002a0: 75fe 953d 70f8 b8bc 0002 2bbc 2ae2 e3bc
000002b0: fbba 8f3d 68c0 a6bc 6295 18bd 43cb 04bd
000002c0: 7892 0fbc d486 96bc d0be ecbb 3113 913d
000002d0: 4871 89bd 28d9 bdbc 0ce9 48bd d7bd af3d
000002e0: 48f6 99bd 618f 983d 0073 e53b b94c 39bd
000002f0: d1cf 993d e285 6b3d 802c c83a eef1 133d
00000300: 9205 54bd 38d4 3dbc a072 543b bb23 9a3d
00000310: 1a0c 603d a68d b2bd 4695 6abd 58d7 d13c
00000320: 4a98 ecbc b68a 253d 94f1 afbc 8899 cabc
00000330: e8f6 423c dcb2 66bd 219b 823d 1036 ccbc
00000340: cb8f acbd b778 9fbd c0a6 53bb 0648 5a3d
00000350: 109c 95bd 34cf 35bd 2c01 963c 00ec 40ba
00000360: f087 a9bb b9e5 b13d af9b 5fbd 68dc 62bc
00000370: 76d6 3d3d daeb 1b3d 67ac 4ebd f4aa 093d
00000380: 40f4 c4ba d420 88bd 8d42 a63d cbac 9cbd
00000390: efff 27bd 4fd3 853d fa63 1abd 4afc 10bd
000003a0: fec5 563d 4023 813c 9418 49bd 0ceb 20bd
000003b0: 54aa c93c 22dd 433d 0a21 653d 0062 26bb
000003c0: 4c4a 99bd 2cbe a3bc 8e0a 453d e5da b43d
000003d0: a01e ec3c 1c40 8fbc c763 8f3d f4e7 943c
000003e0: d099 f93b a040 ba3c 783b 803c 6838 dcbc
000003f0: 53c9 853d e600 473d 10e7 fc3b 93ec 95bd
-0.045732405 -0.06487019 0.052372776 -0.022525065 0.05018399 -0.0061351657 -0.0638026 0.05596494
0.069176175 -0.05937139 -0.05321419 0.050535 -0.044863697 0.014537744 0.045420103 -0.045809757
-0.04575269 -0.063391015 -0.01855138 -0.08280123 0.002281785 -0.0055446476 0.07300059 -0.02337572
0.07638209 0.060210906 -0.015217997 -0.0741038 -0.067953005 0.034387127 0.0144779235 0.043929003
-0.086040154 0.03324333 -0.04005748 0.029421799 -0.08296664 -0.054051057 0.03500147 -0.080001146
-0.046781357 -0.0830306 0.02421648 -0.020764396 -0.05959349 0.08569703 -0.01828026 0.077563636
0.05011206 0.0010188594 0.009814218 -0.076664284 -0.078331105 -0.08181897 -0.053591244 0.026492834
0.02455151 0.0015350655 -0.0570558 0.02806966 0.05386532 0.02644372 -0.021348625 0.071607105
0.043821804 -0.07761526 0.025453806 -0.08776589 0.046796136 0.0018764213 0.07005925 -0.06485812
0.0076798648 0.04567901 -0.010660507 -0.004794523 0.03815814 -0.02233176 -0.063679606 -0.06983599
-0.021971047 -0.02974809 -0.06353952 -0.05318219 0.0003497526 -0.0016539916 0.018467821 0.004317388
0.01597526 -0.04836232 -0.023944512 -0.07963423 -0.07810987 0.06557838 -0.07284459 -0.04427987
0.02699785 0.08504271 -0.03273666 0.017793648 0.03409803 0.0521416 -0.052349336 -0.03848317
0.044188924 -0.022950053 -0.075463615 -0.062435433 -0.022562243 0.08427682 -0.05632211 0.08213002
0.056182005 -0.018219247 -0.06395046 0.03792516 -0.046908144 0.027189784 0.061958008 -0.032325063
-0.07904813 0.023628809 0.079607256 0.075105034 -0.038017172 -0.02723544 -0.066744566 0.0040095374
-0.06686075 0.072248586 0.08562756 -0.08114916 -0.065602854 0.03271924 -0.014426626 0.05164551
-0.0120796785 0.055133887 0.067106985 -0.023844704 -0.031060353 -0.027807333 0.029738344 0.07757408
0.060923107 0.00962922 0.07438158 -0.016056232 0.026751108 0.054580294 0.026171826 -0.067648
-0.005746618 -0.03359104 -0.008713014 0.0728117 0.038350306 0.023416914 -0.03921126 0.079022415
-0.03352432 0.0759059 -0.08467716 -0.07794276 -0.0024684072 0.08386629 -0.08702463 0.02355858
0.073239245 -0.022579402 -0.010437489 -0.027817804 0.070180856 -0.020355418 -0.037251838 -0.032420408
-0.008762948 -0.018374838 -0.007224895 0.070837386 -0.0671106 -0.023174837 -0.049050376 0.08581131
-0.075176775 0.07449222 0.0070022345 -0.045239184 0.07510341 0.057500727 0.0015272051 0.036119394
-0.051763125 -0.011586241 0.0032416955 0.07526346 0.05469904 -0.087184235 -0.057271264 0.02561538
-0.02888121 0.04041549 -0.021477498 -0.024731413 0.011899687 -0.056322917 0.06377245 -0.024928123
-0.08425864 -0.077866964 -0.0032295436 0.053291343 -0.07305157 -0.044387057 0.018311106 -0.00073593855
-0.0051736757 0.08686394 -0.05459183 -0.013846494 0.046347104 0.038066722 -0.050457384 0.0336103
-0.0015026405 -0.066468865 0.08118162 -0.07650145 -0.04101556 0.065344445 -0.037693 -0.03539685
0.052434914 0.015763879 -0.049095705 -0.03928666 0.024617352 0.04781831 0.05593971 -0.0025388002
-0.07484874 -0.019988142 0.04810577 0.08830813 0.028823197 -0.017486624 0.07001453 0.01817701
0.007617213 0.022735894 0.015653357 -0.026882365 0.0653254 0.04858484 0.0077179745 -0.073205136

bias f4 [100]
00000000: c5e4 5dbd fa71 413d c8a1 cd3c 745e c03c
00000010: 86e6 203d 2f97 8a3d 5084 4d3c 7040 a93c
00000020: da3f 663d 80fb 703b 00f5 bcbc f062 89bc
00000030: 0ca5 b1bc 58a7 6dbc d538 883d b767 28bd
00000040: dcf3 123d 5b26 a53d e00f e3bb 1b2c 61bd
00000050: 880a 12bc e8ca 2bbc b0e0 debb 7b35 4bbd
00000060: b6de 77bd 8093 523b d9f7 963d 7089 73bd
00000070: 12fb 6f3d 37d2 9c3d c038 d33b 4c11 843c
00000080: 1ba1 62bd 16a0 3d3d 9705 b0bd 816d 8c3d
00000090: ae02 a4bd cdc1 8e3d 4634 2abd 5ceb 69bd
000000a0: 0490 87bd da54 22bd e7e3 5abd a089 c13b
000000b0: b6ec 233d b2c1 3fbd ff07 abbd 7692 323d
000000c0: 4279 86bd a011 89bd 00c6 6f3b 83b0 b13d
000000d0: 164b 1b3d d5bc a13d d86a b2bd 6cd4 f8bc
000000e0: be6e 13bd 8044 333a bc60 f5bc 81de 85bd
000000f0: 586f 953c bd02 9a3d 207a 75bd f8a5 8cbd
00000100: 94a6 a23c e449 9dbc 0d64 5ebd 504c 5a3c
00000110: 00bb da3a 88d0 efbc 5884 3f3c f03d d7bc
00000120: b944 8a3d 6786 943d f04a b4bc 5a58 453d
00000130: 4211 4cbd a230 8cbd 6522 2abd a63f 8fbd
00000140: 62bc 1c3d 9d08 29bd 6466 e0bc 60b0 5d3b
00000150: 004e a4ba e08a 6cbb 7a73 95bd 5dd8 8abd
00000160: 117d 9e3d 30d1 75bc 6414 e0bc 7ebb a1bd
00000170: 4abb 6c3d e0b0 53bc 204f 8dbc f8ae 04bd
00000180: bc0f fcbc 20b4 96bb 60eb 23bc 2cda 79bd
-0.05417325 0.047227837 0.025101557 0.023482539 0.039282344 0.06767117 0.012543753 0.020660609
0.056213237 0.0036771 -0.023066044 -0.01677081 -0.021685146 -0.01450523 0.06651465 -0.041114535
0.035877094 0.08063956 -0.0069293827 -0.054973703 -0.008913644 -0.010485388 -0.006801687 -0.04961155
-0.060515128 0.0032131374 0.07371492 -0.059457242 0.05858905 0.07657283 0.006445974 0.016121529
-0.055329423 0.046295248 -0.08594816 0.06856824 -0.080083236 0.06970558 -0.041553758 -0.05710922
-0.06619266 -0.039631702 -0.05344 0.0059062988 0.040020667 -0.04681558 -0.083511345 0.043596707
-0.06566097 -0.06692815 0.0036586523 0.08676245 0.037913404 0.07897345 -0.08711785 -0.030374728
-0.035994284 0.00068385154 -0.029953353 -0.0653658 0.01824157 0.075200535 -0.05993092 -0.068675935
0.019854821 -0.019200273 -0.054294635 0.013323858 0.001668781 -0.02927424 0.011689268 -0.026274651
0.06751389 0.07252198 -0.02200839 0.04817996 -0.049821146 -0.068452135 -0.041536707 -0.06994562
0.038265593 -0.04126798 -0.027392574 0.0033827052 -0.0012535453 -0.0036093518 -0.07297416 -0.06779549
0.07738698 -0.0150034875 -0.027353473 -0.078970894 0.0577958 -0.012920588 -0.017249644 -0.032393426
-0.030769221 -0.0045991093 -0.010004848 -0.06099908

weight f4 [1, 100]
00000000: d03c 84bb c8f9 f6bc b686 90bd d332 b7bd
00000010: c768 b1bd 8a05 703d 5a5b acbd 79dc bc3d
00000020: f74b 45bd d89a cc3c 3acf 31bd 8b86 c93d
00000030: c7b6 64bd 9043 423c 373e 68bd 4438 df3c
00000040: 6228 593d 74a7 ec3c 9827 92bd b018 01bd
00000050: ca2b 773d 2ddb c53d 9ae2 26bd 73e1 2abd
00000060: 6c17 c1bc 5057 2e3c c201 733d 1863 4fbc
00000070: 9325 cc3d 5638 05bd 80a8 d9bb 7480 debc
00000080: ca8c 20bd 20ad f2bc 7b74 a7bd aca3 fb3c
00000090: 28b4 c13c 3b75 cbbd eafa 3cbd f474 92bc
000000a0: e777 2abd 0099 c53b 400a 87bc 0080 a23a
000000b0: 6024 b93c 1deb 98bd c721 71bd 1805 823c
000000c0: a779 3abd d8be 393c 32d3 603d 3e95 3f3d
000000d0: b470 d13c 24d6 f33c ecb0 a63c 9d97 ab3d
000000e0: 8f81 c2bd 008e d6b9 9457 ef3c 18d5 43bc
000000f0: 68aa 553c 30c2 b1bb 6870 abbd b0bf 49bd
00000100: 03e4 77bd 4c6b c5bc 204c cebc 6392 95bd
00000110: 79d0 c33d 2025 9f3b b48b 01bd 4862 cc3c
00000120: b992 a73d 8c5b af3c 300f c43b 585d 17bc
00000130: ca31 2abd 0cdf c13c 63ae 9a3d 40f0 3c3b
00000140: 3cea 0fbd a2b3 4a3d 5abb 40bd e049 afbd
00000150: d89e a93c d84e 87bc f9a4 ad3d 2a40 cabd
00000160: 90cc 68bd f0b0 7dbd 8da8 60bd e51a a53d
00000170: b53b 823d 3aa4 49bd 1654 093d 72f6 7e3d
00000180: d0c0 9dbd ace9 f4bc 715c c83d 981d adbc
-0.0040355697 -0.030148402 -0.07056944 -0.08945241 -0.08662563 0.058599032 -0.084158614 0.09221739
-0.04816815 0.024976179 -0.043410517 0.09840115 -0.055838373 0.0118569285 -0.056699958 0.02724851
0.053017028 0.028888442 -0.07136458 -0.031517684 0.060344495 0.09660945 -0.040743448 -0.04171891
-0.023570739 0.010640934 0.05932785 -0.012657903 0.09968104 -0.03252443 -0.006642401 -0.02716086
-0.039196767 -0.029623568 -0.08176514 0.030717693 0.023645476 -0.09934469 -0.046137728 -0.017878033
-0.041618254 0.006030202 -0.01648438 0.0012397766 0.022600353 -0.07466719 -0.058870103 0.01587157
-0.045526173 0.011337005 0.05488891 0.046773188 0.025566436 0.029765196 0.020348035 0.08378527
-0.094973676 -0.0004092306 0.029216565 -0.011952661 0.013041116 -0.0054247603 -0.08371049 -0.049255073
-0.060520183 -0.024099015 -0.025182784 -0.07303312 0.095612474 0.0048567206 -0.031627372 0.024949208
0.08182282 0.021405958 0.005983256 -0.0092385635 -0.04155139 0.023665927 0.07552793 0.0028829724
-0.035135493 0.049487717 -0.047053672 -0.085590124 0.020705625 -0.016517088 0.08478732 -0.098755196
-0.05683571 -0.06193632 -0.054848243 0.0806177 0.063590445 -0.049228884 0.033527456 0.062246747
-0.07702792 -0.02989658 0.09783257 -0.021132275
