additional experiments/saved models/normal2_mlp_num_1_mpnn_8.pth (torch, 54661 bytes, 3 tensors)

weight f4 [100, 128]
000000 00 04 3f 3a 41 64 93 3d 88 49 e5 3c 64 80 ca 3c
       0.0007286668 0.07196856 0.027989164 0.024719425
000010 50 c2 85 3c 00 b9 60 3c 2c 99 a6 bc 8d 66 1e bd
       0.016328007 0.013715982 -0.02033671 -0.03867202
000020 db ce 45 bd f3 1a 80 bd 19 f3 9c bd 75 30 a7 3d
       -0.048292976 -0.0625514 -0.07663555 0.08163539
000030 52 52 88 bd 8a 53 84 bd fb df 73 bd ac 10 a6 bd
       -0.06656326 -0.06461246 -0.059539776 -0.08108649
000040 78 a2 c7 bc 73 94 74 bd b4 ad b1 bd 00 ca e7 3a
       -0.024369463 -0.059711885 -0.08675709 0.0017684102
000050 ad a3 a8 3d c0 5d e3 3b 80 d1 49 3b 14 62 ab bc
       0.08234344 0.006938666 0.0030795038 -0.02092079
000060 fa c0 7a 3d a6 51 29 3d b0 b5 fe bb ba ee 49 3d
       0.061219193 0.04133763 -0.0077731237 0.049299933
000070 61 5d 14 bd 8a e1 18 3d 1e b3 56 3d 48 6e bb 3c
       -0.036221866 0.037324466 0.052416913 0.022879735
000080 9b d0 9c bd 47 d4 2c bd ec ad b9 3c 41 40 92 3d
       -0.07656976 -0.04219463 0.02266594 0.07141162
000090 31 f6 95 3d 4b 9f 9f 3d b0 a3 1a 3c 98 69 19 bd
       0.07322348 0.077940546 0.00943844 -0.037454218
0000a0 53 d1 83 3d 10 08 11 bc d0 98 31 3c 40 99 c9 bb
       0.0643641 -0.00885202 0.010839656 -0.006152302
0000b0 92 35 85 bd fe 86 db bc c1 9d 86 3d 1d fb 7e bd
       -0.06504358 -0.026797768 0.06573058 -0.0622512
0000c0 d0 06 ac 3b 94 87 9d bc fd a7 aa bd c1 fa 14 bd
       0.0052498356 -0.019229688 -0.083328225 -0.03637195
0000d0 b9 ca 81 3d 50 6a 47 bc 70 90 7f bd 80 47 91 3c
       0.063374944 -0.012171343 -0.062393606 0.01773429
0000e0 0a 52 4a 3d d2 2c 56 3d a1 16 81 3d 0e 9b 68 3d
       0.049394645 0.052288838 0.06303144 0.056788497
0000f0 b8 76 62 bc 38 a4 40 bc ae 36 72 bd 4f c6 48 bd
       -0.01382225 -0.011757903 -0.059134178 -0.049017247
000100 05 6e a7 3d 28 23 01 3c e8 97 86 bd 6d 2d 0c bd
       0.081752814 0.007881917 -0.065719426 -0.03422301
000110 60 3a c6 3b c8 a8 13 3d f0 5e 86 bd 80 d6 7b 3a
       0.0060494393 0.036049634 -0.06561077 0.0009606853
000120 e0 9b 10 3d 08 43 d8 3c b0 db 5a bc 74 52 e2 3c
       0.035304904 0.02639915 -0.013358042 0.027627207
000130 19 b0 77 bd 50 e9 b0 3b 57 a2 8c bd 67 23 94 3d
       -0.060470674 0.005398907 -0.06866901 0.07233315
000140 62 2b 1f 3d 36 25 f8 bc c3 9c 9b bd 30 aa 4f bc
       0.038859732 -0.030291181 -0.07598259 -0.012674853
000150 bb 78 9e bd 2b 49 a6 3d 19 6a 95 3d e2 c0 35 3d
       -0.07737871 0.081194244 0.07295627 0.0443734
000160 7e a1 16 3d ea e3 41 3d 00 88 71 3a 8a a5 72 3d
       0.036775105 0.047336496 0.0009213686 0.0592399
000170 a8 e7 fd 3c c9 db 14 bd ac f3 01 bd 81 82 22 bd
       0.030994251 -0.036342416 -0.031726524 -0.03967524
000180 20 43 55 bb 68 74 3c bc cd da 03 bd f0 ae ce 3b
       -0.003254123 -0.011502363 -0.032191087 0.0063074753
000190 c8 8b 2b bd 5e ed 65 bd e2 b4 25 3d b9 a9 36 bd
       -0.041881353 -0.056134574 0.040455706 -0.044595454
0001a0 20 17 f4 bb f5 d0 85 3d 78 ae 13 3d ac 2d c5 3c
       -0.007449046 0.06533996 0.03605506 0.02406963
0001b0 de 9b 94 bd 4a a6 12 3d 80 7c 3e bb 87 14 b0 3d
       -0.07256292 0.035803117 -0.0029065907 0.08597665
0001c0 4b bd b0 bd 14 b7 1f bd 2d 38 a2 bd 02 1f ee bc
       -0.08629855 -0.038992956 -0.07920871 -0.02906752
0001d0 3e dd ac bd ae d0 5c bd 7e ee 7c 3d 99 66 b4 3d
       -0.08440636 -0.05390995 0.06175088 0.088086314
0001e0 72 bf 1d 3d 08 4c 51 bd 51 07 a5 3d 40 ac b3 bc
       0.038512655 -0.0510979 0.08058036 -0.021932721
0001f0 e5 da 84 3d c8 b7 e0 3c a4 b0 98 bc d7 5b 8b bd
       0.06487063 0.027431384 -0.018638916 -0.068046264
000200 02 09 2e bd f7 c0 30 bd 8e 95 44 3d 69 cf a5 3d
       -0.04248906 -0.043152776 0.04799419 0.08096201
000210 cb 15 a6 3d 80 3d a1 bd bf 4b 92 3d 90 47 a2 bb
       0.081096254 -0.07873058 0.07143354 -0.0049523786
000220 0f 2e a4 3d 0e 07 3b 3d b5 8c 4b bd 1c 3e fe 3c
       0.080165975 0.045661025 -0.049694736 0.031035475
000230 66 13 55 bd c4 fd ca 3c 0e a5 60 3d cd 1c ad bd
       -0.052020453 0.024779208 0.05484491 -0.08452759
000240 f1 40 68 bd 66 fa 26 3d c1 80 38 bd 8c f2 ed 3c
       -0.056702558 0.040766142 -0.045044664 0.02904632
000250 3b 90 94 bd 3e 45 59 3d f2 9e 27 3d 48 be c6 bc
       -0.07254072 0.05304455 0.040923066 -0.024260655
000260 80 4f df 3c 00 5b af b9 20 74 12 3d 90 d9 49 bc
       0.027259588 -0.000334464 0.035755277 -0.012319937
000270 64 57 98 3c 48 79 2b 3c d5 54 a9 bd 7a 29 fd bc
       0.018596359 0.010465927 -0.082681336 -0.030903567
000280 a8 dd c5 3c b4 b1 93 3c b0 11 37 bd 9e dc fd bc
       0.024153545 0.018029071 -0.044694602 -0.030988988
000290 80 45 0c ba 66 98 6e 3d e6 40 a1 bd 12 f2 6e bd
       -0.00053509325 0.058250807 -0.078737065 -0.058336325
0002a0 de d9 5d bd cb 32 58 bd 30 c9 e6 bb 84 68 a2 bc
       -0.054162852 -0.052782815 -0.0070430264 -0.019825228
0002b0 2f b1 86 bd fe c3 68 3d 2d 96 9e 3d 17 ae 89 3d
       -0.06576764 0.056827538 0.077434875 0.06722658
0002c0 25 f1 98 3d 60 c9 5a bd a0 ef 26 3b 6f f7 2a bd
       0.0746787 -0.053414702 0.0025472417 -0.041739877
0002d0 d4 d4 f1 3c 2e 8c 75 3d d8 ae 88 bd 6c c3 fd 3c
       0.02952043 0.05994814 -0.06673974 0.030976973
0002e0 3b 16 85 3d 6d bd 84 bd b0 f0 a5 3b 78 70 62 bc
       0.06498381 -0.064814426 0.0050640926 -0.01382076
0002f0 d7 44 ab 3d 81 bd 05 bd 38 1c 60 bc 01 a7 b2 3d
       0.083627395 -0.032651428 -0.013678603 0.0872326
000300 0b 8d a3 3d e0 6a cc 3c 70 88 70 bc 5f d8 85 bd
       0.07985886 0.024953306 -0.014680967 -0.0653541
000310 78 73 39 bc d4 d9 b9 3c 20 3f 1b bb 09 d1 b0 3d
       -0.011319034 0.022686876 -0.0023688748 0.0863362
000320 62 9d 42 bd b1 ac 82 bd 9e f2 b0 bd 10 21 2b 3c
       -0.047513373 -0.063805945 -0.086400256 0.010444894
000330 7c ad 01 3d e8 e5 66 bd 10 61 a8 bd 5f bb 9a bd
       0.03165959 -0.0563716 -0.08221638 -0.075552694
000340 0f c8 ac bd b4 e4 97 3c f9 e6 af 3d 23 58 9d 3d
       -0.08436596 0.018541671 0.085889764 0.07682826
000350 a8 44 8d bd f9 f8 a2 3d 2a 60 99 bd b1 f5 88 3d
       -0.06897861 0.07957644 -0.07489045 0.06687487
000360 c0 67 25 3c e3 8e aa 3d cf 72 8c 3d d4 c9 8f bd
       0.010095537 0.08328035 0.068578355 -0.070209175
000370 00 16 67 3b 00 45 84 bc 17 2b 85 3d 9c 14 32 bd
       0.0035260916 -0.016146183 0.06502359 -0.043476686
000380 48 1c 9b 3c 1b f8 8f bd e0 71 14 bb e0 52 8c bc
       0.018934384 -0.07029744 -0.0022650883 -0.017129362
000390 38 6b 9f 3c 49 7e 61 bd 00 c8 24 3a a5 54 a2 3d
       0.019460306 -0.055052076 0.0006285906 0.07926301
0003a0 8e 1b 2e 3d 0c c3 7d bd 5d 54 94 bd 80 fb 44 bc
       0.042506747 -0.06195359 -0.072426535 -0.012022853
0003b0 a1 75 88 3d 9e a2 5f 3d db 90 af bd 66 2e 73 3d
       0.06663061 0.054598443 -0.08572551 0.05937042
0003c0 af c4 3e bd 3b 0a 8a 3d 20 c4 61 bc 2a df d6 bc
       -0.04657429 0.067402326 -0.01377967 -0.02622946
0003d0 00 6e 87 bc b5 63 98 3d a6 e9 18 3d 9f a0 5d bd
       -0.016531944 0.074408926 0.0373322 -0.05410826
0003e0 d0 37 79 bd fc fc 0e bd 16 4c 5d 3d b8 6e bc 3c
       -0.060844243 -0.034909233 0.05402764 0.023002014
0003f0 11 58 35 bd c2 1c 6a 3d 36 8a 77 3d 20 ea 90 bd
       -0.04427344 0.05715633 0.060434543 -0.07075906

bias f4 [100]
000000 b1 2c a8 3d c6 3d 0c 3d 38 07 14 3c 30 b2 5c 3c
       0.08211649 0.0342386 0.009034924 0.013470218
000010 b0 67 62 bd c0 42 2c 3b 35 60 98 3d 2e ef 23 3d
       -0.055274665 0.0026284903 0.07440225 0.04002302
000020 75 38 8d 3d b0 e8 d2 bc 40 37 fb ba a9 8b 90 bd
       0.06895534 -0.02574572 -0.0019166246 -0.07057888
000030 59 c1 57 bd a8 78 43 3c 30 23 09 3d 10 ef b5 3c
       -0.052674625 0.011930622 0.033480823 0.02220872
000040 b0 b5 dd bb 75 a2 9f bd fb 5e 66 bd eb dc 8f 3d
       -0.0067660436 -0.07794658 -0.056242924 0.07024559
000050 42 0b 93 bd d4 0b c0 bc 37 fa 99 3d 8c e5 93 bd
       -0.07179882 -0.02344314 0.07518428 -0.07221517
000060 98 6a 0e bc 8e 43 b4 bd ff 29 a3 bd 20 b8 49 bc
       -0.008692406 -0.088019475 -0.079669945 -0.012311965
000070 dc 3d a1 bd 26 37 1c 3d 3d d0 91 3d 83 1d 80 bd
       -0.07873127 0.03813853 0.071197964 -0.06255629
000080 94 4b a8 3c a8 d3 cb 3c 30 0f d1 3c 14 37 92 bc
       0.020543851 0.024881199 0.025519937 -0.017848529
000090 fc 1a 47 bd 58 08 6f bc 9a 9f 04 3d 44 01 66 bd
       -0.04860972 -0.014589392 0.03237877 -0.05615355
0000a0 e0 62 9a bc e7 26 af 3d 70 14 4b bc b1 de 25 bd
       -0.018845975 0.08552342 -0.012395009 -0.04049558
0000b0 0c 8e 89 3c b8 62 07 bc 1c 43 97 bc 3d cd 63 bd
       0.016791366 -0.0082632825 -0.018464617 -0.055615652
0000c0 99 84 06 bd 28 e1 92 bc e8 07 18 bd 6e b1 90 bd
       -0.0328413 -0.017929628 -0.037116915 -0.07065092
0000d0 bb 94 9b 3d 70 1d 0e 3d 60 c7 83 3c b8 af be 3c
       0.075967275 0.034696043 0.01608628 0.023277149
0000e0 17 14 88 3d 53 4e b2 3d 92 8c 22 bd 2f aa 86 bd
       0.06644457 0.087063454 -0.03968484 -0.06575429
0000f0 84 7b 99 3c c2 0d 30 bd 72 da 86 bd 70 53 f5 bb
       0.018735655 -0.04298187 -0.06584634 -0.007486753
000100 06 63 19 3d 48 b1 55 bd 3b b5 35 bd 8c 38 82 3c
       0.03744795 -0.05217102 -0.044362288 0.015896104
000110 f6 75 f7 bc aa 86 3b 3d c0 04 e7 3c b8 44 b5 3c
       -0.030207615 0.045782723 0.028200507 0.022127494
000120 b2 d5 4d 3d d0 d0 f5 bc a2 cc 1e 3d fc 9b 24 bd
       0.050252624 -0.030006796 0.03876937 -0.04018782
000130 9c e6 85 bd b0 60 80 bd 52 99 1b 3d 65 ea 9c 3d
       -0.06538126 -0.06268442 0.037988015 0.07661895
000140 c7 89 ac 3d a4 1f 6c bd 4a 00 39 bd 95 97 94 bd
       0.084247164 -0.057647362 -0.04516629 -0.072554745
000150 e8 f4 a3 bc 60 9d f5 3c ab f7 86 3d ba 5a 4f bd
       -0.020014241 0.029982269 0.06590208 -0.050623633
000160 f0 03 0c 3d 4c 38 ad 3c ea bb 50 bd 28 03 09 bc
       0.034183443 0.021145009 -0.05096046 -0.008362569
000170 27 1e 89 3d 70 6c ab bd b7 42 41 bd 42 b3 16 bd
       0.06695204 -0.08370292 -0.047182765 -0.036792047
000180 18 42 00 bc 0d 6c 4b bd 2a 1d 7e 3d 04 7b 04 3d
       -0.007828258 -0.049663592 0.06203953 0.03234388

weight f4 [1, 100]
000000 0f a6 b5 3d e7 3c 39 bd 7d 7f 4a bd ec 92 8a bc
       0.08869564 -0.045224097 -0.04943799 -0.016915761
000010 8b be 98 3d 96 46 39 3d f2 7d 05 3d 30 51 db bb
       0.07458218 0.04523333 0.032590814 -0.006693028
000020 1a 3f 54 bd e0 00 9e bc 8a 71 6e bd 4b 18 88 3d
       -0.05181799 -0.019287527 -0.058213748 0.066452585
000030 d5 be c2 3d f3 77 4f bd 7b fe a8 bd 64 5c 18 bd
       0.095090546 -0.050651502 -0.08251663 -0.037197486
000040 43 1f be bd ee e4 7a 3d ff 64 94 3d f6 57 5d 3d
       -0.092833064 0.06125348 0.07245826 0.054038964
000050 b3 90 ab 3d 7a 7d a8 bd 31 50 b0 3d d0 8b 4a bc
       0.083772086 -0.08227058 0.08609045 -0.012362435
000060 7a 03 22 3d ce c4 2b 3d f6 6d 68 3d dd 0a 2c bd
       0.039554097 0.041935734 0.056745492 -0.042002548
000070 00 d1 3a bc 2d b4 31 bd 31 1a 84 3d b1 07 86 3d
       -0.011402369 -0.04338472 0.06450308 0.06544436
000080 14 b8 a6 3c 30 73 cb bb 11 9d c9 3d 1d b5 2f bd
       0.020351447 -0.0062088 0.09844411 -0.042897332
000090 75 0a c1 bd bb 97 c5 3d e9 a1 a0 3d 13 9e be 3d
       -0.09425823 0.09648081 0.07843382 0.09307494
0000a0 a8 f9 6b bc 1d b4 97 bd 9d 46 4f bd bb 4a a9 3d
       -0.014402784 -0.07407401 -0.05060445 0.08266207
0000b0 41 63 c7 3d cd 72 7a bd f9 fb 84 3d 00 0e 8b 3c
       0.09735728 -0.06114464 0.064933725 0.01697445
0000c0 70 2b b6 bd d3 6a ba bd d7 d2 bb 3d 42 16 69 3d
       -0.08895004 -0.09102406 0.09171074 0.056905992
0000d0 88 8c 99 bd 7a 23 41 3d 4d f6 c9 bd 92 50 1f 3d
       -0.07497507 0.047152974 -0.09861431 0.038895197
0000e0 36 e5 0a 3d 92 89 86 bd ed 6d b3 3d 32 49 07 3d
       0.03391 -0.06569208 0.08761201 0.03302879
0000f0 e9 ab c6 3d 6d 8e 85 3d 94 08 bd bc 1a dd 73 3d
       0.09700758 0.06521306 -0.02307538 0.05953703
000100 83 8e 9f bd 93 7e 22 bd b6 13 01 bd a9 af 88 3d
       -0.07790854 -0.03967149 -0.03151294 0.066741295
000110 28 7e 0d 3c 78 24 f8 bc 71 4c 96 3d 3b fd ba bd
       0.008636035 -0.030290827 0.07338799 -0.09130331
000120 66 b3 19 3d 27 f9 b6 bd a0 3f 11 bb e2 c8 b4 bd
       0.037524603 -0.08934241 -0.0022163168 -0.08827378
000130 da d3 66 3d 74 c9 dd bc b0 15 05 bd 5a e6 2b bd
       0.05635438 -0.0270736 -0.032491386 -0.041967727
000140 42 df 55 3d eb 24 c4 bd fd 14 b0 3d cd 1d 60 bd
       0.05221487 -0.09577354 0.08597753 -0.05471592
000150 e8 b0 26 bc 28 15 a5 bc ea 61 65 3d 47 d5 c3 bd
       -0.010174014 -0.02015169 0.05600158 -0.09562164
000160 40 fc 12 3b b0 ac 4f bd 08 1c a4 bc fa 42 73 bd
       0.0022428185 -0.050701797 -0.020032898 -0.059390046
000170 ac e2 af 3c b4 c9 e1 3c a0 6b 12 bd ca a3 5a bd
       0.02147039 0.027562 -0.03574717 -0.053378858
000180 5a 85 83 bd dd 97 a7 bd 6e f7 9c bd 57 2a 58 bd
       -0.06421919 -0.081832625 -0.07664381 -0.052774753
