additional experiments/saved models/normal2_mlp_num_1_mpnn_1.pth (torch, 54661 bytes, 3 tensors)

weight f4 [100, 128]
000000 16 c3 53 3d ba 02 32 3d f5 d6 9a bd 54 6c e5 3c
       0.05169972 0.04345963 -0.07560531 0.028005756
000010 5c ef c0 3c f4 6e d2 bc 7f fb 3e bd 18 0e b7 3c
       0.023551635 -0.025687672 -0.046626564 0.022345588
000020 c2 b3 8b bd 12 97 fe bc fd be 8f 3d 78 e4 2f bd
       -0.068213955 -0.031077895 0.0701885 -0.042942494
000030 12 7e f3 bc 62 93 19 3d 1e b4 45 bd a9 db 10 bd
       -0.029723201 0.03749407 -0.048267476 -0.035365734
000040 0d f7 9a 3d 46 7d 8f bd 22 68 67 bd dc 27 8e bd
       0.075666524 -0.07006316 -0.056495793 -0.06941196
000050 72 68 2a 3d 1c a4 c8 3c 6d 0a 82 bd 5e 9f 25 3d
       0.041603513 0.024492316 -0.06349645 0.040435188
000060 c0 dd 42 bc 82 f6 5f 3d bc 3f 84 bc 7b 3c b4 bd
       -0.01189369 0.054678448 -0.016143672 -0.08800598
000070 7b 2b b3 3d bb 50 a0 bd 23 7a 73 bd c0 9b f2 bb
       0.087485276 -0.07827898 -0.05944265 -0.0074038208
000080 3d d0 98 3d aa 0c 43 bd f6 65 ae bd 69 1b a7 3d
       0.07461593 -0.0476195 -0.08515541 0.08159525
000090 f0 68 f9 3b 80 fb fd ba 46 7a 28 3d 00 3a 28 bb
       0.0076113865 -0.0019377321 0.041132234 -0.0025669336
0000a0 08 d2 5b bd 08 72 d0 3c 58 f0 dc 3c cb f1 9a 3d
       -0.0536671 0.025445 0.026970074 0.075656496
0000b0 ee 00 66 3d 60 20 63 3b 6e 8c 1d bd 7a 32 7f 3d
       0.05615323 0.0034656748 -0.038464002 0.062303998
0000c0 d6 98 79 3d 96 15 44 bd 10 73 80 bd a6 a4 30 3d
       0.06093677 -0.04787215 -0.062719464 0.04312577
0000d0 4b a6 a2 bd 00 b5 af bc 46 5f d4 bc ef 16 14 bd
       -0.07941874 -0.021448612 -0.025924336 -0.036154684
0000e0 66 7e 28 3d c2 65 2c 3d 99 42 8a 3d 86 8e 0b 3d
       0.041136168 0.04208923 0.06750984 0.034071468
0000f0 ea ad a1 bd 80 b8 5b bd f6 cc 7e 3d ee a5 67 bd
       -0.078944996 -0.05364275 0.062207185 -0.056554727
000100 42 fd 6c 3d a4 10 ad bc a0 c3 69 bc a8 f8 14 bc
       0.057858713 -0.021126099 -0.014267832 -0.009092487
000110 74 a4 5e bd d8 35 7c bc e7 e6 8e 3d f8 19 49 bc
       -0.054356053 -0.015393697 0.06977635 -0.012274258
000120 fd 46 a9 3d d2 87 47 3d d6 78 03 3d 5a 2a 25 3d
       0.08265493 0.048713513 0.03209766 0.040323593
000130 fb 34 99 3d 71 3d aa 3d e0 ff ee bc 3e e7 50 3d
       0.07480808 0.083125 -0.029174745 0.05100178
000140 10 48 65 3c 8d fa 92 3d 40 6a bc 3c 00 5c 20 3a
       0.013994232 0.07176695 0.022999883 0.00061172247
000150 48 1a 9b 3c 81 0b ab bd c4 f9 da 3c ce cd 8e bd
       0.01893343 -0.083518036 0.026730426 -0.06972848
000160 f8 5f 7b 3c 92 c4 e0 bc d3 3c 9f 3d 10 00 3c bc
       0.015342705 -0.027437482 0.07775273 -0.011474624
000170 2c 10 b1 bd 49 7e 9c 3d 3a 06 41 3d 8b b8 ab 3d
       -0.08645663 0.076412745 0.04712508 0.08384808
000180 3a c8 73 3d ab 45 68 bd 58 04 8c 3c ce 0f 5a 3d
       0.059517123 -0.056707066 0.017091915 0.05323773
000190 47 6a b0 3d 2e 3f 3a 3d d2 b8 ab bd 76 62 09 3d
       0.08614021 0.04547041 -0.08384861 0.033541165
0001a0 c8 08 0f 3c 4a 4a 4d 3d 30 f7 81 bc 2a 6e ae bd
       0.008730121 0.050119676 -0.015864938 -0.08517106
0001b0 12 be 10 3d cf 24 3a bd bc 2d 9d 3c 50 b7 80 bc
       0.035337515 -0.04544526 0.019186847 -0.01571241
0001c0 4c f3 b4 bc 8c d0 9d bc d0 99 78 3c ab ba 3f bd
       -0.02208867 -0.019264482 0.0151733905 -0.04680888
0001d0 5a 61 16 3d a2 0d 11 3d a0 65 8c bd 90 56 ce bb
       0.036713935 0.035413392 -0.06855321 -0.00629694
0001e0 a2 b5 34 bd af ec 91 bd 40 dd 46 3b f0 0f 93 bd
       -0.04411853 -0.07125222 0.0030344278 -0.07180774
0001f0 40 21 de ba 4d c4 81 bd 9f e4 af 3d c0 b5 fe 3b
       -0.0016947165 -0.063362695 0.08588528 0.007773131
000200 c0 09 f1 ba 4e b4 3b 3d be d1 3c bd 1c df fe 3c
       -0.0018389747 0.04582625 -0.046098463 0.031112246
000210 b9 70 ad 3d 40 2c 1e bd 55 d2 89 3d ea da 8b bd
       0.08468766 -0.03861642 0.06729571 -0.06828864
000220 c0 7c 04 bb eb 03 a7 3d f4 ee 01 bd fd 45 ab bd
       -0.0020215958 0.08155044 -0.031722024 -0.083629586
000230 fc 2c 8d bd 04 43 f2 3c 80 37 24 3a 18 90 85 bd
       -0.06893346 0.029572971 0.00062643737 -0.06521624
000240 30 e3 d8 3b 72 83 2e 3d 10 14 f9 3b c1 48 90 bd
       0.0066188797 0.042605825 0.0076012686 -0.07045127
000250 7b 2b 93 3d c0 85 e8 bb 60 6a e6 3c 6a 25 3d 3d
       0.071860276 -0.0070960224 0.028126895 0.04617826
000260 00 c4 ed ba e4 59 13 3d b8 35 e3 3c 07 af 23 bd
       -0.0018140078 0.0359744 0.027735576 -0.03996184
000270 30 01 06 3d bb 3b 28 bd 43 c0 b4 3d 28 19 7f 3c
       0.032715976 -0.04107259 0.088257335 0.015569963
000280 90 1b 9c 3b 46 7b 28 3d f6 8e 44 3d a0 b2 9c bd
       0.004764028 0.041133188 0.0479879 -0.076512575
000290 fa c8 01 3d 00 63 a1 bb 2f ed 41 bd 00 44 bd 38
       0.031685807 -0.004925132 -0.047345337 9.024888e-05
0002a0 80 27 c7 3c 3b 31 5b bd 79 86 a0 3d f0 d0 c1 3c
       0.024310827 -0.053513747 0.078381486 0.0236592
0002b0 74 32 10 3d 92 a9 78 3d 36 43 74 bd 27 1b a1 3d
       0.035204366 0.06070859 -0.05963441 0.07866507
0002c0 c3 9e 34 bd d6 02 9d bd 41 32 9d bd 80 f3 c3 bb
       -0.04409672 -0.076665565 -0.07675601 -0.005979955
0002d0 66 9c 01 bd d8 49 48 bc 9e 16 21 3d 40 03 4b 3b
       -0.031643294 -0.012224637 0.03932821 0.003097728
0002e0 fe 72 76 3d 4f 02 24 bd 08 aa 9d bc d5 63 ad 3d
       0.06016826 -0.040041264 -0.019246116 0.08466307
0002f0 ee c0 78 3d 35 e5 8f 3d 79 d5 a1 3d 9f d9 5b bd
       0.060730867 0.0702614 0.07902045 -0.053674337
000300 50 21 7c bd a5 15 af 3d bc ca b9 3c 44 30 0c bd
       -0.061555207 0.0854905 0.02267968 -0.034225717
000310 de 24 33 3d 46 50 57 3d bb 42 16 bd 3a 65 50 bd
       0.04373633 0.05256679 -0.036684733 -0.050877787
000320 5a 06 18 bd 9f 5d 53 bd 37 57 9e 3d 61 18 9c 3d
       -0.037115432 -0.051602956 0.07731479 0.076218374
000330 b8 37 f1 3c 38 c6 ea bc 85 64 97 3d ec 87 e6 3c
       0.029445514 -0.028658971 0.073922195 0.028140984
000340 30 ae 84 bc 74 26 97 bd 48 d8 51 bc 28 b1 7c bd
       -0.01619634 -0.07380381 -0.012807913 -0.061692387
000350 6b ff 07 bd 74 07 99 bd e4 42 52 bd 70 c2 e1 3c
       -0.03320257 -0.07472125 -0.051333323 0.027558535
000360 a7 75 18 bd 34 81 ae bd d8 b1 da 3c 10 c3 6f 3c
       -0.037221577 -0.08520737 0.02669613 0.014633909
000370 70 f0 09 3c a0 0e 13 bc 6f 5d 91 bd 20 b6 08 3d
       0.008419141 -0.008975655 -0.07097899 0.033376813
000380 18 d3 c9 bc 0a 29 36 3d a9 02 8d 3d 6e c4 54 3d
       -0.02463679 0.04447273 0.06885273 0.051945142
000390 a1 e0 35 bd 4e 15 66 3d c2 3f 52 3d 21 60 ad bd
       -0.044403676 0.05617266 0.051330335 -0.08465601
0003a0 f2 80 13 3d f5 52 32 bd a0 17 d2 bb de 29 e5 bc
       0.036011644 -0.043536145 -0.0064115077 -0.027974065
0003b0 69 7c 81 3d c0 fc 08 3b 6c 1b b1 3c 20 a8 be bb
       0.063225575 0.0020902604 0.021619521 -0.005818382
0003c0 64 93 15 bd 64 de 87 bd e0 32 f1 bb b7 b5 11 bd
       -0.036517516 -0.066342145 -0.007360801 -0.035573687
0003d0 ee 49 04 3d 12 04 a4 bd c2 13 6d 3d 80 21 2f 3c
       0.032297067 -0.08008589 0.05788017 0.010689139
0003e0 8b 9a 84 3d 60 e9 a1 3b 98 e4 09 bc 7e 98 0d bd
       0.06474789 0.0049411505 -0.008416317 -0.034569256
0003f0 74 b5 dc bc cf 1f 82 3d 38 d1 93 3c 94 1f d2 3c
       -0.026941992 0.06353723 0.0180441 0.025649823

bias f4 [100]
000000 37 6f a4 bd 00 00 4f 3c 3b dc 86 3d e2 c7 1c 3d
       -0.08029025 0.012634277 0.065849744 0.03827656
000010 97 3e aa 3d d4 b6 bd bc 33 c4 ad bd aa 8b 70 3d
       0.08312719 -0.023158468 -0.08484688 0.058726944
000020 ea 38 66 3d 45 91 86 bd ef ed 6d bd 84 15 84 bd
       0.05620662 -0.06570677 -0.05808824 -0.06449416
000030 86 cd 26 3d d0 91 a2 bd 88 89 a0 bd e0 f5 f7 bb
       0.040723346 -0.07937968 -0.07838732 -0.0075671524
000040 d1 bb b0 3d 08 bd 29 3c 28 20 b7 3c 09 f4 23 bd
       0.08629573 0.01036001 0.0223542 -0.040027652
000050 46 5b d9 bc b0 ed 8e bd c2 88 7d 3d 1a d6 67 bd
       -0.02653278 -0.06978929 0.061898 -0.056600668
000060 f6 d7 06 3d aa 1e 1f 3d e3 02 ab 3d e8 71 09 3c
       0.0329208 0.038847603 0.0835016 0.008388974
000070 fc 5a 81 3c 40 de b6 3b ee 9d 00 3d 60 67 c5 bc
       0.015790455 0.0055806935 0.031400613 -0.024097145
000080 bb 25 a4 3d e6 60 3e 3d 47 d2 41 bd d5 ca a7 3d
       0.08015009 0.04647913 -0.047319677 0.08192984
000090 03 f9 ad 3d 8e c6 76 3d fb 46 8b 3d 38 e2 8e 3c
       0.08494761 0.06024795 0.06800648 0.017441854
0000a0 22 fc f3 bc 30 bb ed bb f0 04 a1 bc da 93 13 bd
       -0.029783312 -0.0072549805 -0.019655675 -0.036029674
0000b0 56 81 af bd 03 90 94 3d 60 e7 b1 bd 0c 3c c9 bc
       -0.08569591 0.072540306 -0.086867094 -0.024564765
0000c0 80 65 ce bc 60 ec f5 3b 44 ef b4 bc a8 c9 8b bd
       -0.025194883 0.0075049847 -0.022086747 -0.06825572
0000d0 9b 1f b1 3d ca f0 5c 3d 46 e1 74 3d 91 1f ad 3d
       0.086486064 0.05394057 0.05978515 0.084532864
0000e0 7a aa 4e 3d 6c 75 68 bd a7 77 ac bd df 8f 29 bd
       0.050455548 -0.056752607 -0.084212594 -0.04139697
0000f0 08 d5 51 bc f7 da 83 3d 30 9a 8c bb 30 a4 07 3c
       -0.012807138 0.064382486 -0.0042908415 0.008278891
000100 d0 2a 94 bd 35 da 95 3d aa 5a 0d bd ff 74 82 3d
       -0.07234728 0.0731701 -0.034510292 0.063699715
000110 66 f1 14 3d 2d 34 90 3d 52 61 85 bd cd fd a4 bd
       0.036363028 0.07041202 -0.06512703 -0.08056221
000120 75 d1 8d bd e8 cd 77 3c 08 68 2a bc 96 32 1d bd
       -0.069247164 0.0151247755 -0.01040078 -0.03837832
000130 42 04 79 3d 42 a1 28 3d 38 9d d6 3c 0c 25 cd bc
       0.060795076 0.041169412 0.026198015 -0.02504208
000140 98 01 6c bc ae d8 8a bd 55 51 6f bd f6 b3 18 3d
       -0.014404677 -0.067796096 -0.058427174 0.037281
000150 ea 6f 8d bd 6a 80 73 3d 29 51 8e 3d 96 ec b2 bd
       -0.069061115 0.059448637 0.06949074 -0.087365314
000160 00 dc 45 3a 48 52 a9 bd cb 57 8f 3d 08 ea 72 3c
       0.0007547736 -0.08267647 0.06999167 0.014826305
000170 b6 1a 71 3d da 40 0f 3d 10 37 ae bc 6a 20 28 3d
       0.058863364 0.034973957 -0.02126649 0.041046537
000180 51 e7 b2 3d be df 1c 3d 36 54 7c 3d 62 d5 4b 3d
       0.08735526 0.038299315 0.061603747 0.049764045

weight f4 [1, 100]
000000 90 50 b8 bd 12 c3 1c 3d ed 17 81 bd 00 9a 65 3b
       -0.08999741 0.03827197 -0.063033916 0.0035034418
000010 6c e3 e8 3c 62 92 62 3d ad d1 99 bd d4 b6 8b bc
       0.028428756 0.055315383 -0.075106956 -0.017054953
000020 99 d0 92 3d 49 76 98 3d c6 39 0a 3d 18 9e c9 3c
       0.07168693 0.07444436 0.033746503 0.024611518
000030 14 99 f8 bc d9 f5 8c 3d 00 32 a5 ba 9e 09 a2 bd
       -0.03034643 0.06882829 -0.0012603402 -0.079119906
000040 14 d5 dc bc b4 13 9a bc b4 ea cc bc 52 78 22 3d
       -0.026957072 -0.018808223 -0.025014259 0.039665528
000050 a0 ae d7 bb 80 ec fc bc c8 02 e4 bc 84 2d e3 3c
       -0.006582096 -0.03087449 -0.027833357 0.027731664
000060 95 0c 95 3d 2a 20 51 3d c0 08 70 3b 80 94 18 bd
       0.072777905 0.051056065 0.003662631 -0.037250996
000070 20 55 d8 bb 1b f9 bd 3d d5 0f a9 bd 0e 1f 85 bd
       -0.0066019446 0.09276029 -0.08254973 -0.06500064
000080 80 66 03 ba 95 25 80 3d ce 82 38 3d 0e c7 96 bd
       -0.0005012527 0.06257168 0.04504662 -0.073621854
000090 60 c0 48 bd 2c bd d3 3c 50 16 58 3c 4c 18 f3 3c
       -0.049011588 0.02584704 0.013188913 0.029674672
0000a0 ea 1a 10 3d 9a d4 36 3d 29 a5 92 3d 38 01 85 3c
       0.035181917 0.044636346 0.07160408 0.016235933
0000b0 95 32 a9 bd e0 b6 8a 3c 54 e9 a3 3c a8 bb 1a bc
       -0.08261601 0.016932905 0.02000872 -0.009444155
0000c0 a8 36 5b 3c 40 9e ce bc c8 ca c8 3c f8 66 b8 bd
       0.01337973 -0.025221944 0.024510756 -0.09004015
0000d0 73 14 ba 3d ac b8 cb 3c 92 07 35 3d d0 0e e7 3b
       0.09085932 0.024868332 0.044196673 0.0070513263
0000e0 c8 38 9f 3c 50 59 78 3c 00 4f 19 bc c0 37 62 bc
       0.019436255 0.0151580125 -0.009357214 -0.013807237
0000f0 1a a4 89 bd 62 f7 71 3d d8 9e a5 3c e0 3e b7 3c
       -0.06720753 0.059073813 0.020217344 0.022368848
000100 ad 2a c0 3d f2 d8 77 3d 2c 09 cc 3c ca 96 69 bd
       0.0938314 0.06050963 0.024906717 -0.05702857
000110 b0 6e 0b 3c 74 7a bf 3c 01 f6 9d 3d 00 d0 09 38
       0.008510277 0.02337382 0.07712937 3.285706e-05
000120 58 7e 4b bc e5 db c5 bd d5 1b a6 3d 32 ad 4c 3d
       -0.012420259 -0.09661082 0.08110777 0.04996986
000130 6b ae cb bd 46 52 55 3d a3 f7 92 3d 1e 03 a3 bd
       -0.09945377 0.052080415 0.07176139 -0.07959579
000140 ff 8f c5 3d 73 d8 b5 3d 12 52 55 3d 78 6d b9 3c
       0.09646606 0.08879175 0.05208022 0.022635207
000150 7d b1 86 3d 70 c9 37 3c fe 4f 64 3d 9d 30 c7 3d
       0.06576822 0.01121746 0.05574035 0.09726069
000160 5a 9f 1a bd fa f5 18 bd 8c 81 af bc 25 d2 82 3d
       -0.037749626 -0.037343957 -0.021424077 0.06387738
000170 d3 ae 38 bd 58 96 87 3c 54 8d d3 3c bf d5 b1 3d
       -0.0450886 0.016551182 0.025824226 0.08683347
000180 72 13 ac bd 34 27 b4 3c b8 ad a5 3c 60 3e d8 bb
       -0.084021464 0.02199135 0.020224437 -0.0065992326
