additional experiments/saved models/pa_mlp_num_1_mpnn_8.pth (torch, 54567 bytes, 3 tensors)

weight f4 [100, 128]
0	0xbcdeb846	-0.027187478
1	0xbc2ad308	-0.01042629
2	0xbd78293f	-0.06058621
3	0x3da659ef	0.08122622
4	0x3bd73750	0.006567873
5	0xbda3e52a	-0.08002694
6	0x3d86aa3f	0.065754406
7	0x3cb49918	0.022045657
8	0x3bef1de0	0.0072972625
9	0xbc4ee070	-0.012626752
10	0xbd279c5e	-0.040920608
11	0x3c9de8c8	0.019276038
12	0x3d85592b	0.06511148
13	0xbd94d9a6	-0.07268076
14	0x3d829f35	0.063780226
15	0x3cab5b10	0.020917445
16	0xbc0f3bb8	-0.008742265
17	0xbda02105	-0.07818798
18	0xbadc5800	-0.0016810894
19	0xbd350b6c	-0.044200346
20	0xbdaaadf6	-0.08333962
21	0xbdaee990	-0.08540642
22	0x3c015128	0.007892884
23	0x3c473e78	0.01216089
24	0xbd9dc132	-0.07702865
25	0x3d54cfba	0.051955916
26	0xbd28506c	-0.04109232
27	0xbd03a759	-0.032142017
28	0x3c80b1e4	0.015709825
29	0x3cbbdfc0	0.02293384
30	0xbda0d8dc	-0.07853863
31	0x3d22efba	0.039779402
32	0xbd8e6f8e	-0.06954871
33	0xbcbf0c58	-0.023321316
34	0xbd868ebf	-0.065701954
35	0x3d879b55	0.06621424
36	0xbda61f9e	-0.08111499
37	0xbd32f233	-0.04368801
38	0x3d945623	0.07242992
39	0xbbd4d6f0	-0.006495349
40	0x3c386710	0.011255041
41	0xbd47a213	-0.04873855
42	0x3d403a3e	0.046930544
43	0x3d931e85	0.071835555
44	0x3d86404b	0.06555232
45	0x3d67776e	0.05651038
46	0xbd32a6af	-0.043615993
47	0x3d836cc3	0.06417229
48	0x39eb7600	0.0004491061
49	0xbd437516	-0.047719084
50	0xbd88f62c	-0.066875786
51	0x3c5c9d78	0.013465278
52	0xbd22a8f4	-0.039711908
53	0x3d2dcd3e	0.042432062
54	0xbc52b4d8	-0.012860499
55	0x3d5bb422	0.053638585
56	0x3d5c769e	0.05382406
57	0xbd30343e	-0.043018572
58	0xbc302a88	-0.010752328
59	0x3da4dced	0.08049951
60	0xbd2813a2	-0.04103435
61	0xbda81f23	-0.08209064
62	0xbc8418e4	-0.01612515
63	0xbc30ab70	-0.010783061
64	0xbd497bce	-0.049190335
65	0x3bc12ea0	0.0058954507
66	0xbd354d49	-0.044263158
67	0x3b136de0	0.002249591
68	0x3c52d0b0	0.012867138
69	0x3c343340	0.010998547
70	0x3d57a79e	0.052650087
71	0xbd0fa081	-0.035065178
72	0x3d979f9b	0.07403489
73	0x3d3b83f2	0.04578013
74	0x3cead168	0.028664306
75	0xbc829a44	-0.0159427
76	0x3d60bfde	0.05487048
77	0xbd2e0ea2	-0.042494424
78	0x3a1afc80	0.0005912259
79	0x3db3fdf5	0.08788673
80	0xbd16200c	-0.036651656
81	0x3d566a4e	0.052347474
82	0x3c99fa78	0.01879619
83	0xbd5c771c	-0.05382453
84	0x3bfcc5d0	0.007714011
85	0x3b971170	0.004610233
86	0x3d5a9c26	0.05337157
87	0x3d152afe	0.036417954
88	0xba984180	-0.00116162
89	0x3d9cfcf5	0.07665435
90	0xbd318709	-0.04334167
91	0xbd8f0604	-0.06983569
92	0x3c980af4	0.01855991
93	0x3cf11de8	0.029433206
94	0xbd3309a8	-0.04371038
95	0x3cf89f24	0.030349322
96	0x3d8e2613	0.06940856
97	0x3db1012b	0.08642801
98	0x3c6eafc8	0.014568277
99	0x3d69c5ae	0.057073288
100	0xbd9a9146	-0.0754724
101	0x3c18b9a8	0.009321608
102	0xbd95efb6	-0.07321112
103	0xbd7b140a	-0.061298408
104	0xbd4da55c	-0.050206527
105	0x3bc10c90	0.00589139
106	0x3d68e642	0.056860216
107	0xbda7fa9f	-0.08202099
108	0xbca100a8	-0.019653633
109	0xbc0042a0	-0.007828385
110	0x3d8e23b1	0.06940401
111	0xbcc7b1fc	-0.024376862
112	0xbd1c5eed	-0.038176466
113	0xbcbe9e40	-0.023268819
114	0x3d4e80be	0.050415747
115	0xbd069ace	-0.032862477
116	0x3d7ecd32	0.06220741
117	0x3cdabdf8	0.026701912
118	0x3bf65a70	0.007518105
119	0xbcf44b26	-0.02982099
120	0x3a3f0e80	0.00072882324
121	0x3d5eae96	0.054365717
122	0xbcef49d4	-0.029210009
123	0x3c2df670	0.010617837
124	0x3d84c52f	0.06482922
125	0x3d6dcc16	0.05805596
126	0xbd78a1c0	-0.06070113
127	0x3d28737a	0.041125752
128	0xbcef6cd6	-0.029226702
129	0x3d409e52	0.047025986
130	0x3d27bcfa	0.040951706
131	0x3d8c6d81	0.06856824
132	0xbd4ebc94	-0.05047281
133	0xbc69ad68	-0.014262535
134	0x3c3eb610	0.011640087
135	0x3d406736	0.04697343
136	0x3d3d66de	0.04624068
137	0xbcf1793e	-0.029476758
138	0x3d32ed0e	0.043683104
139	0x3dac7489	0.08420665
140	0xbdad8748	-0.084730685
141	0xbd0eb627	-0.034841683
142	0xbcd9ea7c	-0.026601069
143	0x3c5b5e98	0.013389252
144	0x3d1e153a	0.038594462
145	0x3d99dd95	0.075129665
146	0x3d97c3b3	0.074103735
147	0xbd142f5a	-0.03617797
148	0xbc475860	-0.012167066
149	0xbdb4a107	-0.08819776
150	0x3bf9bcb0	0.0076213703
151	0xbd1e3f10	-0.03863436
152	0xbd4117b7	-0.047141757
153	0xbcf59104	-0.029976375
154	0xbd9beb5f	-0.07613253
155	0xbc80cd90	-0.01572302
156	0x3c8dbcf8	0.017302021
157	0x3da9603b	0.08270308
158	0x3d8f35b7	0.06992667
159	0xbd7884f8	-0.060673684
160	0x3cc8fc90	0.024534494
161	0xbcf20780	-0.029544592
162	0x3d66bb2a	0.056330837
163	0xbd3782a3	-0.04480232
164	0xbd8150e8	-0.0631426
165	0x3b134e20	0.0022476986
166	0xbd3c5b7a	-0.045985676
167	0xbd8e1817	-0.069381885
168	0x3d4daf02	0.05021573
169	0x3c9b8e10	0.01898864
170	0x3d8d1d9d	0.06890414
171	0xbd3dce5b	-0.046339374
172	0xbd3d79e4	-0.046258822
173	0x3dadbe57	0.0848357
174	0x3cf1244c	0.029436253
175	0x3a250280	0.0006294623
176	0x3d353446	0.044239305
177	0xbc9c0aec	-0.019048177
178	0x3b6b6de0	0.0035923645
179	0xbdab757d	-0.083720185
180	0x3d025cd0	0.031826794
181	0x3d1015c2	0.035177
182	0x3d6a19a2	0.05715335
183	0xbb2598a0	-0.0025267974
184	0x3cf5c8c0	0.030002952
185	0x3d8b3077	0.06796353
186	0x3cb3a180	0.021927595
187	0x3c99ab68	0.01875849
188	0xbd767394	-0.060168818
189	0xbb911410	-0.0044274405
190	0x3d01b8e0	0.03167045
191	0x3d80298f	0.06257927
192	0xbd81332c	-0.063085884
193	0x3ce824a8	0.028337792
194	0xbd4a9936	-0.04946252
195	0xbd8c2de1	-0.06844688
196	0x3d745536	0.059651576
197	0xbc872570	-0.016497344
198	0xbc01e598	-0.007928275
199	0x3da2a377	0.07941335
200	0x3d900db3	0.07033863
201	0x3d3d3182	0.046189792
202	0xbd8f9578	-0.07010931
203	0x3d6d0396	0.057864748
204	0xbbe40280	-0.006958306
205	0x3d911645	0.07084326
206	0xbd3541ed	-0.044252325
207	0x3d29ca32	0.041452594
208	0xbc859b58	-0.016309425
209	0x3d2c2ef2	0.042036958
210	0x3cdb15b8	0.026743755
211	0xbd92ad08	-0.07161909
212	0xbd69ff31	-0.057128135
213	0xbba6fa30	-0.0050957426
214	0x3d2b1e36	0.04177686
215	0x3d856459	0.065132804
216	0xbc47bb10	-0.012190595
217	0x3c3433c8	0.010998674
218	0x3d94bf99	0.07263107
219	0x3c96b4d8	0.01839678
220	0x3caa3b2c	0.020780168
221	0xbd17a5e0	-0.037023425
222	0x3d846d4d	0.0646616
223	0xbcdb7da4	-0.026793309
224	0x3dabd483	0.08390143
225	0xbdadd7c1	-0.084884174
226	0xbccf305c	-0.025291614
227	0xbcdc803e	-0.02691662
228	0x3d97e7fd	0.07417295
229	0xbd3a112a	-0.045426525
230	0xbd581c8e	-0.052761607
231	0xbcd67c2a	-0.026182253
232	0xbd33bacc	-0.043879315
233	0xbd7b9dce	-0.06142979
234	0x3dabc81b	0.083877765
235	0x3cb67878	0.02227424
236	0x3d886163	0.066592
237	0xbd0940e9	-0.03350917
238	0x3d8d9555	0.069132484
239	0xbd82576c	-0.06364331
240	0x387c3000	6.0126185e-05
241	0x3d6f83f2	0.058475442
242	0x3d9d6849	0.076859064
243	0x3cc8585c	0.024456196
244	0x3d045298	0.03230533
245	0xbd9a3dae	-0.07531296
246	0x3d94a661	0.07258297
247	0xbd97b6bc	-0.07407901
248	0x3d9b10a1	0.07571531
249	0xbd172572	-0.036900945
250	0x3b32b020	0.0027265623
251	0xbaf6fc80	-0.0018843561
252	0x3cd33ae8	0.025784925
253	0x3dab37af	0.0836023
254	0xbbbd1340	-0.005770117
255	0xbccde7a8	-0.025134876

bias f4 [100]
0	0xbd21504b	-0.039383214
1	0x3d8e4537	0.069467954
2	0xbc3a5450	-0.011372641
3	0x3cc5f948	0.024166718
4	0x3be66930	0.0070315823
5	0xbcf219aa	-0.029553253
6	0x3d61127e	0.054949276
7	0xbc57b898	-0.013166569
8	0xbc3c3880	-0.01148808
9	0x3d07d70a	0.03316406
10	0xbd98d685	-0.07462791
11	0xbd6b7e17	-0.057493296
12	0x3d1fbd02	0.03899861
13	0xbc429d78	-0.011878364
14	0xbcf1bc7c	-0.029508822
15	0xbdb4abcb	-0.088218294
16	0x3bde4930	0.006783627
17	0x3d19788a	0.03746847
18	0x3d43babe	0.047785513
19	0x3d8024b7	0.06257003
20	0xbd63fc51	-0.05566055
21	0x3d88a231	0.066715606
22	0xbd951cb9	-0.07280869
23	0x3c14b730	0.009076878
24	0xbda059a1	-0.07829595
25	0xbda8468c	-0.08216581
26	0xbc2200f8	-0.009887926
27	0x3ca44dfc	0.020056717
28	0xbd94aed2	-0.07259907
29	0x3cb09b8c	0.021558546
30	0xbd04a42c	-0.03238313
31	0x3da28ec7	0.07937389
32	0xbd4c4e67	-0.049879458
33	0xbd1c2ed2	-0.03813059
34	0xbcdf2c98	-0.027242944
35	0xbd8a23b1	-0.06745089
36	0xb8bb7400	-8.9384615e-05
37	0xbd6f9488	-0.05849126
38	0xbada73c0	-0.0016666576
39	0x3d05cd20	0.032666326
40	0x3d455eb6	0.048186027
41	0x3db1321b	0.08652135
42	0x3d0269f6	0.031839333
43	0xbcb5bd98	-0.022185132
44	0x3c2f3978	0.010694854
45	0xbd941404	-0.0723038
46	0xbd314a52	-0.043283768
47	0xbc6e1ee0	-0.014533728
48	0x3c639c08	0.013892181
49	0x3d03352a	0.032033123
50	0xbd757c12	-0.059932776
51	0x3c98e134	0.018662073
52	0x3db3fc89	0.08788402
53	0x3cb842f4	0.022492863
54	0xbd8e2bcd	-0.06941948
55	0x3d33de8e	0.043913417
56	0xbd9e69cd	-0.07735024
57	0x3ba3b990	0.004996486
58	0xbd6279f6	-0.055292092
59	0x3ce41698	0.027842805
60	0xbd56f18c	-0.05247645
61	0x3d3a5b7a	0.045497395
62	0xbdadd1f2	-0.084873095
63	0xbd6d7674	-0.057974294
64	0xbd72bba8	-0.059260994
65	0x3d965f3d	0.07342384
66	0x3d927119	0.07150478
67	0x3c4cdb40	0.012503445
68	0xbd684460	-0.056705832
69	0xbbccad50	-0.0062462464
70	0xbdabf534	-0.08396378
71	0x3d53a96a	0.051675238
72	0xbcf4f82c	-0.029903494
73	0xbd8dac6f	-0.06917655
74	0x3d2fb632	0.042898364
75	0xbd20e328	-0.039279133
76	0x3b9dde80	0.004817784
77	0xbd09e3d2	-0.033664532
78	0xbda6c60c	-0.08143243
79	0x3d8d8b59	0.06911344
80	0xbc8e4104	-0.017364986
81	0x3d8be099	0.06829948
82	0x3cf0edc8	0.029410258
83	0xbd4908d8	-0.0490807
84	0xbd325bce	-0.043544583
85	0x3d027d26	0.031857632
86	0x3d6f817a	0.058473088
87	0x3d1339da	0.035943843
88	0x3d443bbe	0.047908537
89	0x3ce14fec	0.02750393
90	0xbd268d6c	-0.040662214
91	0xbd944d36	-0.07241289
92	0x3d0876bc	0.03331636
93	0xbd5e9c27	-0.054348137
94	0xbca4f4a8	-0.020136192
95	0xbd9d9a19	-0.076954074
96	0xbb0790a0	-0.0020685568
97	0x3ca1d464	0.019754596
98	0x3d327a26	0.04357352
99	0xbd294981	-0.041329864

weight f4 [1, 100]
0	0x3d1dc36e	0.038516454
1	0x3d412a16	0.047159277
2	0x3cd98d34	0.026556589
3	0xbd934053	-0.07190003
4	0x3c1a1490	0.009404317
5	0x3d82e85f	0.063919775
6	0xbd750653	-0.059820484
7	0xbc718f28	-0.014743604
8	0xbd50398a	-0.050836124
9	0xbcdf8ec8	-0.027289763
10	0xbd926ba0	-0.07149434
11	0x3d642ada	0.05570493
12	0x3bd5c960	0.00652425
13	0x3d161396	0.036639772
14	0x3dbdbd1d	0.09264586
15	0xbcdd6b78	-0.027028784
16	0xbd8ad360	-0.06778598
17	0xbd3331c3	-0.04374863
18	0x3c0212f0	0.007939085
19	0x3d80ae05	0.062831916
20	0x3c1a0ce8	0.009402491
21	0xbb826d00	-0.003980279
22	0xbc644540	-0.013932526
23	0x3d332422	0.04373563
24	0xbd381a53	-0.04494698
25	0xbd942852	-0.07234253
26	0x3d27a842	0.040931948
27	0x3d3a3ae2	0.04546631
28	0xbc206f58	-0.009792171
29	0xbd6217ed	-0.0551986
30	0xbd15e8a0	-0.0365988
31	0xbd8e67b6	-0.06953375
32	0xbcc16ea8	-0.023612335
33	0x3c78a158	0.015175186
34	0x3dc11dc7	0.09429508
35	0x3c3c54d8	0.011494838
36	0xbbeb05e0	-0.007172331
37	0x3ba13e50	0.0049207583
38	0x3d899567	0.06717949
39	0x3d554282	0.05206538
40	0x3c27a990	0.010233298
41	0x3d323c66	0.04351463
42	0x3d28f392	0.04124791
43	0xbc17ccd0	-0.00926514
44	0x3dcba3e1	0.09943367
45	0xbc078c80	-0.008273244
46	0xbd775c63	-0.06039084
47	0x3d88e5e3	0.066844724
48	0xbd40d5fa	-0.047079064
49	0xbb65c1c0	-0.003505811
50	0x3dab3789	0.08360202
51	0xbd8e613a	-0.06952138
52	0x3d537cb2	0.05163259
53	0xbd214ab7	-0.039377894
54	0xbc38fad0	-0.011290267
55	0x3d7e4dde	0.06208598
56	0xbccbdfd4	-0.024887003
57	0x3cdfc4d4	0.027315535
58	0xbcfb33c8	-0.03066434
59	0x3d664592	0.05621869
60	0x3dc692f3	0.09695997
61	0xbc9a76c0	-0.018855453
62	0x3d520ece	0.05128365
63	0xbc057a50	-0.008146837
64	0xbbc302b0	-0.005951248
65	0x3c60e5d8	0.013726674
66	0xbc3e1d68	-0.011603691
67	0xbd4fc8aa	-0.050728478
68	0x3d1ad6e6	0.0378026
69	0xbd6ef287	-0.05833676
70	0x3dcba691	0.099438794
71	0x3db09e79	0.08623976
72	0xbbcfbce0	-0.0063396543
73	0xbd9319ea	-0.07182677
74	0xbd1da0f7	-0.038483586
75	0x3d86f68b	0.06589993
76	0x3d87ce4f	0.06631147
77	0x3d01d776	0.03169962
78	0xbd943258	-0.07236165
79	0x3d9cef11	0.07662786
80	0xbc9a4ad4	-0.018834509
81	0x3d708f72	0.05873055
82	0xbdb0f13b	-0.08639761
83	0xbbbbd100	-0.005731702
84	0x3db72c29	0.0894397
85	0xbda7d660	-0.08195186
86	0xbd6e35ad	-0.058156658
87	0x3dbe9f9b	0.09307786
88	0x3d99e687	0.07514673
89	0xbcc83aec	-0.024442159
90	0xbd6cd4da	-0.05782018
91	0xbdc6a437	-0.0969929
92	0x3daf9e61	0.0857513
93	0x3d9f703d	0.0778508
94	0x3d0d8146	0.034547113
95	0x3d8489a1	0.06471563
96	0x3cd8ddc4	0.026472934
97	0x3dc63f77	0.09680074
98	0x3db6b69f	0.08921551
99	0xbdbdb523	-0.09263065
