additional experiments/saved models/r1_mlp_num_3_mpnn_9.pth (torch, 54567 bytes, 3 tensors)

weight f4 [100, 128]
000000 e6 f6 51 3d 00 fc 7a 3a f6 a4 3f 3d c1 c9 85 bd
       0.05126085 0.0009574294 0.04678818 -0.06532622
000010 ea 9f 5c 3d 2b 72 87 3d 28 93 1a bc d4 d0 85 3c
       0.053863443 0.06613573 -0.009434499 0.016334929
000020 79 6f 92 3d b4 1d 91 bc 01 3f 08 bd 0f 17 20 bd
       0.07150168 -0.017714359 -0.03326321 -0.03908449
000030 65 26 b0 3d f3 82 28 bd 00 85 cf bc 48 2b cc bc
       0.08601073 -0.041140508 -0.025331974 -0.024922982
000040 f0 ba 82 3b a7 a2 3e bd 7c ae 6b bd fa 78 0e bd
       0.00398957 -0.046541836 -0.05753945 -0.03478334
000050 30 6c e0 3c 70 32 04 3c 99 c3 45 bd ec 8d 75 bd
       0.027395338 0.008068666 -0.04828224 -0.0599498
000060 8e eb 3e 3d 7a 17 99 bd 2a bb 29 3d ec c1 d8 3c
       0.04661136 -0.07475181 0.04143826 0.026459657
000070 a8 b2 8f bd 78 c5 74 bd 08 67 14 bc d5 b7 4f bd
       -0.07016498 -0.059758633 -0.009057768 -0.050712425
000080 ac 23 ff bc 47 0c 82 3d ef e1 b0 3d 10 30 51 bc
       -0.03114494 0.06349998 0.086368434 -0.012767807
000090 24 7b af bc 1c 54 c8 bc b0 3d 45 bc 20 a7 83 3c
       -0.021421023 -0.024454169 -0.012038633 0.016070902
0000a0 ca 81 1a 3d cc 48 8a 3c da d0 26 bd 8a 2c 41 bd
       0.037721433 0.016880415 -0.04072652 -0.047161616
0000b0 ba 50 8e bd 00 3f c1 bc d0 6c 01 bd 30 8d 17 3c
       -0.06948991 -0.023589611 -0.031597912 0.00924997
0000c0 ee 90 5c bd 2e 13 32 3d 25 8b 82 3d 37 70 9c 3d
       -0.053849153 0.043475322 0.06374196 0.07638591
0000d0 d2 cc 38 3d 42 9d 3d 3d 56 e1 34 3d e5 00 aa 3d
       0.045117207 0.04629255 0.04416021 0.08300952
0000e0 82 da 51 3d 80 d3 d5 bc b6 16 3b 3d 2c d0 5e bd
       0.051233776 -0.026101828 0.045675956 -0.054397747
0000f0 d2 9a 03 bd 20 c6 86 bc 19 59 52 bd c5 ba 84 3d
       -0.03213007 -0.016451895 -0.0513545 0.06480936
000100 f9 93 94 3d 55 21 0f bd 63 c6 8d 3d fc 73 a6 bd
       0.07254786 -0.034943897 0.06922605 -0.08127591
000110 c0 66 ff 3a 72 c7 7a 3d 08 97 70 bc 8c df 86 bd
       0.0019485578 0.061225362 -0.014684446 -0.06585607
000120 27 f2 95 bd 12 a4 55 3d 8b 57 8e bd a8 71 73 3c
       -0.073215775 0.052158423 -0.06950291 0.014858641
000130 de b6 b0 bd 0a bc 48 3d 16 b4 12 bd 5c c7 cf 3c
       -0.08628629 0.049007453 -0.035816275 0.025363617
000140 c7 df b0 3d 52 55 f8 bc f4 bf f9 bc ed 70 9a 3d
       0.08636432 -0.030314121 -0.030487038 0.0754107
000150 f2 ff b4 bd 20 80 c0 bb 5e c4 3e 3d e8 72 e3 bc
       -0.0883788 -0.0058746487 0.04657399 -0.027764753
000160 60 6f 20 3c 2c 41 ac 3c 2c 51 bf bc 3e 45 0d 3d
       0.009792179 0.02102717 -0.023354135 0.034489863
000170 37 e8 a5 3d 34 12 01 bd d3 5d ac 3d 46 3c 35 3d
       0.08100932 -0.0315115 0.08416333 0.044246934
000180 01 da af 3d 98 4c 92 bc 38 63 7e bd 9c a8 c7 bc
       0.08586503 -0.017858788 -0.06210634 -0.024372391
000190 30 19 64 bc d0 b0 a9 bb fc 39 a8 3c 3e 96 8f bd
       -0.013922021 -0.0051785484 0.020535462 -0.07011078
0001a0 16 50 50 3d 02 63 53 3d b8 90 4d bd 0a 27 7f 3d
       0.050857626 0.051608093 -0.050186843 0.06229309
0001b0 f3 7b 3c bd 3e 50 7f bd 11 17 b3 bd 03 d0 a7 bd
       -0.046016645 -0.062332384 -0.08744634 -0.08193972
0001c0 7a 2f 4d 3d e3 bd 9f 3d 36 71 39 3d 00 42 15 3a
       0.050094105 0.0779989 0.045273982 0.00056937337
0001d0 69 13 ae 3d 8a a9 3d 3d 66 2b 44 3d b5 d5 38 bd
       0.08499796 0.046304263 0.04789295 -0.045125682
0001e0 40 8c 48 bb a0 c6 b7 3b 95 ae 21 bd fa 4d 2d bd
       -0.0030601174 0.0056083947 -0.039473135 -0.042310692
0001f0 e5 d6 af 3d 30 c9 ce 3c 80 03 9e 3c 14 44 95 3c
       0.0858591 0.025242418 0.019288778 0.018220939
000200 ee b7 79 3d 80 f4 f3 ba 89 e3 4e bd c6 55 77 bd
       0.060966425 -0.0018612295 -0.050509963 -0.060384534
000210 58 87 48 bc 40 be 56 bc 80 79 6c bc 9a 18 50 3d
       -0.0122393 -0.013106883 -0.014433265 0.050804712
000220 f4 10 0c bd 08 96 9e bd ca 2b 33 3d 4c 98 e1 3c
       -0.034195855 -0.0774346 0.043742932 0.027538441
000230 5c 19 f2 bc 83 8b aa 3d e6 54 13 3d 69 69 a3 bd
       -0.029553108 0.08327391 0.035969637 -0.0797909
000240 b0 e0 bc 3b 9d 33 98 3d 27 b5 93 bd a4 2b ae 3c
       0.0057640895 0.074317195 -0.072122864 0.021261044
000250 41 18 52 bd 0a 72 10 bd 30 6a e0 bb 0f 73 5d bd
       -0.05129266 -0.035265006 -0.006848596 -0.054064807
000260 e4 df 3b bd 40 97 62 3c df 20 a6 bd d4 dd 3c bd
       -0.045867816 0.013830006 -0.081117384 -0.04610999
000270 88 b0 c2 bc 8a e3 67 3d 28 a5 7a bd 70 81 af 3c
       -0.023765817 0.056613483 -0.06119266 0.021424025
000280 7a 08 21 3d 52 8e 5e 3d 06 0a 55 3d 22 a7 00 bd
       0.039314725 0.054334946 0.052011512 -0.03140939
000290 21 c8 a0 3d 54 b0 b3 3c c2 82 83 bd e4 9c ec bc
       0.078506716 0.021934666 -0.064214244 -0.028883405
0002a0 b8 7d b0 3c 9a 13 2d 3d d4 f6 71 bd 6a 62 42 3d
       0.021544322 0.04225502 -0.059073284 0.047457136
0002b0 87 69 1d bd dc 11 38 bd 54 53 f9 3c 8f 77 8f 3d
       -0.038430717 -0.044938907 0.030435242 0.07005226
0002c0 44 e4 69 bd 3d af a5 3d 14 dd ca bc 31 68 0a bd
       -0.057102457 0.08090065 -0.024763621 -0.03379077
0002d0 36 1c 75 bd 6a e6 10 bd cb b7 97 3d e4 e3 d6 bc
       -0.059841357 -0.03537599 0.074081026 -0.026231714
0002e0 48 c1 36 3c d5 bd a8 bd 24 35 e1 3c 08 50 69 bc
       0.01115448 -0.082393326 0.02749116 -0.014240272
0002f0 02 1a 6e 3d 80 5f 57 bc e4 45 8d bd 0f 13 ab 3d
       0.05813027 -0.013145328 -0.06898096 0.083532445
000300 26 de 97 bd 62 be 20 3d c0 a8 f9 3c 81 d7 a7 bd
       -0.07415418 0.039244063 0.030475974 -0.08195401
000310 e6 54 83 bd c2 1e 2c 3d 83 91 39 bd 74 9c 73 bd
       -0.064126775 0.04202152 -0.045304786 -0.059475377
000320 c0 c3 ec 3b c5 5e 3c bd 30 0b b9 bb e6 2c 6c 3d
       0.0072254837 -0.045988817 -0.0056470856 0.057660006
000330 4b 3a 4c bd 50 c7 86 3c 6c 5b c6 bc 66 f4 78 3d
       -0.04986028 0.016452461 -0.024213515 0.06077995
000340 27 55 a8 bd af 67 1d bd 9c bb fb bc 0a 3a 20 bd
       -0.082193665 -0.03842896 -0.030729108 -0.03911785
000350 bb 69 89 3d d0 8c 90 bc 6d 12 87 bd e6 56 a8 bd
       0.067096196 -0.01764527 -0.06595311 -0.082196996
000360 f8 3b 40 3c da 61 1c 3d 97 81 9c 3d 4a 74 5a 3d
       0.011733048 0.038179256 0.07641905 0.05333356
000370 10 e5 4c 3c 88 00 c7 bc 10 e2 92 bb 3a 22 db bc
       0.012505785 -0.024292246 -0.004482515 -0.026749719
000380 44 90 f8 3c db 55 92 3d 04 04 06 bd 80 10 ba bc
       0.030342229 0.07145282 -0.032718673 -0.022712946
000390 4f b9 8a 3d 2d 9b b3 3d 55 11 83 bd ae 16 2b bd
       0.06773626 0.08769832 -0.0639979 -0.041769676
0003a0 08 97 b2 bc 80 5d cb 3a 9a f4 52 3d 49 61 43 bd
       -0.021800533 0.0015515536 0.0515028 -0.0477002
0003b0 ec 69 92 bc d5 fc 99 3d 65 34 9b bd 4e b9 28 3d
       -0.017872773 0.07518927 -0.07578353 0.041192345
0003c0 62 12 67 3d 82 c3 8f bd ef 59 1e bd 53 ce 94 3d
       0.056414016 -0.07019712 -0.038659986 0.07265916
0003d0 14 7b 8c bd b8 84 a0 bc ad 71 1a bd 90 00 78 bd
       -0.06859413 -0.019594535 -0.037706066 -0.06054741
0003e0 33 79 82 3d 9b cd a1 3d 7b c7 91 3d 1e 0e 6e bd
       0.06370773 0.07900544 0.07118126 -0.058118932
0003f0 40 2a d1 3a f9 70 ae 3d 52 08 68 3d 80 a4 dd bc
       0.0015958026 0.085176416 0.05664856 -0.027055979

bias f4 [100]
000000 30 58 86 bd 7e db e7 bc 4e 26 40 3d b8 dd 61 3c
       -0.06559789 -0.028302904 0.04691153 0.013785772
000010 99 7d 8a bd 58 f8 9c bd cd 10 8b 3d 5b ea 86 3d
       -0.06762237 -0.07664555 0.06790314 0.065876685
000020 1e ff 2d 3d fe 11 73 3d b9 77 ac 3d a2 c6 44 3d
       0.042479627 0.05934333 0.08421273 0.048040994
000030 ba bf 8e bd c8 60 55 3c 36 c3 f7 bc 84 19 b6 3c
       -0.06970163 0.013023563 -0.030244451 0.022228964
000040 89 41 8a 3d 26 a1 76 3d b2 7e 02 3d ca 1d 67 3d
       0.06750781 0.060212277 0.031859107 0.056424893
000050 6a 66 60 3d 5c f6 b8 3c 66 87 2e 3d c0 aa 48 bb
       0.05478517 0.02257841 0.042609595 -0.0030619353
000060 9d a2 0b bd 90 7c ea 3b 90 58 b6 3b cc 8f 0f bd
       -0.034090627 0.0071559623 0.0055647567 -0.035049245
000070 02 bb 60 3d c0 0f 92 ba 10 d0 9c bd ff 8a 75 bd
       0.054865845 -0.001114361 -0.07656872 -0.05994701
000080 38 08 42 3c 80 58 b9 3c cd 46 81 3d f4 7f 00 bd
       0.01184278 0.022625208 0.06312332 -0.031372026
000090 65 93 a4 3d e2 8d 16 bd 0c bb 4f bd 38 15 0a 3d
       0.08035926 -0.036756404 -0.05071549 0.033711642
0000a0 03 7a 8b 3d a8 63 a5 3c de 94 11 3d 21 78 88 bd
       0.06810381 0.020189121 0.03554236 -0.06663538
0000b0 6a 12 61 3d bc 04 b0 bc f0 de f1 3b e0 83 44 bd
       0.0549492 -0.021486633 0.0073813125 -0.04797733
0000c0 ad a3 99 3d 60 2e ba bb 1f 1a b2 bd 65 dd 67 bd
       0.07501922 -0.005681798 -0.086963885 -0.056607623
0000d0 48 8e 7d bc fe 34 9f bd 6c bb 8f bc 73 01 b1 3d
       -0.015475817 -0.07773779 -0.017545424 0.086428545
0000e0 a0 96 4b bc 8c f5 ef bc 80 47 39 bb 0a 8e 4e bd
       -0.0124260485 -0.02929189 -0.0028271377 -0.050428428
0000f0 92 71 83 bd 20 4b 14 3d a3 5e 9d 3d de c8 7f 3d
       -0.06418146 0.036204457 0.07684066 0.06244742
000100 43 d3 96 bd a4 39 92 bd 95 47 31 bd 65 ce 9a bd
       -0.07364514 -0.071399 -0.043281157 -0.07558898
000110 c4 95 56 bd 01 0c 71 bd 2b e5 8b 3d 94 1b aa bd
       -0.05238892 -0.05884934 0.0683082 -0.08306041
000120 5c 9e d3 3c f0 61 97 3b 04 27 ad bd 40 37 03 3d
       0.025832348 0.0046198294 -0.08454707 0.032035112
000130 88 42 8c bc d8 23 5f 3c 18 e2 49 3c 41 30 10 bd
       -0.017121568 0.013619386 0.012321971 -0.03520227
000140 5e c3 03 bd 5c 6c 6a bd b0 2e da 3b 30 5b 0c bc
       -0.03216874 -0.057232246 0.0066583976 -0.008566663
000150 76 b6 3b 3d d8 92 c9 3c 7d 8e 8b 3d 4e 49 6d 3d
       0.045828305 0.024606153 0.06814287 0.057931237
000160 e7 e0 7f bd 00 86 4b 3c 5e 5f 50 3d 72 06 5d 3d
       -0.062470343 0.012422085 0.0508722 0.053961225
000170 76 b4 6c 3d fe 86 39 bd c4 43 b6 3c bc 71 2c bd
       0.05778929 -0.045294754 0.02224911 -0.042100653
000180 4c 0b d6 bc a2 72 a2 bd 6b 91 aa bd fe 78 a1 bd
       -0.026128434 -0.07932021 -0.083285175 -0.078844056

weight f4 [1, 100]
000000 12 cd 9b bd 62 52 62 3d 55 6f b0 3d ef f1 b3 3d
       -0.076074734 0.055254348 0.08614985 0.087863795
000010 2a 2e 0a 3d 92 34 02 3d e6 0b 07 3d 7b 0e a5 3d
       0.03373543 0.031788416 0.03297033 0.080594026
000020 d8 b0 9f bd a7 34 8a 3d fc 5a ee 3c 3f bc a9 3d
       -0.07797402 0.06748324 0.02909612 0.08287858
000030 4c 17 b7 bc ea f9 a2 bd 79 b5 84 3d 60 fd d4 bc
       -0.022349976 -0.079578236 0.06479926 -0.025999725
000040 fb 37 b4 bd 97 a2 c1 bd 76 41 52 3d d3 1a 41 bd
       -0.0879974 -0.0945484 0.05133196 -0.047144722
000050 09 e1 ab 3d 28 e2 93 3c 6c eb bd 3c 95 17 ba 3d
       0.083925314 0.018052176 0.023183547 0.09086529
000060 9a c7 6e bd 6f 6c b0 3d b5 44 a8 3d fc 81 83 bd
       -0.058295824 0.08614432 0.0821623 -0.06421277
000070 60 b6 e2 bb b5 4e 91 3d a8 b6 02 bc 6a df 21 bd
       -0.0069187135 0.0709509 -0.007978119 -0.039519705
000080 78 7c ba 3c 18 97 3e 3c d7 f9 ca bd d9 c7 83 3d
       0.02276443 0.011632703 -0.099109344 0.06434602
000090 71 03 a6 3d 2c b1 d4 3c c7 7d 8c 3d aa 00 02 bd
       0.08106125 0.025963388 0.068599276 -0.031738915
0000a0 b0 35 61 3c 76 dc 08 bd 42 05 70 3d fd 86 bf 3d
       0.01374571 -0.033413373 0.058598764 0.09351919
0000b0 a5 84 cc 3d 72 cd 46 3d 28 bf 03 3c 74 b2 8a bc
       0.099862374 0.04853577 0.008041181 -0.016930796
0000c0 be f6 54 3d bc 61 d8 3c 7d de a0 bd 20 75 bb bd
       0.051993124 0.02641379 -0.07854936 -0.09153199
0000d0 9b 50 bb bd d0 22 32 3c b0 f7 cb bb d3 14 8b 3d
       -0.09146234 0.010872558 -0.006224595 0.06791081
0000e0 74 e5 8a 3c 28 8e 55 3c 41 b4 c0 3d 74 65 cf 3c
       0.016955115 0.013034381 0.09409381 0.025316931
0000f0 57 5c af 3d f3 79 7f bd 68 ee aa bd eb c8 c1 bd
       0.08562534 -0.06237216 -0.08346254 -0.0946215
000100 60 48 3d 3b 60 2d b8 3b ae 58 29 3d a3 44 98 bd
       0.002888225 0.0056206435 0.041344337 -0.074349664
000110 f7 90 4c bd 00 20 61 39 93 28 a1 3d a0 6d 31 bb
       -0.049942937 0.00021469593 0.07869067 -0.0027073398
000120 a8 68 17 3c 70 d7 10 3c d2 e7 0c 3d 14 eb 09 bd
       0.009241261 0.008840427 0.03440077 -0.033671454
000130 40 95 3e bb 80 35 73 ba 61 62 87 3d 12 ce 7a 3d
       -0.002908066 -0.00092776865 0.06610561 0.06123168
000140 06 02 00 3d 28 36 b4 bd 4c a3 cf 3c c3 8c 55 bd
       0.03125193 -0.08799392 0.02534642 -0.052136194
000150 c8 43 bb 3c 1e 51 8f bd c2 e3 53 3d 46 ac 32 3d
       0.022859469 -0.06997894 0.05173088 0.043621324
000160 1e f2 5e 3d 18 a0 78 3c aa 9d 92 bd 67 d9 8c 3d
       0.05443012 0.015174888 -0.07158978 0.06877404
000170 1d c7 44 bd a7 62 5e bd 9d 72 af bd 24 ab e2 3c
       -0.04804145 -0.0542933 -0.085667826 0.027669497
000180 d0 f9 c8 bd b4 c8 06 bd 1a d1 64 bd 80 9a 84 bc
       -0.09813273 -0.03290625 -0.055863477 -0.016186953
