additional experiments/saved models/r2_mlp_num_3_mpnn_3.pth (torch, 54567 bytes, 3 tensors)

weight f4 [100, 128]
0	0xbd6fc582	-0.058537968
1	0x3da933f9	0.08261866
2	0xbda156be	-0.07877873
3	0xbd32f567	-0.043691065
4	0x3db359e1	0.087573774
5	0x3d8280a3	0.06372192
6	0xbd48a9fe	-0.048990242
7	0x3c1831d8	0.009289227
8	0xbd805418	-0.062660396
9	0xbd51ceb4	-0.051222518
10	0x3d17d4b6	0.03706809
11	0x3da98621	0.08277536
12	0xbd3c1199	-0.04591522
13	0x3d6b205e	0.057403915
14	0xbcc11964	-0.023571678
15	0xbc92b370	-0.017907828
16	0xbd81b528	-0.06333381
17	0x3d4b936a	0.049701132
18	0xbc8ce2e8	-0.017198041
19	0xbc060700	-0.00818038
20	0x3d047e98	0.03234729
21	0x3d0b5c82	0.03402377
22	0x3db48ba5	0.088156976
23	0xbad8dcc0	-0.0016545281
24	0x3da18c89	0.07888133
25	0x3d415b42	0.04720617
26	0x3cfeabbc	0.031087749
27	0x3d8dd4bf	0.06925344
28	0xbcee6684	-0.029101618
29	0xbd563c35	-0.05230351
30	0xbd3c7169	-0.046006594
31	0xbd8ffb84	-0.07030395
32	0x3d4a02ba	0.049319007
33	0x3d862e6d	0.06551824
34	0x3ce94710	0.028476268
35	0xbd60d042	-0.05488611
36	0xbd62ec42	-0.055401094
37	0x3c4ffe30	0.01269488
38	0x3ce23d48	0.027617112
39	0xbd2b1525	-0.041768212
40	0x3c01ff80	0.007934451
41	0x3c99bcfc	0.018766873
42	0x3cd21d20	0.025648654
43	0xbd863edd	-0.06554959
44	0x3cf1a76c	0.029498778
45	0x3d9d226b	0.0767258
46	0x3d82e695	0.06391636
47	0x3bf023a0	0.0073284656
48	0xbc56ee80	-0.013118386
49	0x3db3ea3d	0.08784912
50	0xbd2fd073	-0.042923402
51	0xbd67df8c	-0.056609675
52	0xbcfda74c	-0.030963562
53	0x3d3b6ac2	0.04575611
54	0x3cd4a198	0.02595596
55	0xbb6085c0	-0.0034259409
56	0xbd8414cf	-0.064492814
57	0x3d4c254e	0.049840264
58	0xbd331128	-0.043717533
59	0xbdb003c7	-0.085944705
60	0xbbd6a100	-0.0065499544
61	0xbd0523e8	-0.032504946
62	0x3da517bf	0.0806117
63	0x3bf4be60	0.0074689835
64	0xbd739d89	-0.05947641
65	0x3cc0b8ec	0.023525678
66	0xbd5646ca	-0.052313603
67	0x3db122c7	0.086492114
68	0x3d6027fe	0.05472564
69	0x3d9e82d1	0.07739795
70	0xbccafed8	-0.024779722
71	0x3dabef7b	0.08395287
72	0xbcd98bd2	-0.02655593
73	0xbca0fbd8	-0.019651338
74	0x3d850499	0.064950176
75	0xbdb00546	-0.08594756
76	0xbda469b1	-0.080279715
77	0x3c0c2ea8	0.008556046
78	0x3ccd9c40	0.02509892
79	0x3dabe17d	0.08392618
80	0x3d900fc1	0.07034255
81	0x3d73f68a	0.05956129
82	0x3d3dd0da	0.046341754
83	0x3d491452	0.049091645
84	0xbdb3d0c3	-0.087800525
85	0x3d911185	0.0708342
86	0x3b959020	0.0045643
87	0xbd0ec421	-0.03485501
88	0x3d8165d9	0.06318254
89	0xbc92b234	-0.01790724
90	0x3d64053a	0.055669047
91	0xbdaa6621	-0.08320261
92	0x3cc7cb00	0.02438879
93	0xbd8725f3	-0.06599035
94	0x3c93a0f0	0.018021077
95	0xbc2c1780	-0.01050365
96	0xbd638b8b	-0.055553
97	0xbc93a940	-0.01802504
98	0xbd7f89af	-0.062387165
99	0xbc207630	-0.009793803
100	0xbdb4664e	-0.088085756
101	0x3d81f729	0.0634597
102	0xbdb006e3	-0.085950635
103	0xbd90de61	-0.070736654
104	0x3c652130	0.013984963
105	0xbd81b125	-0.06332616
106	0x3b100c60	0.0021980032
107	0x3d862e83	0.0655184
108	0x3ca70b20	0.020391047
109	0x3b380b40	0.0028082877
110	0x3bb3dce0	0.005488977
111	0xbbf04d80	-0.0073334575
112	0xba54ed80	-0.00081225485
113	0xbd86c8f7	-0.065813
114	0xbca7deb8	-0.020491943
115	0x3d338f32	0.043837734
116	0xbca4fb1c	-0.02013927
117	0x3b9da660	0.004811093
118	0xbd188883	-0.037239563
119	0x3c7e4488	0.015519269
120	0x3b4aad40	0.003092602
121	0x3c7bb848	0.01536376
122	0x3da1bf9d	0.078978755
123	0x3b37e480	0.002805978
124	0x3d4b5bb2	0.049647994
125	0x3c97b1a8	0.01851733
126	0x3d7b36ee	0.061331682
127	0x3da2dfad	0.07952819
128	0x3d8d3309	0.068945
129	0xbd72a754	-0.059241608
130	0x3db25fdb	0.08709689
131	0xbd3a47e1	-0.045478705
132	0x3c9dc8ac	0.019260727
133	0xbc99cc2c	-0.018774115
134	0x3d084c4c	0.033275887
135	0xbc9f1fd8	-0.019424364
136	0x3da44a9d	0.08022044
137	0xbccf715c	-0.025322609
138	0xbc81e4d4	-0.015856184
139	0x3db088fb	0.08619877
140	0x3da5e749	0.08100755
141	0xbd96e9e5	-0.073688306
142	0xbc64e990	-0.013971701
143	0xbc9fd2e8	-0.019509748
144	0x3d0435ae	0.032277755
145	0x3d81693f	0.06318902
146	0xba129200	-0.00055912137
147	0xbc7e7f80	-0.015533328
148	0xbd63b3ac	-0.05559127
149	0x3c945cb8	0.018110618
150	0x3d947509	0.07248885
151	0xbd9b1208	-0.075717986
152	0xbd90f57a	-0.07078071
153	0xbdaf0e35	-0.08547632
154	0xbd13c69c	-0.03607808
155	0x3d8dcd11	0.06923879
156	0xbd98c290	-0.07458985
157	0xbda23474	-0.07920161
158	0xbccb2f04	-0.024802692
159	0xbcc3eeec	-0.023917638
160	0x3c98e584	0.01866413
161	0xbd990beb	-0.07472976
162	0xbd5f592f	-0.05452841
163	0xbc8580f8	-0.016296849
164	0xbbfa5e00	-0.0076406
165	0x3d0cffae	0.034423523
166	0x3d1aee66	0.03782501
167	0x3cda93d0	0.02668181
168	0x3da44e73	0.080227755
169	0xbd89e352	-0.06732811
170	0x3da75c29	0.08171875
171	0x3da77657	0.081768684
172	0xbd2b4214	-0.041811064
173	0xbd0ed4b1	-0.034870807
174	0xbd147988	-0.036248714
175	0xbd04fc1c	-0.032466993
176	0xbd92effc	-0.0717468
177	0xbc663a30	-0.014051959
178	0x3d0b33dc	0.033985004
179	0x3ccdbfac	0.02511581
180	0x3c6dc300	0.014511824
181	0xbd9b67d2	-0.075881615
182	0x3c992f3c	0.01869928
183	0x3d92ff9f	0.07177662
184	0x3d38b1e2	0.045091517
185	0xbd9c6b8d	-0.07637701
186	0xbd22bd24	-0.03973116
187	0x3d9487a7	0.07252436
188	0xbd02ebd3	-0.03196318
189	0x3d5f3536	0.054494105
190	0xbc0f0c90	-0.0087310225
191	0x3d9cc21b	0.0765421
192	0x3d874809	0.066055365
193	0x3c956b50	0.018239647
194	0xbb2fa3a0	-0.002680041
195	0x3d4709b6	0.048593245
196	0x3d8de98f	0.069293134
197	0xbcd98ac8	-0.026555434
198	0x3bcf2ef0	0.006322734
199	0x3b767720	0.0037607625
200	0x3d94e473	0.07270136
201	0xbdb41eac	-0.08794913
202	0xbd5fb5e7	-0.054616835
203	0xbd3f262a	-0.046667255
204	0x3b9fe460	0.0048795193
205	0xbcfd6d82	-0.030936006
206	0xbd907c68	-0.070549786
207	0xbb6d6420	-0.003622301
208	0xbcc6ce58	-0.024268314
209	0xbcc4aa24	-0.02400691
210	0xbcef2c82	-0.029196028
211	0x3d4a827a	0.04944084
212	0xbda0f92c	-0.07860026
213	0x3db25323	0.08707263
214	0xbcd774d8	-0.026300833
215	0x3d6e9d1a	0.058255292
216	0x3d45aa3e	0.04825806
217	0x3c9185e4	0.01776404
218	0x3d8b2c1d	0.06795523
219	0xbd8c9bc0	-0.068656445
220	0xbcff82de	-0.031190332
221	0xbb380ba0	-0.00280831
222	0xbd2e179a	-0.042502977
223	0x3c6da578	0.014504783
224	0x3d77736a	0.0604128
225	0xbd57bfe6	-0.052673243
226	0x3d436fee	0.047714166
227	0x3d6ca0b6	0.057770453
228	0x3c7ec1d0	0.015549138
229	0xbd8a0f78	-0.06741232
230	0xbd281d42	-0.041043527
231	0xbd380b88	-0.044932872
232	0xbda8e766	-0.08247261
233	0x3b51b860	0.0032000765
234	0xbd1e6c7f	-0.03867769
235	0xbcace810	-0.02110675
236	0x3d68c22e	0.05682581
237	0x3cf18150	0.029480606
238	0xbda42276	-0.080143854
239	0x3c30cbe8	0.010790803
240	0x3d4b310e	0.04960733
241	0xbc32dee8	-0.010917403
242	0x3d930e7d	0.07180498
243	0x3a7bd980	0.00096073
244	0xbd361d08	-0.04446128
245	0xbd1ddd4e	-0.03854113
246	0x3cce0eb8	0.025153503
247	0xbb9edd50	-0.00484816
248	0x3d846b19	0.0646574
249	0x3d48a856	0.048988663
250	0x3c284f90	0.010272875
251	0x3d92212d	0.07135234
252	0x3a9499c0	0.0011337325
253	0xbc3af380	-0.011410594
254	0xbc6f63b8	-0.014611177
255	0xbd020a9c	-0.0317484

bias f4 [100]
0	0x3d853441	0.06504107
1	0xbd341fd0	-0.04397565
2	0x3c61d5f0	0.013783917
3	0xbd0e2017	-0.034698572
4	0xbd046319	-0.03232107
5	0xbd987aae	-0.07445274
6	0x3d376a42	0.04477907
7	0xbd316e76	-0.043318234
8	0xbd6b80eb	-0.057495993
9	0xba62f900	-0.000865832
10	0x3d146060	0.036224723
11	0xbd87cbda	-0.066306785
12	0xbc158670	-0.009126291
13	0x3d9c2f95	0.07626263
14	0x3daa9c91	0.08330644
15	0x3d2cc43a	0.042179324
16	0x3d2427de	0.040077083
17	0x3d452fda	0.048141338
18	0x39616c00	0.00021497905
19	0x3cf520c0	0.029922843
20	0xbc927794	-0.017879285
21	0x3d4aed7e	0.049542896
22	0xbcc59e38	-0.024123296
23	0xbd909fca	-0.07061727
24	0xbd8db320	-0.06918931
25	0xbd692bd8	-0.05692658
26	0x3cb69a48	0.022290364
27	0x3d4f4e52	0.0506118
28	0x3d42b232	0.04753322
29	0xbd5df7f9	-0.054191563
30	0x3d17a37a	0.037021138
31	0xbd731700	-0.059348106
32	0xbc4c1dd0	-0.01245828
33	0x3ce62ed0	0.028098494
34	0xbd907289	-0.07053096
35	0xbc725600	-0.014791012
36	0x3d373392	0.044726916
37	0xbd8f522e	-0.069980964
38	0x3d8546b3	0.065076254
39	0x3cc0dd04	0.023542888
40	0xbb4b2320	-0.0030996278
41	0xbd478ae2	-0.048716433
42	0xbdb24440	-0.08704424
43	0xbd939fff	-0.07208251
44	0xbd20901b	-0.03919993
45	0xbd8db1b7	-0.06918662
46	0x3d86f617	0.06589907
47	0x3c394570	0.011308059
48	0x3d944657	0.07239979
49	0x3cfbeb04	0.030751713
50	0xbd893445	-0.06699423
51	0x3cd374bc	0.0258125
52	0x3c23fa68	0.010008432
53	0xbb4a66e0	-0.0030884072
54	0xbc9865bc	-0.018603198
55	0x3a9e7880	0.0012090355
56	0x3d3903da	0.04516969
57	0x3d4c875a	0.04993377
58	0xbdb33b3a	-0.08751531
59	0xbd8e5c6a	-0.0695122
60	0x3d7a27f6	0.061073266
61	0xbd1448af	-0.03620213
62	0x3d95373d	0.072859265
63	0xbd9fd4f6	-0.07804291
64	0xbd6adb5b	-0.0573381
65	0xbd93c0b6	-0.07214491
66	0x3d0e5eac	0.034758255
67	0xbda69ac1	-0.08134986
68	0xbdb407a1	-0.087905176
69	0x3c12f068	0.00896845
70	0x3cf49298	0.029855058
71	0xbc633248	-0.013866968
72	0xbd8ee9cc	-0.06978187
73	0xbc55d5e8	-0.0130514875
74	0xbdb3fbf7	-0.08788293
75	0xbbfa8340	-0.0076450408
76	0x3d7450a6	0.059647225
77	0x3b94eb10	0.004544623
78	0xbd932a24	-0.07185772
79	0x3dacefdd	0.08444188
80	0x3c99c638	0.018771276
81	0x3cad47a8	0.021152332
82	0x3da7c5c7	0.0819202
83	0x3ccd91b0	0.025093883
84	0x3db26f6d	0.08712659
85	0x3d6e55da	0.058187343
86	0xbd29f4a8	-0.041493088
87	0xbd876d05	-0.06612591
88	0xbcd6bcb6	-0.026213031
89	0x3c0397a8	0.008031763
90	0x3cad91b0	0.021187633
91	0xbc748350	-0.014923885
92	0xbbaedf60	-0.005336687
93	0x3d8429e9	0.06453306
94	0x3b8d11b0	0.004305087
95	0x3d5cae16	0.05387696
96	0xbd5aad20	-0.05338776
97	0x3b872000	0.0041236877
98	0xbd2c7e03	-0.04211236
99	0xbd7a8e2a	-0.061170734

weight f4 [1, 100]
0	0xbd1a5d1a	-0.037686445
1	0xbd2f9910	-0.04287058
2	0xbdc4dd02	-0.096124664
3	0xbda4e17e	-0.08050822
4	0xbd77e6f0	-0.060522974
5	0xbc9a2f88	-0.018821493
6	0x3dc769c1	0.09736968
7	0x3c8e6e0c	0.017386459
8	0xbdae1d6b	-0.08501705
9	0x3d84c631	0.064831145
10	0xbdb416d5	-0.08793417
11	0xbdb47dcf	-0.088130586
12	0x3dbf9289	0.09354121
13	0xbd233687	-0.039846923
14	0xbcc82674	-0.024432398
15	0x3dbdba3d	0.09264038
16	0x3dae6969	0.08516199
17	0x3da687a9	0.08131344
18	0xbd07722c	-0.033067867
19	0xbd86df68	-0.0658558
20	0x3d125df2	0.035734124
21	0xbd30fd37	-0.043210234
22	0x3cce6784	0.025195844
23	0x3c6f4318	0.014603399
24	0xbdb33f40	-0.08752298
25	0xbd8a99f2	-0.06767644
26	0x3d45915a	0.04823432
27	0x3da1904b	0.0788885
28	0xbd8538b8	-0.06504959
29	0x3c5d01d8	0.013489209
30	0xbdc07ff7	-0.09399407
31	0xbda73952	-0.0816523
32	0x3d33188e	0.04372459
33	0xbcad4e38	-0.021155462
34	0xbcab8d00	-0.020941257
35	0xbdaf408a	-0.08557232
36	0xbd995ef2	-0.074888125
37	0x3da40dd5	0.08010451
38	0x3d8d87cb	0.06910666
39	0xbd90f712	-0.07078375
40	0xbcef198c	-0.029186986
41	0xbda06102	-0.07831003
42	0xbd755f90	-0.05990559
43	0xbcc0b5cc	-0.023524188
44	0x3d1665de	0.036718242
45	0xbd56a34d	-0.05240183
46	0xbd8ca3ad	-0.06867156
47	0x3ccbc718	0.024875209
48	0xbcb276f8	-0.021785244
49	0x3ce78264	0.028260417
50	0xbd3998a0	-0.04531157
51	0xbdc07b12	-0.09398474
52	0x3d9fdc91	0.078057416
53	0xbb378ba0	-0.0028006807
54	0x3d515302	0.051104553
55	0x3af2e980	0.0018532723
56	0x3dc0ab45	0.09407667
57	0x3c8b964c	0.01703944
58	0x3d92b2d9	0.07163019
59	0xbdb9cf0b	-0.090726934
60	0x3cffe9dc	0.031239443
61	0x3b734f00	0.0037125945
62	0x3db58b33	0.08864441
63	0xbd13e3aa	-0.03610579
64	0xbdc2a2f3	-0.09503736
65	0xbc9193b4	-0.017770626
66	0xbbbcccd0	-0.0057617202
67	0xbd597f23	-0.053099763
68	0x3b8e4830	0.0043421015
69	0xbd2fb550	-0.042897522
70	0xbd75cc23	-0.060009133
71	0x3d84d7f3	0.064865015
72	0x3c3b78d0	0.011442378
73	0xbcec8914	-0.028873958
74	0x3c398a70	0.01132451
75	0xbdac2c50	-0.084068894
76	0xbd774bc0	-0.060374975
77	0xbd9f93ee	-0.07791887
78	0x3c9a2918	0.018818423
79	0xbd8c9732	-0.06864776
80	0x3dbc7c43	0.092033885
81	0xbc3a07d8	-0.011354409
82	0x3c49a250	0.012306765
83	0x3dad1191	0.08450616
84	0x3d59acf2	0.05314345
85	0xbd8d9a4a	-0.06914194
86	0xbdb05102	-0.08609201
87	0x3cc439cc	0.023953341
88	0xbd54392a	-0.05181233
89	0x3cba1238	0.022713766
90	0x3da2d55b	0.079508506
91	0xbb8d4630	-0.0043113455
92	0xbd30e5d7	-0.043187942
93	0x3d2a80de	0.041626804
94	0xbd3f041a	-0.04663477
95	0xbd3b0e8d	-0.045668174
96	0x3d14611e	0.03622543
97	0xbdac5bb6	-0.0841593
98	0xbd4e48fa	-0.050362565
99	0x3cb615f8	0.022227272
