additional experiments/saved models/r2_mlp_num_2_mpnn_8.pth (torch, 54567 bytes, 3 tensors)

weight f4 [100, 128]
000000 8c cd 7d bd 28 58 54 bc 6a b4 a7 bd 8e 4f 41 3d
       -0.061963603 -0.012960471 -0.08188708 0.04719501
000010 1e 39 18 3d 1f 59 0e bd e5 13 a3 bd 21 4f 93 3d
       0.037163846 -0.03475296 -0.07962779 0.07192827
000020 01 53 92 3d 5e 43 a1 bd c2 e2 ac bd 15 08 4d bd
       0.07144738 -0.078741774 -0.08441688 -0.050056536
000030 45 43 96 3d 80 c8 a4 ba 42 45 4b 3d b6 e8 76 3d
       0.073370494 -0.0012571961 0.049626596 0.060280524
000040 aa 8d 84 bd 9e 0b 71 3d 04 ce 81 3c ea 31 3a bd
       -0.06472333 0.05884897 0.015845306 -0.045457758
000050 64 4c 65 bd e8 40 60 bc 32 f8 1c 3d a0 12 90 3b
       -0.055981055 -0.01368735 0.038322635 0.0043967515
000060 f5 67 98 3d e2 ef 51 3d 9d ae a0 3d bf e6 af 3d
       0.07441703 0.05125416 0.07845805 0.08588933
000070 de 77 3a 3d d0 da 42 bc 20 43 9c bb ef 30 4e bd
       0.04552447 -0.011892989 -0.004768744 -0.050339635
000080 04 0a ef bc 6b e1 84 3d b8 af 50 bc 20 26 bb 3b
       -0.02917958 0.064883076 -0.012737207 0.005711332
000090 14 03 b3 bc 2a 82 45 3d d6 99 97 bd 89 db 9d 3d
       -0.021852054 0.048219837 -0.07402389 0.07707889
0000a0 22 09 71 bd 70 14 ee bb 53 88 aa bd d8 41 a1 3c
       -0.0588466 -0.00726562 -0.08326783 0.019684717
0000b0 f2 0c 34 3d 02 82 6f 3d a0 26 8e bc 92 0c 1d 3d
       0.043957658 0.058473594 -0.017352402 0.038342066
0000c0 51 4e 9a 3d 1b 92 81 3d 58 f1 a7 bc 02 46 71 3d
       0.07534469 0.063266955 -0.020500824 0.058904655
0000d0 40 05 57 3c 96 ab 60 3d ac 13 9c 3c 34 93 d0 3c
       0.01312381 0.054851137 0.019052349 0.025460817
0000e0 0e 9b 9e bd 21 1a 9f 3d 07 38 0b bd 37 62 62 bd
       -0.07744418 0.077686556 -0.03398898 -0.055269446
0000f0 dd 29 b2 3d 78 da 41 bc 36 98 d6 bc e4 f7 80 3c
       0.08699391 -0.011831872 -0.026195627 0.015743203
000100 81 4a 8c bd 58 f0 15 3d 24 6d f8 3c 72 06 3f bd
       -0.06850148 0.036606163 0.03032548 -0.046637006
000110 46 14 24 bd 0e 72 8a bd cc d8 69 bd 60 d6 9f bc
       -0.040058397 -0.067600355 -0.05709152 -0.019511402
000120 90 f9 07 3d 60 12 e5 3b 2d 36 80 3d 1c 50 f4 3c
       0.033196986 0.006990716 0.06260333 0.029823355
000130 a4 1b 83 bd 1a c7 7d bd e8 e2 58 3c ac 7d 90 bd
       -0.064017564 -0.061957456 0.013237692 -0.0705522
000140 06 83 70 bd 00 cc 11 bc f4 9a f6 3c ef d8 36 bd
       -0.058718704 -0.008898735 0.030103184 -0.044640478
000150 c9 13 b4 3d 3a 9a 86 bd dc 13 86 bd e7 e8 99 3d
       0.08792836 -0.06572385 -0.065467566 0.07515126
000160 1a e4 13 3d 49 6b 43 bd 00 38 01 3c a0 ba b1 3b
       0.036106206 -0.047709737 0.007886887 0.0054238588
000170 2a 5a 61 3d f6 ee 55 3d 7b f9 83 3d f4 fd 95 3c
       0.055017628 0.052229844 0.06444069 0.01830957
000180 47 07 b4 3d b0 34 b1 bd 3f d1 89 bd 47 da 45 bd
       0.087904505 -0.086526275 -0.06729364 -0.04830387
000190 68 e1 66 3c fa e7 db bc b3 52 5f bd 60 1e 17 3b
       0.014091827 -0.026844013 -0.054522227 0.0023058876
0001a0 32 28 51 3d 30 05 73 3c 70 b1 97 bd 92 cc 3d 3d
       0.051063724 0.01483278 -0.074068904 0.04633767
0001b0 a0 a0 5d bc 59 2c 5f bd 90 35 a4 bc 2a ce 44 bd
       -0.0135270655 -0.054485653 -0.020045072 -0.048048176
0001c0 d9 a2 85 bd d8 c3 02 3c 08 39 b3 bd 36 d1 6a bd
       -0.06525201 0.007981263 -0.08751112 -0.057328425
0001d0 54 33 83 bd 3e dc a6 bd 56 4e 63 3d 9a 64 30 3d
       -0.064062744 -0.081474766 0.05549463 0.04306469
0001e0 78 56 39 bc 57 93 8a 3d bd 11 8a bd 6d e3 4e bd
       -0.01131212 0.06766384 -0.067416646 -0.05050986
0001f0 36 72 86 bd fa 95 7a bd c8 bc 49 bc 80 a3 e2 3b
       -0.06564753 -0.061178185 -0.012313075 0.0069164634
000200 ce 4c 61 3d 60 0f 85 bb 13 18 50 bd 88 22 8b 3c
       0.055004887 -0.0040606707 -0.05080421 0.01698424
000210 f6 65 87 bd 1c 29 a1 bc c5 4d b1 bd d0 9f 75 3c
       -0.066112444 -0.019672923 -0.086574115 0.014991716
000220 42 46 20 bd 34 ee e9 3c dd a5 94 bd d0 b2 84 3b
       -0.039129503 0.028555967 -0.072581984 0.0040496364
000230 34 e4 bf bc 30 0b aa bc f0 d9 9d bc c4 f3 13 bd
       -0.023424245 -0.020757288 -0.01926896 -0.036121145
000240 76 b9 93 bd d0 6b 63 3c 6e 00 83 bd 0c 8f b2 bc
       -0.07213108 0.013880685 -0.06396566 -0.021796726
000250 4a 19 0f bd 48 e7 f7 3c 7e 0d 56 3d 26 84 6b 3d
       -0.034936227 0.03026165 0.05225896 0.057499073
000260 a0 f5 4f 3c 22 94 74 3d 04 8e 8b bd f0 22 f4 bc
       0.012692839 0.059711583 -0.06814197 -0.029801816
000270 af b4 27 bd a4 8f f7 bc f8 b5 4c 3c 54 d1 97 3c
       -0.040943798 -0.03021986 0.012494557 0.018532433
000280 ec 16 88 bc d8 5a c9 3c 80 c6 fd 3a 9f 40 9f bd
       -0.016612493 0.02457945 0.0019361526 -0.07775997
000290 e0 01 08 3b 6a d2 1f 3d e4 59 90 bd 69 f7 87 3d
       0.002075307 0.039019026 -0.07048395 0.066389866
0002a0 01 59 98 3d b2 9e 7f 3d 06 8f 8d bd ac 1b 3c bd
       0.07438851 0.062407203 -0.06912045 -0.045924827
0002b0 4d 28 ad bd 43 60 79 bd c3 ae 99 3d 5e 90 50 3d
       -0.084549524 -0.060882818 0.07504036 0.05091893
0002c0 b7 a6 93 3d aa e0 3f 3d be 40 74 3d 28 b9 0f 3c
       0.07209533 0.046845116 0.059632055 0.008772172
0002d0 40 ef 87 bd 1b e7 97 bd e8 17 28 bc f9 b7 17 bd
       -0.0663743 -0.07417127 -0.010259606 -0.037040684
0002e0 a2 a1 81 bd cb 61 80 bd b6 56 54 3d 28 12 6c bc
       -0.06329657 -0.062686525 0.051840506 -0.014408626
0002f0 6b eb a7 3d 56 79 2d 3d 7c 03 94 3c 63 84 a1 3d
       0.08199199 0.042352043 0.018068068 0.07886579
000300 66 4a 43 3d c2 83 21 3d f8 ea 24 bd 4a 0a 51 3d
       0.047678374 0.039432295 -0.040263146 0.051035203
000310 b7 b0 81 3d 08 19 80 bd 0a a4 5f 3d 34 98 a1 bc
       0.06332534 -0.06254774 0.0545998 -0.019725896
000320 5a 82 2c 3d e7 96 56 bd a0 99 40 bb 00 97 89 ba
       0.0421165 -0.052390005 -0.0029388443 -0.0010497272
000330 ae ad a3 bd f8 57 89 bd 9b 2a 11 bd 3a 4b b3 bd
       -0.07992111 -0.06706232 -0.035441022 -0.08754583
000340 1a b5 0a bd b1 ad 07 bd 77 18 96 3d 80 04 2f bc
       -0.03386412 -0.03312463 0.07328885 -0.010682225
000350 51 8b 66 bd 80 02 96 ba 40 67 52 3c 6d 34 a7 bd
       -0.056285206 -0.0011444837 0.0128419995 -0.08164296
000360 85 11 9e 3d 28 7d a4 bd 5c a2 a9 bd 6e 3f 45 3d
       0.07718185 -0.08031684 -0.08282921 0.048156194
000370 70 d6 e5 3b c0 77 13 3b 99 6f 4d bd 30 2f c5 bb
       0.0070140883 0.0022501796 -0.050155256 -0.006017588
000380 db 88 a0 3d 06 f5 79 3d a0 49 f3 bb 7e af 57 bd
       0.07838603 0.06102469 -0.0074245483 -0.052657597
000390 65 46 88 bd 98 c5 a6 bd 80 fe 35 bc 4f d0 39 bd
       -0.06654052 -0.08143157 -0.011108041 -0.045364674
0003a0 40 ae 41 bd ae 11 0d 3d fa 95 4b 3d 94 e7 96 bd
       -0.04728532 0.03444069 0.049703576 -0.07368389
0003b0 77 df 8f 3d d6 1a 64 3d 71 17 83 3d 02 6c 41 3d
       0.070250444 0.055689655 0.064009555 0.047222145
0003c0 6d 9c 78 bd 99 6b 84 3d 08 d1 87 bd 60 e9 1d 3c
       -0.060696054 0.06465835 -0.066316664 0.0096381605
0003d0 fc 6c db bc 87 aa 19 bd ec 19 8a bd 1e 96 50 bd
       -0.026785366 -0.037516143 -0.067432255 -0.050924413
0003e0 87 20 9e 3d 80 dc 1e bb 94 0e b7 bc 5a 8b 12 bd
       0.07721048 -0.0024240315 -0.022345819 -0.035777427
0003f0 d9 71 b2 bd a4 01 af 3c a8 3f 8f 3c 0e 29 1f 3d
       -0.08713121 0.021363087 0.017486408 0.038857512

bias f4 [100]
000000 5f 21 25 bd 49 a6 5c bd d4 7d 82 bd ae 90 5c 3d
       -0.04031503 -0.05386952 -0.06371656 0.053848915
000010 f0 e5 b7 3b 90 6b cf 3b 7a 87 49 3d 51 6d a0 3d
       0.0056121275 0.006329961 0.049201466 0.078333504
000020 64 67 aa bd f6 41 63 3d 3b 6c 96 3d 18 75 51 bc
       -0.083205014 0.055482827 0.07344862 -0.012784265
000030 26 b6 28 bd 99 97 81 3d 3f 86 b3 3d ff 86 8c 3d
       -0.041189335 0.06327743 0.0876584 0.06861686
000040 4c 79 ee 3c fc fc 32 bd 84 56 10 3d 5a 8c 5a 3d
       0.029110573 -0.043698296 0.035238758 0.053356506
000050 e9 e7 ab bd 41 38 9f 3d b0 6d f9 3b 02 50 41 3d
       -0.08393843 0.077744015 0.0076119527 0.047195442
000060 80 3a 84 bb c8 0c ac bd c3 2a 9d 3d d3 23 a3 bd
       -0.004035294 -0.08400875 0.07674172 -0.07965817
000070 7f 80 a3 3d 58 8d 3d bc 51 47 09 bd d3 91 94 3d
       0.07983493 -0.0115693435 -0.03351528 0.07254376
000080 16 e9 04 3d 26 45 74 3d 93 48 b1 3d f3 0d 68 bd
       0.03244885 0.059636258 0.086564206 -0.056653928
000090 6c b2 55 bd 48 14 12 bc 90 da f7 3c fd a0 74 bd
       -0.05217211 -0.008915968 0.030255586 -0.059723843
0000a0 b6 af 5c 3d 27 25 83 3d f5 e3 94 3d 82 21 0b 3d
       0.05387851 0.064035706 0.07270042 0.033967502
0000b0 dc 2d ef 3c 21 a9 90 3d aa e7 36 3d 77 6d 7b bd
       0.029196672 0.07063509 0.044654526 -0.06138369
0000c0 c0 e2 a3 bc 68 8c 13 3c 79 6d 99 3d 8c 8d dc bc
       -0.020005584 0.009005643 0.074915834 -0.026922964
0000d0 2f b1 03 bd c8 96 1f bc 82 b0 97 bd ea 8c 7f 3d
       -0.032151397 -0.009740539 -0.07406713 0.062390245
0000e0 78 85 87 bd 1c 7f 57 bd 4d f0 ae 3d 80 56 c2 3c
       -0.06617254 -0.052611455 0.085419275 0.023722887
0000f0 90 c2 09 3d a4 8a 8f 3c 75 8c 7b bd a5 bf a4 3d
       0.033632815 0.017522164 -0.061413247 0.08044366
000100 0e 41 55 3d 2a dc 5d 3d c0 7a 31 bc 72 f1 f6 bc
       0.052063994 0.054165043 -0.010832489 -0.030144427
000110 2a 61 18 3d 18 ac f4 3c 61 73 4a bd e2 b0 26 3d
       0.037202038 0.029867217 -0.04942644 0.040696032
000120 8a 14 ed bc 37 c7 88 3d 46 c9 6c 3d 00 c7 a7 bb
       -0.028940458 0.06678622 0.057809137 -0.005120158
000130 c8 03 60 bc f7 9b 6d bd 4d 81 9e bd 67 aa a1 3d
       -0.0136727765 -0.058010068 -0.07739506 0.0789383
000140 77 95 1c bd 47 2e 90 3d a5 80 91 bd c7 81 4a bd
       -0.03822848 0.07040077 -0.07104615 -0.04944017
000150 6c 9b 08 bd e2 10 50 3d 7d c3 80 3d 00 13 36 3a
       -0.033351347 0.05079735 0.062872864 0.000694558
000160 b6 49 7f 3d 20 0e b6 bb 00 35 6a bc c6 d8 a5 bd
       0.062326156 -0.005555883 -0.014294863 -0.08097987
000170 63 4b 45 bd b0 fd c9 bb 28 aa 10 3c 70 9b 82 bc
       -0.048167598 -0.006164275 0.008829631 -0.015943259
000180 00 c6 f3 3c c7 31 ac bd 10 25 9b bb b3 ef 99 3d
       0.0297575 -0.08407932 -0.004734643 0.07516422

weight f4 [1, 100]
000000 e8 8d 7e bc 18 0d a1 bc a6 c8 72 3d 74 7d d9 3c
       -0.015536763 -0.019659564 0.059273385 0.026549079
000010 e2 47 38 3d 32 e7 2a 3d 42 a6 2e 3d 09 1b be 3d
       0.044990428 0.04172439 0.042639025 0.092825
000020 50 ed e5 3b de 9b 9c bd d8 ba 70 3c fb 38 b8 3d
       0.0070168152 -0.07646917 0.0146929845 0.08995243
000030 67 9c 5b bd 72 7c 4b 3d 20 63 db 3b 20 0a c3 bb
       -0.053615954 0.049679227 0.006695166 -0.0059521347
000040 44 23 12 bd f4 01 a9 3c 29 c2 b3 3d 92 f8 aa bd
       -0.035678163 0.020630814 0.087772675 -0.08348192
000050 a2 66 09 3d 02 ad 39 3d f7 6d 4f bd f3 ec 6a bd
       0.033545144 0.04533101 -0.05064198 -0.05735488
000060 54 df a7 3c 04 15 cd 3c c0 c6 92 bc 2c a1 fd 3c
       0.020492233 0.025034435 -0.017917037 0.030960642
000070 e2 aa 0d 3d 60 b6 e2 bc c8 19 cc 3c e0 53 bb bc
       0.034586795 -0.027674854 0.024914637 -0.022867143
000080 6c d1 c5 3c 18 5c 50 3c e2 e5 14 3d c0 60 d8 ba
       0.024147712 0.012717269 0.036352046 -0.0016508326
000090 a0 55 76 bd 46 04 6f 3d b3 57 b3 3d e2 5e 6d 3d
       -0.060140252 0.058353685 0.08756962 0.057951815
0000a0 54 6a 04 bd a0 4a 84 3c 8a 2d 3f bd 19 61 98 3d
       -0.032327965 0.016148865 -0.04667429 0.07440395
0000b0 ee aa a5 bd 8f b4 95 3d c0 11 5b bd f0 05 37 bc
       -0.08089243 0.073098294 -0.053483725 -0.011170849
0000c0 36 0a 12 bd 5d ee 8a 3d 2c 05 f7 bc 32 41 35 3d
       -0.03565427 0.067837454 -0.030153833 0.04425163
0000d0 7b 14 b8 3d f1 24 9e 3d b0 9f 38 bc 32 eb 2e 3d
       0.08988281 0.0772189 -0.011268541 0.04270477
0000e0 a0 84 e1 bc 2c 6a fc bc b0 5b 45 3c ec 86 86 bc
       -0.02752906 -0.030812345 0.012045786 -0.016421758
0000f0 46 48 10 bd 58 39 6a 3c 53 fd a4 bd 8e 7a 26 3d
       -0.035225175 0.014295898 -0.0805613 0.04064422
000100 22 55 66 3d 78 fc ab bd 68 34 e4 bc 23 d9 9d 3d
       0.056233533 -0.08397764 -0.02785702 0.07707431
000110 14 cb df bc 0a 31 4f 3d 67 33 ac 3d d5 e5 90 bd
       -0.027318515 0.050583877 0.08408242 -0.07075087
000120 0d c7 af bd 0d 46 35 bd 00 b1 7d bb 8a 44 0e bd
       -0.08582888 -0.04425626 -0.0038710237 -0.034733333
000130 78 41 99 bc d0 ba 72 bc 04 4e fe 3c a2 8c 6d 3d
       -0.018707976 -0.014815047 0.03104306 0.057995446
000140 e0 fa be bb 51 bb 85 3d 68 8f 30 3c 6c c0 87 bc
       -0.0058282465 0.065298684 0.010776378 -0.016571246
000150 6c e2 d4 3c c0 87 0b 3b 9b 16 9e bd 40 b2 a7 bc
       0.025986873 0.002129063 -0.077191554 -0.020470738
000160 af 84 b3 bd 6e 4b ab bd 00 28 33 bd 22 1f 09 3d
       -0.08765542 -0.083639964 -0.04373932 0.033476956
000170 00 d4 34 ba 14 2c 99 bc 4b 71 a1 bd 6c 6e 81 bd
       -0.00068980455 -0.018697776 -0.07882937 -0.063198894
000180 a0 f3 8b bd fd c4 22 bd 22 22 b8 bd 49 38 bd 3d
       -0.06833577 -0.039738644 -0.08990885 0.09239251
