additional experiments/saved models/sigmoid_mlp_num_2_mpnn_5.pth (torch, 54661 bytes, 3 tensors)

weight f4 [100, 128]
0	0xbc9dd654	-0.019267239
1	0xba7ee980	-0.0009724125
2	0x3b7b88e0	0.0038381144
3	0xbc2511e8	-0.01007507
4	0xbd3a1d38	-0.04543802
5	0xbd6b7260	-0.057482123
6	0xbd8bfd4f	-0.06835424
7	0x3db2bf7d	0.0872793
8	0xbd7df590	-0.062001765
9	0xbba83e60	-0.005134389
10	0xbd223fba	-0.039611556
11	0xbd6fc06a	-0.05853311
12	0xbc49fb10	-0.012327924
13	0xbd2b10b9	-0.041763995
14	0x3bc90e30	0.0061357245
15	0x3d06aa3a	0.032877184
16	0x3d8da6b1	0.069165595
17	0xbd86cece	-0.065824136
18	0xbda804eb	-0.08204063
19	0x3d5bae1e	0.053632848
20	0xbda015cc	-0.078166574
21	0x3d84a111	0.064760335
22	0xbc80923c	-0.01569473
23	0xbb0c8500	-0.002144158
24	0x3cf31460	0.029672801
25	0xbd6b1962	-0.057397254
26	0x3d6e4d2a	0.058179058
27	0x3cc90f74	0.024543501
28	0xbd3df238	-0.046373576
29	0x3d9c3b2f	0.07628476
30	0xbd80ba0b	-0.06285485
31	0x3d6b063a	0.057378985
32	0x3d3d97aa	0.046287216
33	0xbd3fa363	-0.046786677
34	0x3d67b4c6	0.056568883
35	0x3d8532d3	0.065038346
36	0xbc1c1028	-0.009525336
37	0xbc8eb8e4	-0.017422147
38	0xbdb4bd2f	-0.088251464
39	0x3c9c2920	0.019062579
40	0xbd439802	-0.047752388
41	0xbd9610f5	-0.07327453
42	0xbc65d460	-0.014027685
43	0x3d1248c2	0.03571392
44	0x3c027248	0.007961817
45	0x3cbeb5e8	0.023280099
46	0x39746800	0.00023308396
47	0x3d489dae	0.0489785
48	0x3d9069f1	0.07051457
49	0x3ceae8f4	0.028675534
50	0x3d33b706	0.043875717
51	0xbcabf9b0	-0.020993084
52	0xbc93737c	-0.017999403
53	0xbb29aea0	-0.0025891438
54	0xbcceff38	-0.025268182
55	0x3d03b2ac	0.032152817
56	0x3bab1e50	0.0052221194
57	0xbd826af5	-0.06368057
58	0x3cfacf58	0.030616447
59	0xbd7cd27a	-0.061724164
60	0xbd2c84c0	-0.042118788
61	0xbd88bad8	-0.066762626
62	0xbd6a1d7f	-0.057157036
63	0xbd87ee64	-0.06637266
64	0xbd40fc91	-0.047115866
65	0x3d2413fa	0.040058114
66	0x3daf7e11	0.08568967
67	0x3db15507	0.08658796
68	0x3d9f758f	0.077860944
69	0xbd8a5c70	-0.06755912
70	0x3b9e9d80	0.004840553
71	0xbc4746a8	-0.012162842
72	0xbd8049b8	-0.06264061
73	0x3c8805fc	0.016604416
74	0x3dac5469	0.084145375
75	0x3d4e589e	0.05037748
76	0x3d725602	0.059164055
77	0xbd59add0	-0.053144276
78	0x3aed93c0	0.0018125698
79	0x3d6cb432	0.057789035
80	0xbbb5cf70	-0.00554841
81	0x3baedac0	0.0053361356
82	0xbc62c290	-0.013840333
83	0xbd67b5c6	-0.056569837
84	0x3daf8455	0.08570162
85	0x3da43567	0.08017998
86	0x3da12f4d	0.0787035
87	0xbd394ae3	-0.045237433
88	0x3d285cd6	0.04110416
89	0x3d8c6d17	0.06856745
90	0xbc52dde8	-0.012870289
91	0xbcabf260	-0.020989597
92	0xbdb3dbc4	-0.08782151
93	0x3da146bb	0.07874819
94	0xbba94c30	-0.005166553
95	0x3c359688	0.011083253
96	0xbda08c70	-0.07839286
97	0x3c8b4558	0.01700084
98	0xbd3cbe19	-0.04607973
99	0xbb91e340	-0.004452139
100	0xbbf69010	-0.007524498
101	0xbca2d9f4	-0.019879319
102	0x3d13e75c	0.036109313
103	0x3c209d28	0.009803094
104	0xbd943939	-0.07237477
105	0x3d08d63c	0.033407435
106	0xbcf993e4	-0.030466028
107	0x3d6c7b32	0.057734676
108	0xbda64097	-0.08117788
109	0xbd2fa617	-0.042883005
110	0x3d47bda6	0.048764847
111	0x3d1c17e2	0.038108714
112	0xbb8970b0	-0.0041943416
113	0x3cb6d424	0.022317953
114	0xb9fe1500	-0.00048462301
115	0xbd26e8d7	-0.040749397
116	0xbd8f3399	-0.06992263
117	0xbd2c9471	-0.042133752
118	0x3d5a5e6a	0.053312697
119	0x3c90f164	0.017693229
120	0x3d24cc2a	0.04023377
121	0xbccb0cc0	-0.024786353
122	0xbcc96030	-0.024581999
123	0xbbd38c30	-0.0064559206
124	0x3c45eb08	0.012079962
125	0x3da5541b	0.080726825
126	0xbb6ef0c0	-0.0036459416
127	0x3d0e803c	0.034790263
128	0x3d70e936	0.058816157
129	0x3d893795	0.067000546
130	0x3d60d2c6	0.05488851
131	0x3d72f6e2	0.059317477
132	0x3c2fcac8	0.010729499
133	0x3d920a43	0.071308635
134	0x3d25c746	0.040473245
135	0x3d93b163	0.07211568
136	0xbd71e6ff	-0.059058186
137	0xbc2f48f0	-0.010698542
138	0xbd9b512a	-0.0758384
139	0xbd60525d	-0.054766048
140	0xbcc2a938	-0.02376233
141	0x3ceb498c	0.028721593
142	0xbd8e7072	-0.06955041
143	0xbba31d80	-0.004977882
144	0x3da2f26f	0.07956397
145	0xbc693d58	-0.014235817
146	0xbd0658ec	-0.032799646
147	0xbd9fa032	-0.07794227
148	0x3d8c4a41	0.068501
149	0x3cbb3da4	0.022856541
150	0x3ca94a80	0.020665407
151	0x3d2b96da	0.04189191
152	0x3d727fae	0.059203796
153	0x3daacf01	0.08340264
154	0xbcd38b80	-0.025823355
155	0x3c4fa4f8	0.012673609
156	0x3c90e370	0.017686576
157	0xbc86401c	-0.016387992
158	0x3ce799d0	0.028271586
159	0xbc53d8f0	-0.01293014
160	0xbba91710	-0.00516022
161	0x3cb7bcf8	0.022428975
162	0x3d4dc0a2	0.050232537
163	0x3cffe0f4	0.031235196
164	0xbd2e797b	-0.04259632
165	0xbd10dfba	-0.035369612
166	0x3d01e31c	0.03171073
167	0x3d882d89	0.0664931
168	0xbb8b8bc0	-0.004258603
169	0x3d284652	0.041082688
170	0x3ccfe38c	0.025377057
171	0xbcba71f4	-0.022759415
172	0xbc811a8c	-0.015759729
173	0x3d291702	0.041281708
174	0xbb835e80	-0.004009068
175	0xbd0c02ef	-0.034182485
176	0xbd1c940f	-0.038227137
177	0x3ca6cfb0	0.020362705
178	0xbd5cf011	-0.053939883
179	0x3d71b3d6	0.059009396
180	0x3d01c128	0.03167835
181	0x3d582ea2	0.052778848
182	0x3d762c42	0.0601008
183	0xbc91ef54	-0.017814316
184	0xbd4c0a9b	-0.0498148
185	0xbcd5daca	-0.026105303
186	0xbd01ee8c	-0.031721637
187	0x3d901825	0.07035855
188	0xba494400	-0.00076776743
189	0x3db4a8e5	0.088212766
190	0x3d566026	0.052337788
191	0xbd9f76e4	-0.077863485
192	0xbd3044c8	-0.043034345
193	0xbd7a0d1b	-0.061047655
194	0x3d0e9d04	0.03481771
195	0x3d5fe666	0.054663084
196	0xbd127511	-0.035756174
197	0x3daa01cb	0.08301123
198	0x3c89a884	0.016803987
199	0x3c02bc80	0.007979512
200	0x3dae068d	0.08497343
201	0x3cae84e4	0.021303602
202	0xbd8f6533	-0.07001724
203	0x3d2803ce	0.041019253
204	0x3c894aac	0.01675924
205	0x3c66d8f8	0.014089815
206	0x3dad94fd	0.08475683
207	0xbd5c0a83	-0.053720962
208	0xbd773ae8	-0.06035891
209	0xbd82ebd5	-0.06392638
210	0xbd702174	-0.058625653
211	0x3d9f2f79	0.077727266
212	0x3c16e1c8	0.009209104
213	0xbd86a0e6	-0.06573658
214	0x3cbfa628	0.02339466
215	0xbc88b378	-0.01668714
216	0x3ce94efc	0.028480045
217	0x3d6ab092	0.057297297
218	0x3db0c92b	0.0863212
219	0x3bf33310	0.0074218586
220	0x3d7c4362	0.0615877
221	0xbb6791c0	-0.0035334677
222	0x3d800439	0.062508054
223	0xbd658504	-0.056035057
224	0x3d856a17	0.06514376
225	0x3c9ca4c0	0.019121528
226	0x3db08691	0.086194165
227	0xbb572080	-0.0032825768
228	0x3ca5db44	0.020246156
229	0x3d8c9c47	0.06865745
230	0xbd738604	-0.05945398
231	0xbd38bdcf	-0.04510289
232	0x3d9fb72d	0.0779861
233	0xbd1efb9b	-0.03881417
234	0x3d988db1	0.074489005
235	0xbda4da34	-0.080494314
236	0x3db4a2e9	0.08820135
237	0x3cedc080	0.029022455
238	0xbd90ff99	-0.070800014
239	0x3d378c36	0.04481145
240	0xbd5f9276	-0.054583035
241	0xbd9f4f6a	-0.07778819
242	0xbc8d7d20	-0.017271578
243	0xbd36c582	-0.044621952
244	0xbc753b30	-0.014967725
245	0xbd995dc7	-0.0748859
246	0x3ce5e9bc	0.028065555
247	0xbd47d045	-0.048782606
248	0xbcaa1660	-0.020762622
249	0x3d728822	0.059211858
250	0xbc83f10c	-0.016106151
251	0xbda1b562	-0.07895924
252	0xbcfd22fa	-0.030900467
253	0x3c623048	0.013805456
254	0x3d18ea82	0.03733302
255	0x3d5a5bae	0.05331009

bias f4 [100]
0	0x3d64cdce	0.055860333
1	0x3da46215	0.0802652
2	0x3d86550d	0.06559191
3	0xbd772acf	-0.06034356
4	0xbdb24a61	-0.08705593
5	0xbb9c3650	-0.0047672167
6	0x3d8174b7	0.0632109
7	0xbd9b9ec8	-0.075986445
8	0x3b5680e0	0.0032730624
9	0x3d1a49ca	0.037668027
10	0x3db1176f	0.08647048
11	0xbd8a271f	-0.06745743
12	0x3c9bfa14	0.019040145
13	0xbc068020	-0.008209258
14	0x3db360b9	0.08758683
15	0xbc371468	-0.011174299
16	0x3da61061	0.08108593
17	0xbda114b3	-0.07865276
18	0xbd32c49d	-0.043644536
19	0xbd679766	-0.05654087
20	0xbb9d2690	-0.004795857
21	0x3cbeb564	0.023279853
22	0x3d6d3026	0.057907246
23	0x3a931e00	0.0011224151
24	0xbd90f1ce	-0.070773706
25	0xbd6e23c0	-0.058139563
26	0x3d81811d	0.063234545
27	0x3d2e7c16	0.042598806
28	0x3d3e3572	0.04643769
29	0x3cdd3318	0.027001902
30	0x3da83287	0.08212762
31	0xbb360cc0	-0.0027778596
32	0x3dab8925	0.083757676
33	0x3d91b611	0.071148045
34	0x3d53e9b2	0.05173654
35	0xbd81140a	-0.0630265
36	0xbc1d2e58	-0.009593569
37	0xbd9bfc3c	-0.07616469
38	0xbc8cf934	-0.017208673
39	0xbdad0b40	-0.084494114
40	0xbd274296	-0.040834986
41	0xbdb23cec	-0.08703026
42	0xbd896dfb	-0.0671043
43	0x3cf411c8	0.029793635
44	0xbda6f109	-0.081514426
45	0xbd5df90e	-0.054192595
46	0xbdb292d4	-0.087194115
47	0xbda42713	-0.08015265
48	0x3d9393a1	0.07205892
49	0x3d423bc6	0.047420286
50	0xbd599eb9	-0.053129885
51	0x3ce6d008	0.028175369
52	0xbae95540	-0.0017801896
53	0x3b9530f0	0.004552953
54	0x3d9f76b5	0.077863134
55	0x3cceaca0	0.025228798
56	0x3d0af4f0	0.033924997
57	0x3d0598da	0.032616474
58	0xbba89d00	-0.005145669
59	0xbd2c6171	-0.042085115
60	0x3cc41940	0.023937821
61	0xbdad0357	-0.08447903
62	0xbd357575	-0.04430147
63	0x3d3ca45a	0.046055175
64	0xbd81ebc8	-0.063438
65	0xbc609b70	-0.013708934
66	0x3d498742	0.049201258
67	0xbcc5e39c	-0.024156384
68	0x3c719ff0	0.014747605
69	0xbda27b21	-0.07933641
70	0x3d33b802	0.043876655
71	0x3c9eb268	0.01937218
72	0xbd344bd2	-0.04401762
73	0x3ca9236c	0.020646773
74	0x3d9a108b	0.075226866
75	0x3c8f6864	0.017505832
76	0xbc882e64	-0.016623683
77	0x3c5e7990	0.013578787
78	0xbd31a32a	-0.043368496
79	0x3d75aa6a	0.059976973
80	0x3d66ce42	0.056349047
81	0xbd61c606	-0.05512049
82	0xbcc91d10	-0.02454999
83	0xbd83b699	-0.06431312
84	0xbd6b5396	-0.05745276
85	0xbc2aea00	-0.0104317665
86	0x3c264a50	0.010149553
87	0x3bd161f0	0.006389849
88	0xbd34c06d	-0.044128824
89	0xbd979e66	-0.07403259
90	0xbb7231c0	-0.0036955923
91	0xbd98e9d0	-0.07466471
92	0x3d4f5476	0.050617658
93	0xbc94fd50	-0.018187195
94	0xbdaa61e6	-0.08319454
95	0x3ae91080	0.0017781407
96	0xbca34908	-0.019932285
97	0xbd5f6c49	-0.05454663
98	0xbbdc53b0	-0.0067238435
99	0xbc99f91c	-0.018795542

weight f4 [1, 100]
0	0xbcaebab8	-0.021329269
1	0xbda94b0b	-0.082662664
2	0x3d26e992	0.040750094
3	0xbd9a151e	-0.07523559
4	0x3d5ddc2a	0.054165043
5	0x3c995ab4	0.018720008
6	0x3d762b56	0.060099922
7	0x3cb3c6f4	0.021945454
8	0xbd367fba	-0.044555403
9	0x39968500	0.00028709322
10	0x3ced927c	0.029000513
11	0x3d537aa2	0.051630624
12	0xbd6561e7	-0.05600157
13	0xbdad2eba	-0.08456178
14	0x3cb86f28	0.02251394
15	0xbdc243e3	-0.094856046
16	0xbdbcb0ca	-0.09213407
17	0xbd3bb1cd	-0.04582386
18	0x3d8fe4e3	0.070260786
19	0x3daf0869	0.08546526
20	0xbd71e50a	-0.05905632
21	0xbd3fa09d	-0.046784032
22	0x3d2653ca	0.04060725
23	0xbd9b75f0	-0.07590854
24	0xbdbed55a	-0.09318037
25	0xbc80a8e0	-0.015705526
26	0x3dbc0c19	0.09181995
27	0x3bec2da0	0.0072075874
28	0x3d105716	0.0352393
29	0x3d5f11e2	0.054460414
30	0xbcfedea8	-0.03111203
31	0xbc7bb5e8	-0.015363194
32	0x3c751470	0.014958486
33	0x3cdfbe0c	0.027312301
34	0xbda7d703	-0.08195307
35	0xbbf23260	-0.007391259
36	0xbce33a8c	-0.027737878
37	0xbd68765a	-0.056753494
38	0xbd0e1b2c	-0.034693882
39	0x3daa059f	0.083018534
40	0xbc30a2d8	-0.0107810125
41	0x3d6423ee	0.055698328
42	0x3d0039ba	0.031305052
43	0x3cbef468	0.023309901
44	0xbdbf025f	-0.09326624
45	0x3cf55b4c	0.02995076
46	0xbd5953c3	-0.053058397
47	0xbd9d6282	-0.076848045
48	0xbda9a8b2	-0.08284129
49	0xbd697c30	-0.0570032
50	0x3cb4ec74	0.022085406
51	0x3d5fd5ae	0.05464714
52	0x3dc9ea33	0.09859123
53	0xbd481d2d	-0.04885595
54	0xbda105aa	-0.078624085
55	0xbd3e5e3a	-0.04647658
56	0x3bfbf880	0.0076895356
57	0x3da11edb	0.07867213
58	0xbd86c5e0	-0.065807104
59	0x3d676b02	0.056498535
60	0xbdbef267	-0.09323578
61	0x3b5611a0	0.0032664314
62	0xbb74fe60	-0.0037383065
63	0x3d623a5e	0.055231445
64	0xbdb00433	-0.08594551
65	0xbc954b20	-0.018224299
66	0x3aec7880	0.0018041283
67	0x3c9f5fac	0.0194548
68	0x3d6ab942	0.057305582
69	0xbcbaa708	-0.022784725
70	0x3d822e01	0.06356431
71	0xbdc7ad03	-0.09749796
72	0xbb488140	-0.0030594617
73	0xbd982a5e	-0.07429956
74	0xbdc4c0aa	-0.0960706
75	0x3bf7e6d0	0.007565357
76	0xbd1c32d3	-0.038134407
77	0x3d872221	0.065983064
78	0xbdc435bd	-0.09580562
79	0xbd761680	-0.06008005
80	0x3b7ac0c0	0.003826186
81	0xbd148f9c	-0.03626977
82	0x3d9336a3	0.071881555
83	0x3da7e433	0.081978224
84	0x3d57e7ee	0.05271142
85	0x3db7721d	0.08957312
86	0x3d39e0d2	0.04538042
87	0xbcc73ad8	-0.024320051
88	0xbd864798	-0.06556624
89	0xbcff4d48	-0.03116478
90	0xbd28420d	-0.041078616
91	0x3cab5878	0.020916209
92	0x3d801569	0.06254084
93	0x3d8eb611	0.0696832
94	0xba1bb500	-0.0005939752
95	0xbd003b9c	-0.031306848
96	0x3b19b2a0	0.0023452416
97	0xbdb9ffb7	-0.09081977
98	0xbc8b6748	-0.017017022
99	0x3cefec14	0.029287376
