additional experiments/saved models/sigmoid_mlp_num_2_mpnn_2.pth (torch, 54661 bytes, 3 tensors)

weight f4 [100, 128]
0	0xbd3ee3bb	-0.0466039
1	0x3cce9bb8	0.025220737
2	0xbccfd908	-0.025372043
3	0x3d0aafae	0.033858947
4	0xbcd5eaec	-0.026112996
5	0xbcc44270	-0.023957461
6	0x3d246a5e	0.040140502
7	0x3d9226a7	0.071362786
8	0xbc88ce90	-0.01670006
9	0x3d3b9c6e	0.04580348
10	0x3bbfa4d0	0.0058485046
11	0x3da6b613	0.08140197
12	0x3cb826b4	0.022479393
13	0xbcf5eb2c	-0.030019365
14	0x3d812f2d	0.06307826
15	0x3cab96f4	0.020946003
16	0x3da69fa1	0.081359155
17	0xbd0bf402	-0.03416825
18	0xbda4f0c4	-0.08053735
19	0x3d532d92	0.05155713
20	0xbb846cf0	-0.0040413067
21	0x3bab9370	0.005236082
22	0x3d8db04b	0.06918391
23	0x3d9e639f	0.07733845
24	0xbad99000	-0.0016598701
25	0xbd5a22fc	-0.05325602
26	0xbdaa6b00	-0.0832119
27	0x3ca5d8d4	0.020244993
28	0xbc99e9a4	-0.018788166
29	0xbb957b50	-0.004561819
30	0x3c99cb38	0.01877366
31	0xbd042668	-0.03226319
32	0x3d9129fb	0.07088085
33	0x3d128eb0	0.03578061
34	0xbd97e233	-0.07416191
35	0xbda590d2	-0.08084263
36	0x3dada6b9	0.084790654
37	0x3d34557a	0.04402683
38	0x3d9a12bd	0.07523105
39	0x3c925458	0.017862484
40	0xbd753138	-0.05986139
41	0x3d9255b1	0.071452506
42	0xbd8dfef3	-0.06933393
43	0x3d924501	0.07142068
44	0xbcadb3e0	-0.021203935
45	0xbd56293c	-0.052285418
46	0x3d20cac6	0.03925588
47	0xbc8d511c	-0.01725059
48	0x3d7bbe86	0.061460994
49	0xbda88352	-0.08228172
50	0xbd88e4a9	-0.066842385
51	0x3cfcfdb4	0.030882694
52	0xbd263821	-0.040580872
53	0xbc450f58	-0.012027584
54	0xbc386e48	-0.011256762
55	0x3c229008	0.009922035
56	0x3c378ef8	0.01120352
57	0xbd73320c	-0.0593739
58	0x3d8d1b8d	0.068900205
59	0x3c2cef40	0.0105550885
60	0x3d883531	0.066507705
61	0x3d6f7356	0.058459602
62	0xbd16e903	-0.03684331
63	0xbd57c3c1	-0.05267692
64	0x3d85294d	0.06502018
65	0xbdab1dde	-0.08355306
66	0xbcedf84c	-0.029049061
67	0xbd1515f2	-0.03639788
68	0x3b3882e0	0.002815418
69	0xbc9b9a50	-0.01899448
70	0xbd81cdc9	-0.063380785
71	0x3cdd3078	0.02700065
72	0x3d33927a	0.043840863
73	0x3d98d3fb	0.07462307
74	0x3c638398	0.013886355
75	0xbda788f4	-0.081804186
76	0x3ca0394c	0.019558571
77	0xbda5c40d	-0.08094034
78	0xbd0ac311	-0.033877436
79	0x3c3f4438	0.011673979
80	0x3daefe85	0.085446395
81	0x3ad3e240	0.001616545
82	0x3d22270a	0.03958801
83	0x3d5808b6	0.052742682
84	0x3d9c7d01	0.0764103
85	0x3d79d03e	0.06098961
86	0xbd2736aa	-0.040823616
87	0x3cacb688	0.021083131
88	0xbd95a221	-0.07306314
89	0xbd26d08e	-0.040726237
90	0x3d1bd1ae	0.038041763
91	0xbbdfba80	-0.0068276525
92	0x3d025e9c	0.031828508
93	0xbd631022	-0.055435307
94	0xbd4d362d	-0.050100494
95	0xbd6a7e2c	-0.057249233
96	0xbd4406c5	-0.04785802
97	0xbd843b65	-0.06456641
98	0x3d37a06e	0.044830732
99	0x3d97b779	0.074080415
100	0x3d860e4f	0.06545698
101	0x3cf130fc	0.029442303
102	0xbda6cf02	-0.08144952
103	0x3d2f52ca	0.042803563
104	0x3d2fe562	0.042943366
105	0x3d0b6948	0.03403595
106	0xbd9693a1	-0.07352377
107	0xbd21f7ef	-0.03954309
108	0x3d058a28	0.03260246
109	0x3d1b9c4a	0.037990846
110	0xbc9c8a04	-0.01910878
111	0xbd8ea5af	-0.069651954
112	0xbdafec0a	-0.08589943
113	0x3d4a8052	0.049438782
114	0x3cea3c7c	0.028593294
115	0x3ce8d37c	0.028421156
116	0x3ca425fc	0.020037644
117	0xbd01b093	-0.031662535
118	0xbcf0eab6	-0.029408794
119	0xbcb893b4	-0.022531368
120	0xbdacebfa	-0.084434465
121	0xbd786add	-0.060648788
122	0x3d0c4d58	0.03425345
123	0xbd5d2d74	-0.053998426
124	0x3d55ad62	0.052167304
125	0x3d1f304a	0.03886441
126	0xbd2bb772	-0.041922994
127	0xbd1ab41c	-0.037769422
128	0x3da75629	0.081707306
129	0x3d9680a9	0.07348759
130	0x3d8cfbcd	0.06883965
131	0xbda9f484	-0.08298591
132	0x3980e600	0.00024585426
133	0xbc6818b0	-0.014166042
134	0xbc1b81c0	-0.009491384
135	0xbda9375f	-0.08262514
136	0x3d667726	0.056265973
137	0xbd65ff2e	-0.05615156
138	0x3d105602	0.035238273
139	0x3d699e86	0.057035945
140	0x3da29217	0.07938021
141	0x3c273da0	0.010207564
142	0xbcb03894	-0.021511354
143	0x3cfc247c	0.030779116
144	0x3da6cb37	0.08144229
145	0x3d00a342	0.031405695
146	0xbd89ab00	-0.06722069
147	0x3c6eb350	0.014569119
148	0x3d2a005a	0.04150424
149	0xbd1a8062	-0.03772009
150	0x3d73802a	0.0594484
151	0xbd2a435b	-0.04156814
152	0xbd9f5a1c	-0.07780859
153	0xbda29f97	-0.079405956
154	0x3c793590	0.015210524
155	0x3d905e83	0.07049277
156	0x3caa3bec	0.020780526
157	0x3ceb1be0	0.028699815
158	0xbc8edaa4	-0.01743824
159	0x3c1f81c0	0.009735525
160	0x3db45ceb	0.08806785
161	0xbd85cfb8	-0.0653376
162	0x3d50f15a	0.05101142
163	0x3d9f66a9	0.07783253
164	0xbd60d089	-0.054886375
165	0x3d6342de	0.05548369
166	0xbc3d8828	-0.011568107
167	0x3c92e874	0.017933108
168	0x3c9ecba8	0.01938422
169	0xbc62ebf8	-0.013850205
170	0xbcdcca2e	-0.026951876
171	0x3d89a571	0.067210086
172	0xbd81a0dc	-0.063295096
173	0xbd90b0cb	-0.070649706
174	0xbc228940	-0.009920418
175	0x3c368ac0	0.011141479
176	0xbc8f983c	-0.017528646
177	0x3d736ebe	0.059431784
178	0xbc0cd710	-0.008596197
179	0x3c4cd398	0.01250162
180	0xbc308e20	-0.010776073
181	0xbced3774	-0.028957106
182	0xbd9a0cd5	-0.07521979
183	0x3c577e90	0.013152733
184	0xbc3387b8	-0.010957651
185	0xbda78710	-0.08180058
186	0x3dae8441	0.08521319
187	0x3cf121f0	0.029435128
188	0x3c34a7a8	0.0110263005
189	0xbdb4f822	-0.0883639
190	0xbd85a86a	-0.06526263
191	0xbbbed1b0	-0.0058233365
192	0x3cced054	0.025245823
193	0x3c9fc584	0.019503362
194	0x3da2c2e5	0.079473294
195	0xbcf1e026	-0.029525828
196	0x3b751ac0	0.0037399977
197	0xbd032ad5	-0.03202327
198	0xbdb0a0cc	-0.086244196
199	0x3d359a96	0.044336878
200	0xbd85b850	-0.065292954
201	0xbd190198	-0.037355036
202	0xbd611d42	-0.054959543
203	0x3d033ea2	0.032042153
204	0xbdb0e9db	-0.086383544
205	0xbd9e2877	-0.07722562
206	0x3daa82c7	0.08325725
207	0x3c0a2860	0.008432478
208	0xbc2d92e8	-0.010594107
209	0x3c40fc18	0.011778854
210	0xbdae60ef	-0.08514582
211	0x3d27214e	0.040803246
212	0xbcfc44dc	-0.030794553
213	0x3cccb334	0.024987794
214	0x3d15807c	0.036499485
215	0xbda9b9a6	-0.08287363
216	0xbc2ab6b0	-0.010419533
217	0xbd3046ac	-0.043036148
218	0x3c4eb7c0	0.012617052
219	0x3cf761ac	0.03019794
220	0xbc82ea78	-0.015980944
221	0x3d798932	0.060921855
222	0xbaf10b00	-0.0018390119
223	0xba3c2980	-0.0007177815
224	0xbd3704bd	-0.044682253
225	0x3d3fa2b2	0.046786018
226	0xbd3cc076	-0.046081983
227	0xbd1458a9	-0.036217365
228	0xbdb02945	-0.086016215
229	0x3d5bf01a	0.053695776
230	0x3cf68d90	0.0300968
231	0xbd8abfea	-0.06774886
232	0x3d841081	0.0644846
233	0xbc93045c	-0.017946415
234	0x3d817341	0.06320811
235	0xbd85d6e7	-0.0653513
236	0xbb8213e0	-0.0039696544
237	0xb9f04d00	-0.00045833737
238	0x3d69ac02	0.057048805
239	0xbd10f869	-0.035393152
240	0x3bbefa80	0.005828202
241	0xbd922805	-0.07136539
242	0x3c8b6ba8	0.017019108
243	0xbb117540	-0.002219513
244	0x3d0b7c90	0.03405434
245	0xbd98e781	-0.07466031
246	0xbcdf9254	-0.027291454
247	0xba4a4a80	-0.000771679
248	0xbb937200	-0.004499674
249	0x3d2e63e6	0.04257574
250	0x3bc6b530	0.0060640797
251	0xbcb7c864	-0.02243442
252	0x3c9a6614	0.018847503
253	0xbd84fe00	-0.06493759
254	0xbda26f37	-0.07931369
255	0xba555c80	-0.0008139089

bias f4 [100]
0	0xbda0b2f7	-0.07846635
1	0x3d9187c9	0.07105977
2	0xbc0ad1a0	-0.00847283
3	0x3d04b902	0.032403
4	0x3d735d06	0.059414886
5	0x3c571f68	0.013130046
6	0xbdac25b8	-0.08405632
7	0xbc9a0f20	-0.01880604
8	0x3d6a18a2	0.057152398
9	0x3d9c7a6b	0.07640537
10	0x3c397850	0.011320189
11	0x3d77dc9e	0.06051313
12	0xbd080dcb	-0.03321628
13	0x3d5df472	0.0541882
14	0x3db163e5	0.086616315
15	0x3c81b3c0	0.015832782
16	0x3d76887e	0.060188763
17	0x3cf16570	0.029467314
18	0xbd94e5f3	-0.07270422
19	0x3d364d6a	0.04450742
20	0xbd44312d	-0.04789846
21	0x3dad6665	0.08466796
22	0x3d9a9369	0.075476475
23	0x3cf743a4	0.03018362
24	0x3cbda144	0.023148187
25	0xbd9ba2b8	-0.075993955
26	0x3dae065b	0.08497306
27	0xbc2b23b8	-0.010445528
28	0xbd2e0565	-0.042485613
29	0x3ca0e2e0	0.019639432
30	0x3c91af18	0.017783687
31	0xbcefb654	-0.029261746
32	0x3d284e9e	0.0410906
33	0x3c9d4bf0	0.019201249
34	0x3d5254e2	0.05135048
35	0x3d5fa14e	0.05459719
36	0xbbba9aa0	-0.0056947023
37	0x3d90cb69	0.070700474
38	0x3c94cb84	0.01816345
39	0xbceabac0	-0.028653502
40	0x3d8bc0e3	0.068238996
41	0xbb97e5c0	-0.0046355426
42	0xbdaf6e5f	-0.085659735
43	0xbd8ffc8a	-0.0703059
44	0x3d71bdfa	0.059019066
45	0x3da7adc9	0.08187444
46	0x3c89861c	0.016787581
47	0x3be20220	0.006897226
48	0xbd6b5c28	-0.057460934
49	0xbc3224f0	-0.010873064
50	0x3d8f96d5	0.07011191
51	0xbd0d5a2b	-0.03450982
52	0xbd98ad30	-0.07454908
53	0xbd0731d4	-0.033006504
54	0x3ca65d20	0.020308077
55	0x3ce6c17c	0.028168432
56	0x3d45daf6	0.04830452
57	0xbd152b80	-0.036418438
58	0x3c337348	0.010952778
59	0x3d451ef2	0.048125215
60	0xbc2fe8b8	-0.010736637
61	0x3d555272	0.05208058
62	0xbc8b43a8	-0.017000034
63	0x3d4ee996	0.050515734
64	0xbd3014b3	-0.04298849
65	0xbd7d707e	-0.06187486
66	0xbcaba298	-0.020951554
67	0x3c86f060	0.016472042
68	0xbc8cd808	-0.017192855
69	0xbd7fbe1c	-0.06243716
70	0xbdaf6504	-0.08564189
71	0x3d873299	0.066014476
72	0xbcc49c40	-0.024000287
73	0xbd796536	-0.060887538
74	0x3d7a8b36	0.06116792
75	0x3d934f13	0.071928166
76	0xbd406588	-0.046971828
77	0x3b499de0	0.0030764267
78	0x3d7588be	0.05994486
79	0x3c99e638	0.018786535
80	0x3cb95db0	0.022627681
81	0xbd0c960e	-0.03432279
82	0x3d2a061a	0.041509725
83	0xbcffd320	-0.031228602
84	0x3d6eb1d2	0.05827505
85	0x3c6da5c0	0.01450485
86	0x3d7c235a	0.06155715
87	0xbd395875	-0.045250375
88	0x3c9310c0	0.017952323
89	0xbcf14654	-0.02945248
90	0x3d383bc6	0.04497888
91	0x3da4d071	0.080475695
92	0x3da7bfe1	0.08190895
93	0xbcd16250	-0.025559574
94	0x3da16f8b	0.07882603
95	0xbdb1a317	-0.08673685
96	0xbd9df28e	-0.07712279
97	0xbd419a9e	-0.047266595
98	0xbda4cb6c	-0.08046612
99	0xbd6acf44	-0.05732657

weight f4 [1, 100]
0	0x3d4fbad6	0.05071529
1	0x3d623cbe	0.05523371
2	0xbce13d20	-0.027494967
3	0x3d0da70a	0.03458313
4	0x3dbbc179	0.09167761
5	0xbb6c5440	-0.003606096
6	0x3dc65937	0.09684985
7	0xbdb3d847	-0.08781486
8	0x3c5aa980	0.013346076
9	0x3be15230	0.0068762526
10	0xbdaaba9e	-0.08336376
11	0xbd916582	-0.07099439
12	0xbd83a6c8	-0.064282954
13	0x3d81f273	0.06345072
14	0xbdbe0ca0	-0.09279752
15	0x3dbbc995	0.09169308
16	0xbc9b9d94	-0.018996038
17	0x3c2f0398	0.010682009
18	0x3da9d96f	0.08293425
19	0x3cdd4c14	0.027013816
20	0x3c8d5ce8	0.017256215
21	0xbd7beaa7	-0.06150308
22	0x3d7c6dea	0.06162826
23	0xbd8ac6ad	-0.06776176
24	0xbd489c0d	-0.048976947
25	0xbd86914e	-0.065706834
26	0xbdbf18ed	-0.09330926
27	0x3dc0d1e1	0.09415031
28	0xbd8291f8	-0.063754976
29	0x3d8e5359	0.06949491
30	0xbdaf0f78	-0.08547872
31	0xbc81dbc0	-0.015851855
32	0x3dc740b1	0.09729136
33	0x3c6c3368	0.014416553
34	0x3c461d70	0.012091979
35	0xbd7ac4c7	-0.061222818
36	0xbdc199e3	-0.0945318
37	0xbd7c1520	-0.061543584
38	0x3da160e3	0.07879808
39	0xbda18476	-0.07886593
40	0x3cc49fd8	0.024002
41	0xbd1284e4	-0.035771266
42	0xbc8c1dd4	-0.017104067
43	0xbda871fa	-0.08224864
44	0xbd0f2c96	-0.03495463
45	0xbd8fbce6	-0.070184514
46	0xbdb07a20	-0.086170435
47	0x3dc7e439	0.09760327
48	0x3ce79c3c	0.02827274
49	0xbd232037	-0.039825644
50	0x3d87f1e5	0.066379346
51	0xbd7762b0	-0.06039685
52	0xbd793b63	-0.06084765
53	0x3ccaa318	0.024735972
54	0x3daf2611	0.085521825
55	0x3ccc37ec	0.02492901
56	0xbda67cee	-0.08129297
57	0xbcfd99d8	-0.030957147
58	0x3d7f0f26	0.062270306
59	0xbdad8f3b	-0.08474585
60	0xbc9ebbb4	-0.019376613
61	0x3db9eb69	0.09078104
62	0x3d70dc8e	0.058804087
63	0xbd3955e0	-0.045247912
64	0xbd365807	-0.044517543
65	0x3cb8ca48	0.022557393
66	0x3cf4f604	0.029902466
67	0xbd810a4c	-0.06300792
68	0xbc9e9438	-0.019357786
69	0x3dc9b115	0.09848229
70	0xbda8ba30	-0.082386374
71	0xbd04d57a	-0.03243015
72	0xbd9f6d9a	-0.07784577
73	0x3db9617d	0.090517975
74	0xbdaae5bb	-0.08344599
75	0x3dc6ec27	0.09713011
76	0x3b82df00	0.003993869
77	0x3d8aece1	0.06783462
78	0x3d9c2cb9	0.07625718
79	0x3d809c17	0.06279772
80	0x3d7c00c2	0.06152416
81	0xbbe08fb0	-0.0068530664
82	0xbda084c5	-0.07837824
83	0x3dadd96b	0.08488735
84	0xbd669c37	-0.05630132
85	0xbdae89ea	-0.08522399
86	0x3d923a49	0.07140023
87	0xbdcc2dc3	-0.09969666
88	0xbd6a4397	-0.057193365
89	0xbdb8b7c0	-0.090194225
90	0x3d8100d9	0.0629899
91	0x3d9397f3	0.072067164
92	0xbd50b857	-0.05095705
93	0x3dc56069	0.096375294
94	0x3cd44a64	0.025914378
95	0xbd647a0d	-0.05578046
96	0x3d2c2a32	0.042032428
97	0x3b72db60	0.0037057027
98	0x3da73cfb	0.08165928
99	0x3dc81633	0.09769859
