additional experiments/saved models/tanh_mlp_num_1_mpnn_7.pth (torch, 54579 bytes, 3 tensors)

weight f4 [100, 128]
00000000: 50af 6e3c b856 82bc a3d0 b43d f81b 153c
00000010: 4634 373d 19f6 993d 1cc0 b43c 26f6 84bd
00000020: cc92 a8bc c80f 04bd 909a a53b cc63 c8bc
00000030: 027b 783d bbb4 53bd 7f6e 9dbd c082 0c3c
00000040: 6099 65bc d0da 14bd 517c 0bbd 68df 1dbc
00000050: e240 283d 2f5b 76bd 4fd9 853d 2441 cd3c
00000060: 5e7c 4a3d a4b3 fabc 62e6 303d 8f8b aa3d
00000070: 8af2 363d f2ce 5f3d 1e9e 173d 6e8d 1ebd
00000080: b36a a13d 6a15 02bd cb0a 903d 7ace 4d3d
00000090: c091 fa3c 006c 07bb 5c3f 98bd a52b ae3d
000000a0: 3650 5d3d 0cd2 c83c 681a b5bc b7ed 8b3d
000000b0: 42b0 663d 3f1b 983d ad75 af3d ea3a 4f3d
000000c0: bc44 94bc dff5 acbd 19b3 983d 240c 7fbd
000000d0: 703d 853b 497f a33d 78c2 50bc 7628 3d3d
000000e0: 870a a63d e66a 4c3d 11c9 9ebd 7da1 2abd
000000f0: 204f e03c c08e 73bb b82e cc3c 2818 02bc
00000100: 3ed0 3c3d 886f 85bc 7ea2 433d 00c8 a0b8
00000110: 40f2 14bc 88af 963c 3bfe 17bd e0a9 76bc
00000120: a40d 99bd 1626 7e3d 3095 953c aae2 3b3d
00000130: 27af 8e3d e6f9 293d 045d 1abd a09b adbb
00000140: 6c76 36bd dea6 0d3d 4725 8bbd 2abe 433d
00000150: 363c 3a3d 1774 8a3d a5f0 0ebd 21c2 af3d
00000160: dbbb 84bd 095f 25bd 497b 873d e41f acbd
00000170: 84f1 ce3c 2004 0c3b 567e d9bc 5bc3 ac3d
00000180: eb13 a23d c07b d13b 6000 66bc 0ad5 6bbd
00000190: 68a7 84bd 00c5 af3c ba54 653d bca0 c63c
000001a0: fa4f f3bc 58a6 b1bd 1831 87bd 20b5 20bb
000001b0: ca1a 3b3d fa49 a3bd b0a2 fbbc a2b3 38bd
000001c0: d0a9 a53b c81d 5a3c dc15 f3bc dafa 703d
000001d0: dbfe af3d 3d7c a13d 204d 4b3c 8692 423d
000001e0: baaa 153d 7050 6fbd 1f47 a43d 3cdf 97bd
000001f0: d761 06bd 1071 19bd d0a6 0fbd 800b ec3b
00000200: a45a 85bd 0d22 8fbd 493a 833d aa57 5cbd
00000210: 20cf d0bb 10c5 8f3b 06cf 3f3d d0e5 c03c
00000220: 1cf2 f93c 7a31 99bd e0f2 66bd 003f f13c
00000230: 48ae 133d 8409 833c 250e 3fbd b548 2bbd
00000240: 4af7 783d 6adc 2a3d 9993 09bd 0094 8cbd
00000250: ec5a 91bc 3085 44bd 5852 06bc 9594 853d
00000260: 0c2b 50bd a312 adbd 1092 0b3c 88de 5abc
00000270: 2f46 a73d f4e6 a3bd 2350 0fbd 6005 a6bd
00000280: c00f 01bd 2023 793c 3a5b 2f3d 6a10 1d3d
00000290: 7a89 623d 2c5d 96bc 89d1 9bbd 6691 8ebd
000002a0: 38b7 0d3d cd82 b33d 0922 843d 68d2 3a3c
000002b0: 32d3 afbd 002c a03a 38c9 2dbc c24f 783d
000002c0: fabc 85bd 26ae 423d 2c78 123d e8ad 37bc
000002d0: 1c00 b23c add3 873d e848 b23c 94aa 88bd
000002e0: 2644 253d d251 363d b0ca c43b b0bf 023c
000002f0: 0b71 1dbd d015 b3bd fdb9 9a3d 6d35 8c3d
00000300: 2004 733c 3d3f 91bd b54e 18bd 185a 34bc
00000310: d8af 40bd fb6a a73d 7c5b a83c 0bbd b33d
00000320: da65 473d 36aa 5a3d 0a24 6c3d ab76 833d
00000330: 3a66 283d cc56 ef3c e26d 6bbd 5ef9 87bd
00000340: 06f5 33bd 4e94 9dbd 885b 2ebc 78d3 d2bc
00000350: 0c20 abbd ec30 a0bc 785c c63c 60b6 c13c
00000360: 4d92 4bbd 8025 adbd 30ce 4ebd 2076 5fbc
00000370: babf 403d 26ce 2a3d e659 453d b067 a8bb
00000380: 3093 cebc e65f 6b3d 6f1d 863d ff55 b03d
00000390: 9389 b13d 9459 da3c bf90 aebd 3879 853c
000003a0: d0b6 da3c efd9 81bd 589b 9abc 5208 3f3d
000003b0: 9487 edbc 6603 36bd b6b0 a1bd 4208 653d
000003c0: dd55 1bbd c91e 943d 3818 303c 7af2 443d
000003d0: 412d 4abd d915 953d f0a4 813c 79fb 863d
000003e0: 7afa 403d 8e67 373d 50a9 5c3c fbfd 44bd
000003f0: be29 773d 92bf 683d 0c67 0a3d c80e df3c
0.014568165 -0.015910491 0.08828857 0.009100907 0.044727586 0.075176425 0.022064261 -0.064922616
-0.02057781 -0.032241613 0.0050538257 -0.02446165 0.060664184 -0.05168603 -0.07687091 0.008576095
-0.014013618 -0.03634149 -0.034054104 -0.009635784 0.041077502 -0.060145553 0.06535589 0.025055476
0.049435012 -0.030603237 0.04318846 0.083274 0.044664897 0.054640718 0.037016027 -0.038709097
0.078816794 -0.031758703 0.070333086 0.05024574 0.030587077 -0.0020663738 -0.0743396 0.08504418
0.054031573 0.02451422 -0.022107318 0.0683245 0.056320436 0.07427072 0.08567367 0.050593294
-0.018099181 -0.08445334 0.07456035 -0.062267438 0.004066162 0.07983262 -0.012741677 0.046181165
0.08107477 0.049906634 -0.07753194 -0.041657913 0.02738148 -0.0037163943 0.024924621 -0.00794033
0.046097033 -0.016288534 0.047762387 -7.6666474e-05 -0.00909096 0.018394247 -0.037107687 -0.01505515
-0.07473305 0.06204804 0.018259615 0.04587046 0.069670014 0.041498087 -0.037686363 -0.005298093
-0.04454653 0.034582965 -0.067942195 0.047788776 0.045467578 0.06760424 -0.034897465 0.08581949
-0.06481143 -0.040373836 0.06615312 -0.0840452 0.025261648 0.0021364763 -0.0265495 0.084356986
0.07913955 0.006392926 -0.014038175 -0.057576217 -0.06477243 0.021456242 0.055989005 0.024246566
-0.029701222 -0.08674306 -0.06601161 -0.0024522021 0.045679845 -0.07973094 -0.030717224 -0.045093186
0.0050556436 0.0133127645 -0.02967351 0.05883298 0.08593532 0.07885025 0.012408525 0.047503017
0.03653977 -0.05842632 0.08021378 -0.074156255 -0.03280815 -0.03746134 -0.035071194 0.0072035193
-0.06511429 -0.069889165 0.064076014 -0.05379454 -0.0063723475 0.0043875054 0.046828292 0.023547083
0.030510955 -0.0748014 -0.056383967 0.029448986 0.03605488 0.015995748 -0.04664435 -0.041817386
0.06078271 0.04171411 -0.033588026 -0.06864166 -0.01774355 -0.04797858 -0.008198343 0.065224804
-0.050822303 -0.0845082 0.008518711 -0.01335872 0.08167683 -0.08003035 -0.034988534 -0.08106494
-0.03150916 0.015206128 0.04281161 0.03834573 0.05530689 -0.018354975 -0.07608325 -0.06961326
0.03459856 0.08765183 0.06451804 0.011402704 -0.08585204 0.0012220144 -0.010607056 0.060622938
-0.06530185 0.047529362 0.035759136 -0.011210896 0.021728568 0.06632171 0.02176328 -0.0667316
0.040348195 0.044511624 0.0060056075 0.007980272 -0.038437884 -0.08744395 0.07555006 0.06846128
0.014832526 -0.0709214 -0.037184436 -0.011007808 -0.047042698 0.08174702 0.020551436 0.087762915
0.048681118 0.053384982 0.057651557 0.064191185 0.041113116 0.029216193 -0.05747784 -0.0663936
-0.043934844 -0.076943025 -0.01064194 -0.025735602 -0.08355722 -0.019554578 0.024214014 0.023646533
-0.04970007 -0.08454418 -0.050489604 -0.013639003 0.047057845 0.041700505 0.048181437 -0.0051393136
-0.025216669 0.057464503 0.06548583 0.086101525 0.08668818 0.026654042 -0.08523702 0.016293153
0.0266985 -0.06340396 -0.018872902 0.046638794 -0.028995313 -0.044436835 -0.07895033 0.05591608
-0.037923682 0.07232434 0.010747962 0.048082806 -0.049359564 0.07279558 0.015825719 0.06590933
0.047113873 0.04477649 0.013468102 -0.048093777 0.060342543 0.05682332 0.03378968 0.027228728

bias f4 [100]
00000000: e83f 2a3c a08a cdbc 3cb5 a6bc 90cd 293c
00000010: 286d b63c ea95 713d 2954 aa3d bf91 45bd
00000020: c90e a63d d8f7 f0bc fe00 b0bd a86c 91bd
00000030: a4f5 ddbc cbed 51bd 0002 13bd c747 0cbd
00000040: 86c9 6b3d 290a ad3d 1ec9 063d 000d bb3a
00000050: 0030 da39 82f1 89bd 4002 71bd a06d 0fbc
00000060: e655 7dbd 1377 adbd 16fe 023d 00ca 0d3a
00000070: be18 85bd a248 1b3d 8f28 863d fdc2 a13d
00000080: 0891 103c b703 b1bd be18 673d edec 823d
00000090: 1a15 4a3d 407c b83c 20fd 3bbc fb73 32bd
000000a0: d766 09bd 18f2 c6bc 7875 e43c 11d5 8fbd
000000b0: cf7e 43bd 003d 62bb 16ca 6abd ccef 823c
000000c0: 8a31 64bd 4a3b dfbc 9e7c 4b3d 28c5 35bc
000000d0: 9b1b 5cbd b89d a4bd 6fd2 ab3d 381d 6abd
000000e0: e58d 893d dd2d a9bd c4f5 3bbd 2b85 a1bd
000000f0: 8501 8e3d 00a7 123c d467 1fbd c24a 603d
00000100: 365b 563d 88fb 6dbc 1147 91bd 80e4 ebbb
00000110: b77d 873d f8ee b63c 2c5b e7bc 29bd a43d
00000120: 0ad9 8cbd 08fe ff3c 0ae6 89bd 0075 d4ba
00000130: 847f 10bd 8094 3a3a 1087 a8bb da5b 6c3d
00000140: a111 0ebd 14f1 05bd f0cd 56bc c03c 0abd
00000150: a422 9e3c f26f 7c3d 056b a23d 662d 243d
00000160: c7e1 a5bd 18dc 5dbc 2621 643d 86b1 413d
00000170: a0d4 083d 8ecd 2dbd dfc2 a5bd 00c1 69bd
00000180: 0000 a937 5711 4fbd ae2a 3a3d dcdf e93c
0.010391213 -0.025090516 -0.020350091 0.010363951 0.022268847 0.05898086 0.083168335 -0.048234697
0.08108289 -0.029415056 -0.08593939 -0.07100803 -0.02709467 -0.051252168 -0.03589058 -0.03424814
0.057565235 0.084492035 0.032906644 0.0014270842 0.00041615963 -0.06735517 -0.058840036 -0.008754164
-0.061849497 -0.08469977 0.031980596 0.00054088235 -0.0649886 0.037911065 0.06550705 0.07898519
0.008823641 -0.08643287 0.05642008 0.06392846 0.04933653 0.022520185 -0.011473924 -0.04356764
-0.03354534 -0.024285361 0.027888045 -0.07023061 -0.047728356 -0.0034521222 -0.05732163 0.015983485
-0.055711307 -0.02724995 0.04967939 -0.011094369 -0.053737264 -0.08037895 0.083897464 -0.05715677
0.06716517 -0.08260701 -0.045888677 -0.07886728 0.069338836 0.008950949 -0.038917378 0.054758795
0.05233308 -0.014525302 -0.07093633 -0.00719887 0.06615775 0.022330746 -0.028241716 0.08043892
-0.068773344 0.031249061 -0.067333296 -0.0016209185 -0.03527786 0.0007117465 -0.005143054 0.057704784
-0.03468478 -0.032700613 -0.013110623 -0.033749342 0.019303627 0.061630197 0.079305686 0.040082358
-0.08099704 -0.013541244 0.055695675 0.04728844 0.0334059 -0.04243236 -0.08093809 -0.057068825
2.014637e-05 -0.050553646 0.04545086 0.028549127

weight f4 [1, 100]
00000000: 60b6 a03c 1d35 79bd b03b 06bd 54f8 ce3c
00000010: 005e 723b 318c cc3d 7aa7 3bbd a8da 8bbc
00000020: 7a32 52bd 5e21 91bd 8540 adbd e5ab b13d
00000030: 2086 a5bc 8a58 15bd 1228 a5bd a0ee c73c
00000040: 1aaa 5a3d c069 10bc d817 cdbc 50e9 0abd
00000050: 4d0b 6abd d100 c03d c3d2 b9bd 2243 163d
00000060: dbb3 ac3d 074a 36bd d526 bb3d d4d3 923c
00000070: d41f 88bd 0afd 69bd 1961 ac3d c3d6 19bd
00000080: f13a 953d e098 96bc f220 443d b042 d03b
00000090: 0e56 603d 37b3 913d f665 3d3d a84a f4bc
000000a0: c011 9fbd a069 7fbd 5264 403d ac8d 8abc
000000b0: 9e3f 433d 4388 3abd 3de5 9bbd a33c bd3d
000000c0: 11ef 893d 20f6 a6bc a545 b9bd c043 35bb
000000d0: f0f2 293c 8636 323d 4c05 cabc 4378 58bd
000000e0: 83d1 72bd 4658 5b3d 01d5 ad3d e236 273d
000000f0: c148 bd3d 0329 913d 5082 ad3b a07f 3b3b
00000100: 50df b8bd b752 34bd 30a9 21bd 2a55 a8bd
00000110: 00af cbbb 3b61 b8bd a856 c2bc 0805 cfbc
00000120: 93e4 2fbd ddc0 89bd 1041 c0bd d39e 72bd
00000130: 280e 78bc ae5b 95bd ba0a 2dbd 1627 113d
00000140: 7075 7abd 0316 b53d e8e8 04bc 2899 bcbd
00000150: ddde 47bd 84a9 e43c ddbc 993d ad51 97bd
00000160: 3a60 c5bd 3475 8dbc d30f 1bbd 6a52 593d
00000170: c03e 09bb 172d 56bd 0e89 573d 0c69 ef3c
00000180: bee4 473d 4c65 d4bc 6510 ab3d e291 283d
0.019618213 -0.06084167 -0.032771766 0.025264896 0.0036982298 0.09987677 -0.045814015 -0.017072037
-0.05131767 -0.070864424 -0.08459572 0.086753644 -0.020205557 -0.03646139 -0.080642834 0.024405777
0.053384878 -0.008814275 -0.025035784 -0.03391391 -0.057139684 0.09375156 -0.09073403 0.036685117
0.08432742 -0.04450419 0.09138266 0.017923273 -0.06646696 -0.057126082 0.084169574 -0.03755833
0.07286633 -0.018383443 0.04788298 0.006355606 0.05476957 0.07114261 0.046239816 -0.029820755
-0.077670574 -0.06235659 0.046970673 -0.016913258 0.047668092 -0.045540106 -0.07612083 0.09240081
0.067350514 -0.020381033 -0.09046487 -0.002765879 0.010372862 0.04350903 -0.024660729 -0.052849066
-0.059281837 0.05355098 0.08487893 0.040823825 0.09242392 0.070879005 0.0052950755 0.0028610006
-0.090269685 -0.044024196 -0.03946799 -0.08219369 -0.00621593 -0.0900292 -0.023722962 -0.025270954
-0.042942595 -0.06726239 -0.0938741 -0.059233498 -0.015140094 -0.07292877 -0.042246558 0.035437666
-0.061147153 0.08842089 -0.00811217 -0.092089 -0.048796523 0.027912863 0.07506726 -0.07388625
-0.096374944 -0.0172678 -0.037856888 0.05305711 -0.0020941943 -0.052289095 0.05262094 0.029224895
0.04880213 -0.025927208 0.083527364 0.04115475
