additional experiments/saved models/v_mlp_num_1_mpnn_9.pth (torch, 54561 bytes, 3 tensors)

weight f4 [100, 128]
-0.021430612 0.0058347806 -0.0061684772 0.036505356 -0.06017178 0.020143643 -0.07402702 -0.08331288
-0.07946823 0.017088927 -0.043553405 -0.083489895 -0.01249636 0.003303513 0.08741795 -0.048360653
0.04944653 0.052302726 -0.086298674 -0.087562256 0.05174514 -0.05381864 0.02375856 -0.0006387979
-0.0591399 -0.03948425 0.07103949 -0.051992297 -0.022079125 -0.03687786 0.030583829 0.027314752
0.05603818 0.036852397 -0.076081954 0.0055334494 -0.07696542 0.0015693381 -0.011845909 0.040143855
0.009033479 0.029281393 0.003543578 -0.02497945 -0.0830192 0.014459595 0.087334625 0.08032472
0.068322174 -0.081897944 0.011231385 0.035288334 -0.081559174 0.035297714 -0.02613784 0.06377155
0.071075104 -0.03886526 -0.063763574 -0.04615616 -0.065717444 -0.03275181 -0.04349677 0.029606812
-0.08263602 -0.04504455 -0.046236724 -0.03720514 0.04560051 0.06798164 -0.009033248 0.047809668
0.078236826 -0.05463297 -0.044321932 -0.062111072 0.034130476 -0.0150832385 0.06512641 -0.036485557
-0.00015369058 0.007995099 -0.012206055 0.055285253 0.012197897 0.057858817 -0.026419722 0.08633616
-0.04029264 -0.036484662 0.011534147 0.05810248 0.05863533 -0.012585431 0.02301725 0.05136382
-0.01616197 -0.07877642 -0.008083172 0.044501953 0.0509601 -0.08137036 0.028609477 0.013701856
-0.03301191 -0.013545133 0.034391828 -0.034412637 -0.02009052 -0.001154393 0.007115945 -0.039369013
0.05452638 -0.0095395 -0.074314326 -0.017537475 -0.050236575 -0.041453164 -0.007300347 0.08170997
-0.04799193 -0.06623707 -0.07860158 -0.022319846 -0.01783327 0.017680138 -0.040514152 0.035863057
0.06194485 0.086359434 -0.01924292 -0.08758481 -0.05784893 -0.08195398 -0.056333087 0.04445661
-0.0818288 0.06596092 -0.054757375 0.018594608 -0.045080997 -0.08249691 -0.027446028 0.027308702
-0.047985155 0.041167267 0.048351996 -0.029865246 0.018421963 -0.063679926 0.059301145 0.03181494
-0.020524397 0.028050922 0.05727478 -0.012420759 0.029255353 -0.013531432 -0.07828662 -0.05513897
-0.020730421 -0.034613255 -0.06774269 0.0046304837 0.02439075 0.06323265 -0.073421024 -0.010637872
-0.024299227 -0.02035337 -0.042746544 0.08041341 -0.04690986 0.07369415 -0.08662585 0.012656666
0.032699704 0.062325023 -0.0441309 0.042462386 0.06894191 -0.08523378 -0.059567697 -0.014182448
-0.06943561 -0.00830771 0.023438863 -0.07556634 -0.08726784 0.073869295 0.050834633 -0.08417004
0.013454452 0.063851036 -0.016906545 -0.018699124 -0.06274138 -0.047170687 0.03183619 -0.0022453219
0.06712594 -0.028587278 0.061251186 0.015046246 -0.024320722 0.05906462 -0.033364076 0.06753754
-0.019424997 -0.033343676 0.041410454 0.007076405 -0.017386816 -0.019414335 -0.060076337 -0.078163594
-0.010455124 0.0077566355 -0.048718564 0.06941182 -0.005596392 -0.009501681 -0.034636386 -0.01144588
0.0457991 -0.0534649 -0.069927745 0.058764003 0.0627427 0.0486139 0.07753513 0.025515884
0.054212295 -0.063230366 -0.05580449 0.0168548 -0.045130413 -0.03895022 -0.03230698 0.03728766
0.07505032 0.020941325 0.053458713 -0.052974828 -0.014220148 0.054672472 0.0846272 0.0181873
-0.031640038 0.026456706 -0.016117766 -0.052227046 0.0072351843 0.037562825 -0.0792996 0.03748568
00000000: 408f afbc b031 bf3b f020 cabb a486 153d
00000010: af76 76bd 4804 a53c 7a9b 97bd f19f aabd
00000020: 3dc0 a2bd 14fe 8b3c 0e65 32bd c0fc aabd
00000030: 88bd 4cbc c07f 583b 2f08 b33d d215 46bd
00000040: 7288 4a3d 623b 563d 5cbd b0bd d753 b3bd
00000050: b6f2 533d ef70 5cbd 50a1 c23c 0075 27ba
00000060: ae3c 72bd 3dba 21bd 277d 913d e0f5 54bd
00000070: 48df b4bc 3d0d 17bd f08a fa3c 30c3 df3c
00000080: 4a88 653d 8af2 163d dbd0 9bbd f051 b53b
00000090: 0ca0 9dbd 40b2 cd3a 5815 42bc e26d 243d
000000a0: 2801 143c 88df ef3c 603b 683b b4a1 ccbc
000000b0: f805 aabd f0e7 6c3c 7fdc b23d 4981 a43d
000000c0: 7fec 8b3d 1cba a7bd d803 383c 808a 103d
000000d0: 7f08 a7bd 5694 103d 061f d6bc a99a 823d
000000e0: d38f 913d 2e31 1fbd 7a96 82bd 3e0e 3dbd
000000f0: de96 86bd c326 06bd ab29 32bd fc89 f23c
00000100: 133d a9bd a280 38bd b862 3dbd 6b64 18bd
00000110: 9ac7 3a3d f539 8b3d 3000 14bc 12d4 433d
00000120: a13a a03d d2c6 5fbd ea8a 35bd 2e68 7ebd
00000130: 66cc 0b3d b01f 77bc ff60 853d e171 15bd
00000140: 0028 21b9 e0fd 023c e8fb 47bc ca72 623d
00000150: b0d9 473c 5efd 6c3d 2c6e d8bc 03d1 b03d
00000160: e509 25bd f170 15bd b8f9 3c3c defc 6d3d
00000170: 9a2b 703d 2033 4ebc ac8e bc3c de62 523d
00000180: 1c66 84bc 8855 a1bd 486f 04bc ae47 363d
00000190: 8abb 503d 81a5 a6bd 6c5e ea3c c07d 603c
000001a0: 7f37 07bd 68ec 5dbc 72de 0c3d 44f4 0cbd
000001b0: e094 a4bc 004f 97ba e02c e93b 6741 21bd
000001c0: 0e57 5f3d 904b 1cbc 1c32 98bd c0aa 8fbc
000001d0: dec4 4dbd cbca 29bd c037 efbb 8f57 a73d
000001e0: 3093 44bd 4da7 87bd ddf9 a0bd 1cd8 b6bc
000001f0: 1417 92bc f0d5 903c 2bf2 25bd 24e5 123d
00000200: e2b9 7d3d 37dd b03d 54a3 9dbc aa5f b3bd
00000210: 00f3 6cbd 7dd7 a7bd 86bd 66bd 2218 363d
00000220: dc95 a7bd 8516 873d 4549 60bd b853 983c
00000230: daa6 38bd 24f4 a8bd 7ed6 e0bc 80b6 df3c
00000240: 158c 44bd 029f 283d be0c 463d f6a7 f4bc
00000250: a8e9 963c 9f6a 82bd c2e5 723d 6250 023d
00000260: c822 a8bc 0ccb e53c f698 6a3d 7080 4bbc
00000270: eca8 ef3c f0b2 5dbc bc54 a0bd 67d9 61bd
00000280: d8d2 a9bc a1c6 0dbd aebc 8abd 50bb 973b
00000290: 1ccf c73c 1f80 813d c35d 96bd 784a 2ebc
000002a0: 2c0f c7bc 1cbc a6bc 0017 2fbd c9af a43d
000002b0: 8e24 40bd f5ec 963d e568 b1bd e85d 4f3c
000002c0: 20f0 053d 8648 7f3d 9ac2 34bd 0aed 2d3d
000002d0: 6b31 8d3d 0c8f aebd 42fd 73bd 805d 68bc
000002e0: 4234 8ebd 101d 08bc dc02 c03c 86c2 9abd
000002f0: 7bb9 b2bd c948 973d fa37 503d 5861 acbd
00000300: 1070 5c3c 55c4 823d 987f 8abc e82e 99bc
00000310: 8d7e 80bd 0d36 41bd aa66 023d 4026 13bb
00000320: 5379 893d de2f eabc 86e2 7a3d 8884 763c
00000330: 403c c7bc beed 713d c5a8 08bd 1f51 8a3d
00000340: 2c21 9fbc 6193 08bd 029e 293d 30e1 e73b
00000350: cc6e 8ebc d00a 9fbc 9b12 76bd 3c14 a0bd
00000360: f84b 2bbc 602b fe3b 1e8d 47bd c927 8e3d
00000370: f061 b7bb f0ac 1bbc e2de 0dbd 8087 3bbc
00000380: d697 3b3d 03fe 5abd 4736 8fbd 86b2 703d
00000390: 3f7f 803d 5e1f 473d bdca 9e3d b006 d13c
000003a0: b60d 5e3d ec7e 81bd 4093 64bd 1413 8a3c
000003b0: abda 38bd 448a 1fbd 5354 04bd f2ba 183d
000003c0: fbb3 993d 248d ab3c 86f7 5a3d 22fc 58bd
000003d0: a0fb 68bc 3ef0 5f3d 0751 ad3d 88fd 943c
000003e0: fc98 01bd bcbb d83c 6809 84bc 07ec 55bd
000003f0: 2015 ed3b 7adb 193d d467 a2bd 968a 193d

bias f4 [100]
-0.024718925 -0.06013997 -0.04806317 0.018836945 0.040170245 -0.056524634 0.014019243 0.01805906
0.003979422 -0.06649562 -0.087712966 -0.043745942 0.0729563 0.0010067597 0.064703055 0.04735989
0.07163335 -0.06768228 0.027673021 0.0515415 -0.02115161 -0.0727786 0.005367562 0.035643697
-0.02728571 0.06873656 0.0275376 -0.073018014 -0.041050684 0.029647537 -0.0016657412 0.008743182
-0.050582256 0.023426063 0.06342002 0.058917634 -0.015855 0.009471618 0.085815124 -0.023506917
-0.015756622 0.04858669 -0.017367676 -0.043294635 -0.04382228 0.04528842 -0.02753836 -0.0030795634
-0.03857055 0.08088093 0.0025390536 0.028612986 -0.07860985 0.00541234 -0.07449764 0.023637682
0.06263449 -0.06956824 0.051595323 0.080585696 0.00990773 -0.05037036 -0.009795189 -0.084118314
-0.081633955 0.055987574 0.056455605 -0.037036214 -0.005275212 -0.01094389 0.04290835 0.01268699
-0.021550208 -0.021527968 0.031286858 0.07519098 -0.041860595 -0.008444883 0.040058278 0.06892959
-0.0844558 -0.01979883 -0.0092190355 0.0527995 0.020487376 0.083973624 -0.036585413 0.017671242
0.05099047 0.040757515 0.04206168 -0.04669301 0.06341063 0.05890485 -0.0062107816 0.0074951127
-0.08542366 0.014107384 0.047938682 0.088040195
00000000: 587f cabc 5455 76bd e3dd 44bd f04f 9a3c
00000010: 8e89 243d 6086 67bd f8b0 653c 98f0 933c
00000020: d065 823b db2e 88bd dba2 b3bd f22e 33bd
00000030: 1d6a 953d 40f5 833a 0983 843d 72fc 413d
00000040: 81b4 923d 029d 8abd 88b2 e23c 2e1d 533d
00000050: 2446 adbc f20c 95bd 60e2 af3b 20ff 113d
00000060: 4886 dfbc c1c5 8c3d 8896 e13c 788a 95bd
00000070: c324 28bd 64df f23c 0055 daba 903f 0f3c
00000080: 572f 4fbd 04e8 bf3c 5be2 813d 9e53 713d
00000090: 58e2 81bc d82e 1b3c d7bf af3d 9491 c0bc
000000a0: 0814 81bc d602 473d a846 8ebc b755 31bd
000000b0: fe7e 33bd 5a80 393d 2098 e1bc 80d2 49bb
000000c0: 27fc 1dbd e7a4 a53d 4066 263b c865 ea3c
000000d0: 33fe a0bd 005a b13b 3892 98bd d0a3 c13c
000000e0: 8346 803d cb79 8ebd 9e55 533d 1d0a a53d
000000f0: 0854 223c 2751 4ebd 007c 20bc 3946 acbd
00000100: b42f a7bd 3a53 653d fe3d 673d 49b3 17bd
00000110: b0db acbb 004e 33bc aac0 2f3d 18dd 4f3c
00000120: 108a b0bc 6c5b b0bc a626 003d bbfd 993d
00000130: 0476 2bbd 685c 0abc 2614 243d f52a 8d3d
00000140: 2af7 acbd 2831 a2bc 700b 17bc 4a44 583d
00000150: 24d5 a73c 5dfa ab3d 96da 15bd 48c3 903c
00000160: 62db 503d 5af1 263d de48 2c3d 2b41 3fbd
00000170: 6fdd 813d 3646 713d d083 cbbb 9099 f53b
00000180: 9af2 aebd a822 673c 5a5b 443d 6b4e b43d

weight f4 [1, 100]
-0.039502837 0.086489566 -0.093800366 0.024020836 0.071102075 0.034101017 0.024363555 -0.08504211
-0.029311456 0.09718897 -0.053159263 -0.082800426 -0.066788 0.02118437 0.08010364 -0.08836299
0.06157715 0.05694505 -0.066123046 0.016579688 -0.016460255 0.029990189 -0.016550317 0.06163635
-0.012840651 -0.08097962 0.03544981 -0.059042037 -0.04977405 -0.020227358 -0.0867083 -0.04040563
0.04097555 0.05354681 -0.07998581 0.07532617 0.030204363 -0.054258313 -0.07304263 -0.058194734
-0.06771307 0.014076307 0.0025189295 0.022911772 -0.038024094 0.0675982 0.0017973781 0.010598823
0.035229452 -0.046929933 0.07727892 -0.025944233 0.03155995 -0.0459839 0.08214543 0.07325051
-0.0014746934 -0.06321059 0.03943724 -0.048874654 -0.07573508 0.036982305 0.09169418 0.067893304
0.06438651 -0.027219795 0.017848834 -0.052069794 -0.06913444 -0.07439015 -0.007891394 -0.06357987
-0.05321915 -0.0072232485 -0.034665167 -0.039595306 -0.006298363 -0.08785281 -0.03661807 0.070148
-0.07763569 0.0736995 0.099414684 -0.06347646 -0.0135627985 0.07037092 -0.025389329 -0.04799496
-0.09191996 0.063915916 0.061057217 -0.037045166 -0.09959203 -0.05076139 -0.07277501 -0.069278635
0.012726031 -0.018576577 -0.013940811 0.098635726
00000000: bacd 21bd 7121 b13d 681a c0bd 58c7 c43c
00000010: f79d 913d 82ad 0b3d 1496 c73c 8f2a aebd
00000020: 941e f0bc 030b c73d 87bd 59bd 4593 a9bd
00000030: 26c8 88bd d88a ad3c 610d a43d a8f7 b4bd
00000040: 5238 7c3d 363f 693d 856b 87bd 20d2 873c
00000050: a8d7 86bc fcad f53c 8894 87bc 6676 7c3d
00000060: 9861 52bc a5d8 a5bd d233 113d 10d6 71bd
00000070: e0df 4bbd d8b3 a5bc 1f94 b1bd 6080 25bd
00000080: fad5 273d e653 5b3d 9acf a3bd 9b44 9a3d
00000090: 246f f73c f73d 5ebd 6097 95bd 9a5d 6ebd
000000a0: 26ad 8abd 50a0 663c a014 253b 78b1 bb3c
000000b0: 27bf 1bbd ed70 8a3d 0096 eb3a b0a6 2d3c
000000c0: c24c 103d 9a39 40bd 6944 9e3d 0089 d4bc
000000d0: 0245 013d 9d59 3cbd dd3b a83d 5d04 963d
000000e0: 804a c1ba 8e74 81bd f288 213d ca30 48bd
000000f0: fe1a 9bbd c27a 173d 29ca bb3d a50b 8b3d
00000100: 13dd 833d 0cfc debc b837 923c 2347 55bd
00000110: 5b96 8dbd dd59 98bd e84a 01bc 2a36 82bd
00000120: 53fc 59bd 00b1 ecbb 10fd 0dbd b02e 22bd
00000130: 8062 cebb 2dec b3bd d4fc 15bd c1a9 8f3d
00000140: 76ff 9ebd c3ef 963d ed99 cb3d f2ff 81bd
00000150: 8036 5ebc a11e 903d 48fd cfbc 5d96 44bd
00000160: 8840 bcbd 59e6 823d 2217 7a3d acbc 17bd
00000170: e8f6 cbbd 2deb 4fbd 100b 95bd f5e1 8dbd
00000180: d880 503c e82d 98bc 0068 64bc 8701 ca3d
