additional experiments/saved models/v_mlp_num_3_mpnn_4.pth (torch, 54561 bytes, 3 tensors)

weight f4 [100, 128]
0	0x3d37cf6a	0.04487554
1	0x3ce1cf70	0.027564734
2	0x3d707ade	0.058710925
3	0x3d3c7c8e	0.046017222
4	0x3d8f08ed	0.06984124
5	0xbd78018f	-0.06054836
6	0xbd917c6b	-0.07103809
7	0x3cd1e540	0.02562201
8	0x3ad1dd40	0.0016011372
9	0x3d8e3513	0.06943717
10	0x3cb59954	0.02216784
11	0x3d3a84ba	0.045536734
12	0xbd8ef8b2	-0.069810286
13	0x3cc63150	0.024193436
14	0x3d5a196a	0.053246893
15	0x3d0f778e	0.035026126
16	0x3c67b1c0	0.0141415
17	0xbdab9821	-0.08378626
18	0xbdaffff4	-0.08593741
19	0x3c7f6b30	0.01558952
20	0x3b97a5f0	0.0046279356
21	0x3d00936e	0.0313906
22	0x3d4bf8e6	0.049797915
23	0xbc0ac558	-0.008469902
24	0x3c152ba0	0.009104639
25	0x3ce53d5c	0.02798336
26	0x3cef31f8	0.029198632
27	0xbc47eeb8	-0.012202911
28	0x3aa3ab80	0.0012487024
29	0xbd70835b	-0.05871902
30	0x3d4071fe	0.04698371
31	0x3dae5405	0.08512119
32	0xbc9c0bd8	-0.019048616
33	0xbbb99400	-0.005663395
34	0x3d664ac2	0.05622364
35	0x3cd974a4	0.026544876
36	0x3d78d49a	0.060749628
37	0x3d1a2a4a	0.037637986
38	0xbcd5369c	-0.026027016
39	0x3d9c05c7	0.076182894
40	0x3d771eb2	0.060332008
41	0xbc6170a0	-0.013759762
42	0x3cd83894	0.026394166
43	0xbd577a18	-0.052606672
44	0xbd86e5b1	-0.06586779
45	0xbbfa9470	-0.0076470897
46	0xbc299498	-0.010350369
47	0x3db4231d	0.0879576
48	0x3c8090cc	0.015694045
49	0x3d061cb8	0.032742232
50	0xbd91d548	-0.07120758
51	0xbdab6991	-0.083697446
52	0x3d853a99	0.06505317
53	0xbc1788f0	-0.009248957
54	0xbd5ae274	-0.05343862
55	0xbca35240	-0.01993668
56	0x3d791b72	0.06081719
57	0xbd01327a	-0.03154228
58	0x3b7c29c0	0.0038477033
59	0xbcf35990	-0.029705793
60	0x3d924e8b	0.07143887
61	0x3c74e030	0.014946029
62	0x3d2dcd16	0.042431913
63	0x3d93493f	0.07191705
64	0xbc794290	-0.015213624
65	0xbd70e782	-0.058814533
66	0xbda62f8f	-0.0811454
67	0xbd96ff19	-0.07372875
68	0x3cf6e1b0	0.030136913
69	0x3cd458e4	0.025921293
70	0x3b629200	0.0034571886
71	0xbbce8e40	-0.0063035786
72	0x3daa6c19	0.08321399
73	0xbd13ec9e	-0.036114328
74	0xbd991629	-0.0747493
75	0xbd6de469	-0.058079157
76	0xbda9d99a	-0.08293457
77	0x3d959f31	0.07305754
78	0xbd915e6c	-0.07098088
79	0xbd63d3f8	-0.05562207
80	0xbd5019d8	-0.050805897
81	0xbc127998	-0.008940123
82	0xbcc47d48	-0.02398552
83	0x3d1022c0	0.03518939
84	0x3d8b1313	0.067907475
85	0xbca3c824	-0.019992895
86	0xbda83cdd	-0.08214734
87	0xbd704cbe	-0.058666937
88	0xbd3b0866	-0.045662306
89	0xbd37ffbe	-0.04492163
90	0xbd3f8bd2	-0.046764202
91	0x3d66fe5a	0.056394912
92	0xbd6091ef	-0.054826673
93	0xbd4ac5e1	-0.04950512
94	0x3a994840	0.0011694506
95	0x3db3a195	0.08771054
96	0x3db3c0d1	0.08777011
97	0xbdaa15eb	-0.08304962
98	0x3c8f4e50	0.017493397
99	0x3c2e72b0	0.010647461
100	0x3da78311	0.08179296
101	0xbdacf8b0	-0.08445871
102	0xbd9016ce	-0.070356
103	0xbd35e539	-0.044408057
104	0xbd71aaf8	-0.05900094
105	0xbc7dbed0	-0.015487388
106	0x3d53c002	0.051696785
107	0xbd9656e0	-0.07340789
108	0xbcac16a8	-0.021006897
109	0xb9153000	-0.00014227629
110	0x3cc1391c	0.023586802
111	0x3b9c9900	0.004778981
112	0x3db21043	0.08694508
113	0x3d0d4614	0.03449066
114	0x3d566c82	0.052349575
115	0x3d3f8f9e	0.046767823
116	0xbd6c5aa4	-0.05770363
117	0x3dacfe41	0.084469326
118	0xbd32b9c9	-0.04363421
119	0xbd9b1543	-0.07572415
120	0x3d439f82	0.04775954
121	0x3d1c7426	0.038196705
122	0x3cf265f0	0.029589623
123	0xbd35b0da	-0.044358112
124	0xbd525407	-0.051349666
125	0xbda56360	-0.08075595
126	0xbd94ceb4	-0.07265988
127	0x3d8c426d	0.06848607
128	0x3b60e8c0	0.0034318417
129	0xbcd60f46	-0.02613033
130	0x3da7827d	0.081791855
131	0x3d12c7d2	0.035835095
132	0x3d22183a	0.039573886
133	0xbd3a83a6	-0.045535706
134	0x3d5583ae	0.052127533
135	0xbd2de0db	-0.042450767
136	0xbbc83d00	-0.0061107874
137	0x3d86b5bb	0.06577631
138	0xbd9f9dfb	-0.07793804
139	0xbda91a8c	-0.082570165
140	0x3d75e71a	0.06003485
141	0x3b2752a0	0.0025531426
142	0x3da40507	0.080087714
143	0x3ce10d4c	0.02747216
144	0xbb818b20	-0.0039533526
145	0x3cfd05c4	0.030886538
146	0xbb97d620	-0.00463368
147	0x3cc4a114	0.02400259
148	0xbd85f27b	-0.0654039
149	0xbbf0c650	-0.0073478594
150	0x3d2c5496	0.042072855
151	0x3d8ff479	0.07029051
152	0xbd3e9245	-0.046526212
153	0xbbf58520	-0.0074926764
154	0xbd4f64ed	-0.05063336
155	0xbd6ad1ff	-0.057329174
156	0x3b9d5160	0.0048009604
157	0x3bf16660	0.0073669404
158	0xbd8e430b	-0.06946381
159	0xbb957650	-0.004561223
160	0x3d6d564a	0.05794362
161	0xba888500	-0.0010415614
162	0x3dabfc25	0.08397702
163	0x3d2f4012	0.04278571
164	0xbd85aeb1	-0.0652746
165	0x3a9c3680	0.0011918098
166	0xbda9a41a	-0.08283253
167	0x3d7c745a	0.0616344
168	0xbd9912e5	-0.07474307
169	0xbcd5c7da	-0.026096273
170	0x3ccc2970	0.024922103
171	0xbcf8fb3a	-0.030393232
172	0xbdac0e1a	-0.08401127
173	0x3cca7a64	0.024716564
174	0xbcb828dc	-0.02248042
175	0xbd4a98d8	-0.04946217
176	0x3d42f356	0.047595344
177	0xbd72f0ea	-0.059311785
178	0x3da12f07	0.07870298
179	0xbbf13a90	-0.0073617175
180	0x3cb60bbc	0.022222392
181	0x3d9601c9	0.07324559
182	0x3b333160	0.0027342662
183	0xbd15cba0	-0.036571145
184	0x3d9d1acf	0.07671129
185	0x3d2b9356	0.041888557
186	0xbd2db597	-0.042409506
187	0x3d6d2d8a	0.057904758
188	0xbcbe53c0	-0.023233294
189	0xbd97edef	-0.07418429
190	0x3d1417fc	0.036155686
191	0x3d85b191	0.06528009
192	0xbd1e22b1	-0.038607303
193	0x3da6e4c1	0.081491
194	0x3d456d7e	0.048200123
195	0x3cf7af1c	0.030234866
196	0x3ca9ab1c	0.020711474
197	0xbbe3b980	-0.0069496036
198	0xbb800010	-0.0039062575
199	0x3ce59634	0.028025724
200	0x3d97dfb3	0.07415714
201	0xbd56868d	-0.05237441
202	0x3d20ef8e	0.039290957
203	0xbd18c93f	-0.0373013
204	0xbd07eeec	-0.033186838
205	0x3d85963b	0.06522795
206	0xbd784426	-0.060611866
207	0x3da73189	0.08163745
208	0x3cfbfc6c	0.030760013
209	0x3d514e76	0.051100217
210	0xbc9a5d8c	-0.018843435
211	0xbc28efa8	-0.010311045
212	0xbd9e63c4	-0.077338725
213	0xbd7940eb	-0.060852926
214	0xbd0f369a	-0.03496418
215	0xbd5eef24	-0.05442728
216	0x3d7ddd32	0.061978526
217	0x3c818000	0.015808105
218	0xbda4af13	-0.08041205
219	0x3d15ea0c	0.036600158
220	0xbc9c82b4	-0.019105293
221	0xbda40da0	-0.08010411
222	0x3d2dc2aa	0.042421974
223	0xbcaad66c	-0.020854197
224	0xbd99cece	-0.07510148
225	0x3d895d99	0.067073055
226	0xbda89e36	-0.08233301
227	0xbd051d8d	-0.032498885
228	0xbc7fbdd0	-0.01560922
229	0xbd0da708	-0.03458312
230	0xbc9cae2c	-0.01912602
231	0x3d637bde	0.05553805
232	0x3db20a73	0.08693399
233	0xbc4cb840	-0.0124951005
234	0xbd158d5b	-0.03651176
235	0xbcb26eec	-0.021781407
236	0xbbff27f0	-0.0077867433
237	0xbc838680	-0.016055346
238	0xbb984740	-0.0046471655
239	0x3daee889	0.08540446
240	0xbd8e8964	-0.06959799
241	0xbd382c6f	-0.04496425
242	0x3c66add0	0.014079526
243	0x3da098c1	0.078416355
244	0xbda908e8	-0.08253652
245	0x3d932873	0.071854495
246	0xbcbc7814	-0.023006476
247	0x3daa1cc9	0.083062716
248	0x3d497cba	0.049191214
249	0xbc289560	-0.01028952
250	0x3b8961a0	0.004192546
251	0xbc021f98	-0.007942103
252	0xbc80e354	-0.015733398
253	0xbd1bd68b	-0.0380464
254	0x3cf511a0	0.02991563
255	0xbc98c294	-0.01864747

bias f4 [100]
0	0x3d50dd8a	0.050992526
1	0x3c7847e0	0.015153855
2	0x3ce20a98	0.027592942
3	0x3b609700	0.003426969
4	0x3d8e8b53	0.06960168
5	0x3d14d306	0.03633406
6	0xbcf87874	-0.030330874
7	0xbcb7ea60	-0.022450626
8	0xbd83ecc4	-0.06441644
9	0x3ac37b00	0.0014913976
10	0xbd212dd3	-0.039350342
11	0xbd906912	-0.070512906
12	0xbda8d571	-0.08243836
13	0xbd347b05	-0.044062633
14	0x3bf35a40	0.00742653
15	0x3d26a9ea	0.040689386
16	0x3c5c0740	0.013429463
17	0x3d41cb0e	0.04731279
18	0x3c86375c	0.01638382
19	0xbd76e227	-0.06027427
20	0x3da4ab39	0.08040471
21	0x3c3af1e0	0.011410207
22	0x3ccd9440	0.025095105
23	0xbd81010c	-0.06299028
24	0x3dab5819	0.08366413
25	0xbd5dcebd	-0.05415224
26	0xbcbe33b4	-0.023218013
27	0x3d52d422	0.051471837
28	0x3db02c5b	0.0860221
29	0xbccefb38	-0.025266275
30	0xbc083be0	-0.008315057
31	0xbc60df08	-0.01372505
32	0x3cd253a4	0.025674649
33	0xbd415ff3	-0.047210645
34	0x3d1a7142	0.037705667
35	0x3c5eb9d0	0.013594106
36	0xbdabdb37	-0.08391421
37	0xbca4f938	-0.020138368
38	0x3d009048	0.031387597
39	0xbdaf41d9	-0.08557481
40	0x3d29f5c2	0.04149414
41	0x3d117c40	0.035518885
42	0x3d984631	0.07435263
43	0xbbd85ca0	-0.0066028386
44	0xbba59d00	-0.0050541162
45	0x3d4550ee	0.048172884
46	0xbd93dc62	-0.07219769
47	0xbc4ab950	-0.0123732835
48	0xbdad7aec	-0.08470711
49	0x3d36ab3e	0.044596903
50	0x3d81c26f	0.063359134
51	0xbd5167f4	-0.051124528
52	0xbc443900	-0.0119764805
53	0x3d176492	0.036961146
54	0x3ccf4414	0.025301017
55	0xbce7904c	-0.028267048
56	0xbc9bf19c	-0.019036107
57	0x3d349202	0.044084556
58	0x3cbe9f50	0.023269325
59	0xbd883868	-0.06651384
60	0x3ce560f8	0.02800034
61	0x3c29a388	0.01035393
62	0x3d179bee	0.03701394
63	0x3d93b681	0.07212544
64	0xbd6a99f0	-0.057275712
65	0xbd923c32	-0.071403876
66	0xbd2fd1ec	-0.042924806
67	0x3bdb0440	0.0066838562
68	0xbd83fe39	-0.064449735
69	0x3d458076	0.048218213
70	0xbd594883	-0.05304767
71	0xbd8f6574	-0.070017725
72	0x3db3536b	0.08756145
73	0x3dab47e1	0.08363319
74	0xbd6069ee	-0.054788522
75	0x3d95c86d	0.07313619
76	0xbda77944	-0.081774265
77	0x3da07593	0.078349255
78	0xbd490ba4	-0.049083367
79	0x3d912111	0.07086385
80	0x3d822417	0.0635454
81	0xbc1f2658	-0.009713732
82	0xbd70908f	-0.05873161
83	0xbd4f3230	-0.050584972
84	0x3d5c3d56	0.053769432
85	0xbda0c5bc	-0.07850215
86	0x3d54463a	0.051824786
87	0x3cdf2bdc	0.027242593
88	0x3da434af	0.08017861
89	0xbcf60bdc	-0.030034952
90	0x3d872129	0.06598122
91	0x3d66baf2	0.05633063
92	0x3c2e87c8	0.01065249
93	0x3d527942	0.05138517
94	0x3ced0f44	0.028937943
95	0x3d9cd59f	0.076579325
96	0x3b4da780	0.0031380355
97	0x3d2d6fe2	0.042343028
98	0xbd7d2b54	-0.0618089
99	0x3b1af8c0	0.0023646802

weight f4 [1, 100]
0	0xbbdbda20	-0.006709352
1	0x3d7e54b2	0.06209249
2	0xbd036316	-0.032076918
3	0x3d48cb4a	0.049021997
4	0x3af24400	0.00184834
5	0x3d76f5c2	0.060292967
6	0x3ad5c400	0.0016309023
7	0xbc9cd6f4	-0.019145466
8	0x3d67964a	0.05653981
9	0xbdc0fcf8	-0.0942325
10	0x3d010de2	0.03150738
11	0x3d3eda22	0.046594746
12	0xbca56378	-0.020189032
13	0xbd57ddba	-0.05270169
14	0x3ca10040	0.01965344
15	0x3dc4d3e7	0.0961073
16	0x3d896ba1	0.06709982
17	0xbdb422a2	-0.08795668
18	0x3da8b141	0.082369335
19	0x3d2e00b6	0.042481147
20	0x3d848339	0.06470341
21	0xbdb03aef	-0.08604991
22	0xbb075da0	-0.002065517
23	0x3d3619da	0.044458248
24	0x3dac1f2d	0.08404384
25	0x3d0b381a	0.03398905
26	0x3bc8fe20	0.0061338097
27	0x3d227722	0.039664395
28	0xbb8efc60	-0.0043635815
29	0x3c8d0298	0.01721315
30	0xbd15c26c	-0.03656237
31	0xbd4a7a4d	-0.04943304
32	0x3d5fe3a6	0.05466046
33	0x3db9dc61	0.09075237
34	0x3d82758f	0.06370079
35	0xbd94d295	-0.07266728
36	0x3d5009a6	0.05079045
37	0x3ca00bf4	0.01953695
38	0x3d626272	0.055269666
39	0xbd345a73	-0.04403157
40	0xbd5672bd	-0.052355517
41	0xbd56272a	-0.052283444
42	0xbd208efd	-0.039198864
43	0x3cd6af7c	0.026206724
44	0xbb15f340	-0.0022880584
45	0x3d25226a	0.040316023
46	0x3d8bd0e9	0.06826956
47	0x3d411fde	0.04714953
48	0x3be92250	0.007114686
49	0x3d8560cd	0.06512604
50	0xbd484cb7	-0.048901286
51	0x3b300700	0.002685964
52	0xbd42815d	-0.04748665
53	0x3db138ff	0.08653449
54	0x3d9b96af	0.075971
55	0xbd0bc816	-0.034126364
56	0xbcb36794	-0.021899976
57	0xbd47f2b0	-0.04881543
58	0x3d83172b	0.06400903
59	0xbc98472c	-0.018588625
60	0xbba52d30	-0.005040787
61	0x3d76c54e	0.06024676
62	0xbccf9318	-0.025338694
63	0x3dbf1cbd	0.09331653
64	0xbb875f20	-0.004131213
65	0xbdb47c15	-0.08812729
66	0x3d160726	0.03662791
67	0xbd2c31d3	-0.042039704
68	0xbce371f8	-0.027764305
69	0x3d46ac1e	0.048503987
70	0x3d547e4e	0.051878266
71	0xbdbf5322	-0.09342028
72	0x3b62ec00	0.003462553
73	0x3d376d1e	0.044781797
74	0x3b579940	0.003289774
75	0x3ce2fcb4	0.027708389
76	0xbdbf80f5	-0.093507685
77	0xbd2abeed	-0.041685987
78	0xbd1fc667	-0.03900757
79	0x3dbcf373	0.09226122
80	0x3d215d6a	0.039395727
81	0xbd78e08a	-0.060761012
82	0x3c8fcb88	0.017553106
83	0xbd336e3d	-0.043806303
84	0xbcc3be14	-0.023894347
85	0xbc2c28b0	-0.0105077475
86	0xbc507110	-0.012722269
87	0x3d11c2ba	0.035586096
88	0x3ca7d6d8	0.020488188
89	0x3db763c9	0.089545794
90	0x3cf32164	0.029679008
91	0x3db9c19d	0.09070132
92	0xbdb4090d	-0.08790789
93	0xbc257d70	-0.010100707
94	0xbcb6dfcc	-0.022323512
95	0xbd89ab4c	-0.067221254
96	0xbc9be3cc	-0.01902952
97	0xbc9852a8	-0.018594101
98	0xbc3d1c50	-0.011542395
99	0xbd3cd337	-0.046099868
