additional experiments/saved models/v_mlp_num_3_mpnn_7.pth (torch, 54561 bytes, 3 tensors)

weight f4 [100, 128]
00000000: 8064 06bd f83d 85bc 74c9 ca3c 0a12 393d
00000010: 006b 893c 9005 8fbb d06c 8dbb e56d 833d
00000020: b91c 2bbd 3287 483d 9406 87bc 7060 6a3c
00000030: 3611 9ebd ce3a b2bd 1afb 3b3d 68f4 e43c
00000040: 6f62 ac3d f1c8 8e3d a8eb c03c 2cfb 95bd
00000050: 36bc 1b3d 6cbf 3cbd 40aa 633c b673 133d
00000060: 2691 0f3d 0c66 94bd f0e3 2e3c 3435 cb3c
00000070: cb20 8f3d 76fd 5e3d 4c45 a0bd 20ae abbb
00000080: bfcf 9d3d 7b64 b33d 24fa d53c ca11 613d
00000090: 5c3c 7abd 1d0b a33d 6eb0 6ebd be35 643d
000000a0: 7106 b43d 2025 aebb e4c8 01bd 28db bb3c
000000b0: 508b 0bbc 22a7 69bd 00a9 ca3c 6bae 3ebd
000000c0: f8ad 443c 08ff 2dbc 245d 50bd a390 a63d
000000d0: 26bf 363d c8c5 623c f6ae 97bd b0b6 afbb
000000e0: 2a11 edbc d622 6f3d 9103 a23d c0b1 57bc
000000f0: 1a0d 84bd b361 b1bd b9a4 9f3d 03b1 3dbd
00000100: a83b cfbc a0d0 423c 6a8e 573d 00a0 a33a
00000110: 4ce9 7dbd f64b 9abd 9568 a63d 2ee7 573d
00000120: 803d ff3c 97c4 b03d fa14 4a3d 76c3 24bd
00000130: eab5 643d 011e a93d 900c 6b3c b1cf 91bd
00000140: 9a79 733d 67c8 5ebd ce25 7dbd 80bf dd3a
00000150: 362c 703d ba21 18bd 646b 9cbc f8c2 a03c
00000160: f809 103c 43df 04bd 7617 e0bc e3cd 903d
00000170: 47db 05bd e0d7 cdbb 416f 973d e86c 09bc
00000180: 4525 8f3d 4075 87ba 7611 7f3d 1090 7cbd
00000190: 5e70 abbd e4bd a3bc d498 30bd 7fe0 993d
000001a0: 40a5 b1bd f0e2 923b 801b 0abc 62b0 6c3d
000001b0: 8079 693a e8ea 173c 02a9 0dbd 2cb9 90bc
000001c0: 4c44 d7bc cccb d63c 4e23 23bd 32cc 88bd
000001d0: 12b3 e8bc c0d9 d1bb b7ef 913d 6a4e 9abd
000001e0: d632 4b3d 4040 38bc f8d7 2abd e8b9 b73c
000001f0: 7494 dabc de6d 7e3d 2b9e 84bd c3ba ad3d
00000200: 9bd3 17bd 0b0c 76bd 888b 46bc b4ba 92bd
00000210: f932 12bd 80f2 2ebb ac61 b9bc c30d 843d
00000220: 6f16 21bd 2223 78bd c7f8 40bd 5a74 11bd
00000230: 967d 99bd 7e52 5cbd be6e 253d fdc1 82bd
00000240: 2e10 373d 249c 84bd 7078 55bd e7fc 65bd
00000250: 952f 29bd 48dd 9b3c 795d 50bd 1a19 b0bd
00000260: e1a6 9a3d 803e 85ba a03d d2bb 4bd6 a5bd
00000270: 553f b43d b6d5 0fbd 4f7a 3fbd 8ee2 6a3d
00000280: e887 45bc 80de 35bb e58a 5abd 09b9 32bd
00000290: 82e8 9cbd c083 933c 4db4 a7bd 80ab 273c
000002a0: 9009 093c 0d6e 803d e20b 71bd 7354 3abd
000002b0: 8892 bd3c f6bf 063d 08f4 0b3d 388f 4abc
000002c0: f8fd 913c 22f6 563d 16d5 383d cc6e 4ebd
000002d0: 00d4 5639 a4dd cebc 041c 62bd b0b1 863c
000002e0: 4089 81bc 4c60 ac3c 943f 88bd b082 ac3b
000002f0: dae9 6b3d e3e9 aa3d 00e8 5a38 c2f0 473d
00000300: f0cf 7fbc 887a 103c 537f ae3d 30a1 46bd
00000310: fbb2 b3bd 6220 d9bc d158 9b3d 49d0 a83d
00000320: 1461 a63c 7266 743d 435d 54bd 152f 38bd
00000330: e91d 9bbd f271 6c3d c2e4 323d 7040 f23b
00000340: 9b3b 2dbd 4478 a9bc 72e3 6f3d e0d3 b4bc
00000350: 6420 ed3c 1e19 9bbd 1301 88bd 8039 133b
00000360: 0ac3 793d 7ced c03c 5e50 89bd 8ee7 84bd
00000370: 0b7b a2bd f2a4 4b3d 7e71 793d 0ab5 14bd
00000380: 8392 16bd 9401 fbbc 32d6 703d e032 523b
00000390: 6af7 373d 142a 25bd 38c0 f03c 8003 27bd
000003a0: b298 d6bc 68f6 a73c 5ed3 733d 0d8a 933d
000003b0: 6584 31bd fa4c 4f3d f298 463d 8552 35bd
000003c0: 21c5 02bd fc4c 74bd 206f 3fbc 00be 5eb9
000003d0: 1376 923d 5b55 89bd c6f5 343d a88b cebc
000003e0: c67d 7dbd e30e 1fbd ba9e 333d 6a32 613d
000003f0: 8cd4 8cbc 4cd4 ae3c 4e37 623d b4e9 d33c
-0.032810688 -0.0162649 0.024754263 0.04518322 0.016774654 -0.004364677 -0.00431595 0.06417445
-0.04177544 0.048957057 -0.016482629 0.014305219 -0.077181265 -0.08702622 0.045893766 0.027948573
0.08417212 0.0697192 0.02354987 -0.07323298 0.03802129 -0.04608099 0.013895571 0.035999022
0.035050534 -0.072460264 0.010674462 0.024805643 0.06988677 0.054440938 -0.07825717 -0.005239263
0.0770564 0.087593995 0.026120253 0.054948606 -0.06109272 0.07961104 -0.058273725 0.055715315
0.08790291 -0.0053144842 -0.031685725 0.02293165 -0.008517101 -0.057044156 0.024738789 -0.046553057
0.012004368 -0.010619886 -0.050870076 0.08133056 0.044615887 0.0138411 -0.07406418 -0.005362354
-0.028938849 0.05838283 0.079108365 -0.0131649375 -0.064478114 -0.08661213 0.0779509 -0.04631139
-0.025297001 0.01189056 0.05262605 0.0012483597 -0.061990067 -0.0753402 0.08125416 0.052710705
0.031157255 0.086312465 0.04933641 -0.04022547 0.05583755 0.08257676 0.014346257 -0.07119692
0.05944214 -0.054390337 -0.06180363 0.0016918033 0.058635913 -0.03714154 -0.019094177 0.019624218
0.008791439 -0.03243948 -0.027354937 0.0707052 -0.032679822 -0.006281838 0.07394267 -0.008387782
0.069895305 -0.0010334626 0.06227251 -0.061660826 -0.08371042 -0.019988008 -0.0431145 0.07513522
-0.08674097 0.0044826195 -0.008429408 0.0577854 0.00089063495 0.009272315 -0.034585007 -0.017666422
-0.026277684 0.026220225 -0.03982859 -0.06679572 -0.0284057 -0.0064041317 0.071258 -0.075344875
0.049609028 -0.011245787 -0.04170987 0.022427514 -0.026682116 0.062116496 -0.06475481 0.084828876
-0.037067037 -0.06007008 -0.012118228 -0.07164517 -0.035693143 -0.0026694834 -0.022629581 0.06447937
-0.039328035 -0.06058038 -0.047112253 -0.035511352 -0.07494657 -0.05378961 0.040388815 -0.063846566
0.044693165 -0.06475094 -0.05211681 -0.05614939 -0.041305143 0.019026414 -0.050870392 -0.08598538
0.07551361 -0.0010165721 -0.0064160377 -0.08097514 0.08801142 -0.03511592 -0.046747502 0.057344966
-0.012056328 -0.0027751029 -0.053355116 -0.043633495 -0.07661535 0.01800716 -0.081886865 0.01023376
0.008364096 0.062709905 -0.058849223 -0.045490693 0.02314116 0.032897912 0.034168273 -0.012363248
0.017821297 0.052480824 0.04512509 -0.050398633 0.00020487607 -0.02525217 -0.0552025 0.01644215
-0.015812516 0.021042012 -0.066527516 0.0052646026 0.057596065 0.083453916 5.2191317e-05 0.04881359
-0.015613541 0.008818276 0.08520379 -0.048493564 -0.08774372 -0.0265047 0.075853 0.08242852
0.020309962 0.059668012 -0.051846754 -0.044966776 -0.07574064 0.057725854 0.04367519 0.0073929355
-0.042293172 -0.02068723 0.058566518 -0.022073686 0.02894611 -0.0757315 -0.0664083 0.0022464693
0.06097702 0.023550741 -0.06704782 -0.06489478 -0.07933625 0.04971785 0.06089925 -0.036305465
-0.03676082 -0.030640401 0.058798023 0.003207378 0.044913687 -0.040323332 0.029388532 -0.040774822
-0.026195858 0.020503238 0.059527747 0.072040655 -0.043339152 0.05061052 0.048485704 -0.04426815
-0.031926278 -0.05964373 -0.011684209 -0.0002124235 0.07151427 -0.067057334 0.0441797 -0.025213078
-0.061887525 -0.038832556 0.043852545 0.05497972 -0.017191194 0.021341465 0.055228524 0.025868274

bias f4 [100]
00000000: bb36 98bd 78c9 9fbd 4d87 02bd aa87 153d
00000010: cde3 803d 17eb 863d faf6 88bd 4696 89bd
00000020: fa2c fbbc ee73 a7bd 1572 a63d 563b 273d
00000030: 6088 c03b 40c5 84bd a6d1 65bd 60ff 05bb
00000040: f8fd 95bc 1f61 8dbd 5343 903d d69e 163d
00000050: e058 70bd e6c0 45bd 6a74 243d 18b5 e33c
00000060: 2687 513d de52 353d b3c4 0fbd 2a93 0b3d
00000070: 7a00 193d e239 763d 734d 893d 68dd bb3c
00000080: 289d 0dbc b0e3 0f3d 7a38 623d 80df 633a
00000090: 866c 763d 0bc6 943d 7b8a b2bd 905b 6bbd
000000a0: 681b 89bd 4e6a a5bd 1898 b13c fc80 a1bd
000000b0: 7842 4a3c 00fb 7e3c 3c67 12bd f5f5 963d
000000c0: b0e0 c93b 6437 8abd b42c 0f3d 0e0f 3f3d
000000d0: 6877 1f3c a0d6 49bb de7a 2bbd 45e6 aabd
000000e0: eea0 4dbd 228b a4bd ca89 7ebd 15fb 813d
000000f0: be02 4f3d 02b4 543d 1094 e5bb 404e f8bc
00000100: 046a 6fbd 5881 883c 40a0 32bb a1f1 07bd
00000110: e5c9 8dbd 3457 aabc de01 48bd 7d37 9e3d
00000120: a80f 6dbc 2705 8a3d fcae 973c 0e04 8bbd
00000130: e11c 813d c607 4b3d 52b3 f0bc bb42 b13d
00000140: 3d26 a4bd 3b81 82bd e24e 60bd 9e3f 2e3d
00000150: a2a8 1f3d d124 08bd 4840 d7bc daa0 4a3d
00000160: 0a99 4e3d 8a76 b4bd 6f8d 873d fea4 4a3d
00000170: 8c5b 9fbd b8df ac3c 5f1d 963d 401e fe3c
00000180: 4560 9f3d 85ff 8e3d a5a0 913d e266 7a3d
-0.07432314 -0.07802099 -0.031867314 0.036506332 0.062934496 0.065878086 -0.06687732 -0.067181155
-0.030661095 -0.08176409 0.08127228 0.04082807 0.005875632 -0.06482935 -0.05610814 -0.0020446405
-0.018309578 -0.0690329 0.07044091 0.03677257 -0.058678508 -0.048279665 0.040150084 0.027796313
0.05115428 0.04426848 -0.035099696 0.034075893 0.03735397 0.060113795 0.067042254 0.022932723
-0.008643426 0.03512925 0.05522964 0.0008692667 0.06016209 0.07264336 -0.08717819 -0.057460368
-0.066946805 -0.08076917 0.02167897 -0.0788593 0.012344949 0.015562773 -0.035742983 0.07371131
0.006160818 -0.06748846 0.03495474 0.046645217 0.0097330585 -0.0030798092 -0.041865222 -0.08344702
-0.050202303 -0.0803435 -0.062143125 0.06346718 0.050539725 0.05192948 -0.007006176 -0.03031075
-0.058450714 0.016663238 -0.002725616 -0.03318942 -0.06923274 -0.020793535 -0.048829906 0.07725427
-0.014469065 0.06739264 0.018516056 -0.06787883 0.06304336 0.04956796 -0.029382382 0.08655306
-0.08015106 -0.06372305 -0.05476273 0.04254114 0.03897918 -0.033238236 -0.026275769 0.049469806
0.05043892 -0.08811672 0.06618773 0.049473755 -0.07781133 0.021102771 0.07329821 0.031020284
0.07782034 0.0698233 0.07110719 0.061133273

weight f4 [1, 100]
00000000: 6df5 c6bd 2f49 bc3d a010 9b3c 111d ad3d
00000010: 4b17 c6bd 00ba d13b 0020 b837 2898 653c
00000020: 7dea 7ebd e32d 7bbd bb16 833d ec1f 8bbd
00000030: 5051 77bd a71b 22bd 2973 953d 98b5 04bc
00000040: b0e1 febb 0fa6 cb3d e246 123d 09e4 903d
00000050: 07af 963d 6214 7c3d 54cd c23c bf38 8c3d
00000060: 7a89 a7bd 0a72 5b3d ef77 b4bd 87dd ca3d
00000070: 00f9 5e3c fa9c 0dbd 74c8 f33c 1f7a a93d
00000080: d4ab f43c 0f79 c5bd 429c 623d 7acf 393d
00000090: 12b8 113d 6234 0c3d 5b4e c13d f09e a4bd
000000a0: f230 6c3d 6bd9 be3d d49c 83bd f40d cdbc
000000b0: 9a30 31bd 30ec 613c 0280 89bd 1854 393c
000000c0: 431e b6bd 0dbb ac3d 00da 7c3b ca0e 75bd
000000d0: e8f1 d1bc 4c96 84bc 80c6 79ba c11d c03d
000000e0: 78c0 963c a03a e9bb c458 f33c 592b a73d
000000f0: a843 333c 48ce aebd 2066 9f3b be59 753d
00000100: 3be3 933d 5172 a43d 9374 b13d 3979 c33d
00000110: 4dff a8bd 3f0d 8d3d da6e bdbd 5057 45bd
00000120: ba5a 7fbd 9fe4 8a3d 7983 943d 0a66 86bd
00000130: 748e af3c 63e5 a53d 57bf ca3d 3600 7a3d
00000140: b097 e23b 404d 8dbc 8290 313d 632e 2fbd
00000150: b809 81bc 4504 c2bd 74df 83bc 9bcb 9ebd
00000160: d3d6 8a3d 26e1 573d 2c24 93bc c1b2 8a3d
00000170: a2be 033d ede2 80bd 6d5e 9bbd 934e c53d
00000180: 43d0 71bd 763a 483d 0005 3d3c 40b6 1bbb
-0.0971478 0.09193646 0.018928826 0.084528096 -0.096724115 0.0064003468 2.194941e-05 0.014013328
-0.062235344 -0.061323058 0.0640082 -0.06793198 -0.06038028 -0.039577153 0.07297356 -0.008099936
-0.007778369 0.099437825 0.03571213 0.07074744 0.073576026 0.061542876 0.023779549 0.06846761
-0.081805184 0.053575553 -0.08811938 0.09905534 0.013609171 -0.034573533 0.02975867 0.08275246
0.02986709 -0.09642231 0.0553248 0.04536388 0.035575934 0.034229644 0.09438773 -0.080381274
0.057663865 0.09318813 -0.06426397 -0.025031067 -0.04325924 0.013789222 -0.06713869 0.011311553
-0.08892491 0.084341146 0.0038582087 -0.059828557 -0.025628045 -0.016184948 -0.0009528175 0.09380675
0.018402323 -0.0071175843 0.029705413 0.08162565 0.0109414235 -0.08535439 0.004864469 0.059900038
0.07221075 0.080296166 0.08664813 0.09544606 -0.0825182 0.06887292 -0.09249659 -0.04817897
-0.062342383 0.06781887 0.07251639 -0.06562431 0.021430232 0.08100393 0.098997764 0.061035357
0.006915055 -0.01724875 0.043350704 -0.042768847 -0.015751705 -0.094734706 -0.016097762 -0.077536784
0.06779256 0.052704953 -0.017961584 0.06772376 0.032164223 -0.06293283 -0.0758637 0.096341275
-0.059036504 0.048883878 0.011536837 -0.0023759753
